checkpoint/social-stgcnn-hotel/val_best.pth (torch_old, 36966 bytes, 30 tensors)

st_gcns.0.gcn.conv.weight f4 [5, 2, 1, 1]
0	0x3eb4aa23	0.35286054
1	0x3de2f342	0.11081554
2	0xbee1a212	-0.44068962
3	0x3e8182e6	0.2529518
4	0xbecad439	-0.39615038
5	0xbe2252b9	-0.15851869
6	0x3f036a73	0.51334304
7	0x3e020180	0.12695885
8	0xbf179380	-0.5920944
9	0x3dc2d1eb	0.09512695

st_gcns.0.gcn.conv.bias f4 [5]
0	0xbf267337	-0.65019554
1	0x3f251f98	0.64501333
2	0xbf12774e	-0.57213295
3	0x3af3d946	0.0018604181
4	0x3ed14d2d	0.40879193

st_gcns.0.tcn.0.weight f4 [5]
0	0x3b5503b8	0.0032503437
1	0x3ba600d4	0.0050660167
2	0x3c9b20b6	0.018936496
3	0x3de91a05	0.11381916
4	0xbb6bd33d	-0.0035984062

st_gcns.0.tcn.0.bias f4 [5]
0	0xbd84d553	-0.06486001
1	0x3e8946b1	0.26811746
2	0x3ec426a1	0.38310722
3	0x3e041147	0.12897216
4	0xbc296073	-0.010337937

st_gcns.0.tcn.0.running_mean f4 [5]
0	0xbd3fb673	-0.046804857
1	0x3d418da6	0.047254227
2	0xbd1ab826	-0.037773274
3	0xbb1d9b72	-0.0024048951
4	0x3d010bf8	0.031505555

st_gcns.0.tcn.0.running_var f4 [5]
0	0x3c9aa0a6	0.018875431
1	0x3cb501a1	0.022095503
2	0x3c6deb62	0.014521452
3	0x3bef3549	0.0073000533
4	0x3c8b995a	0.017040897

st_gcns.0.tcn.2.weight f4 [5, 5, 3, 1]
0	0xbd187caf	-0.037228283
1	0x3e00ec9d	0.12590261
2	0x3c19b586	0.0093816575
3	0xbe80aef4	-0.2513348
4	0xbdd963af	-0.10614716
5	0xbc36282b	-0.011117975
6	0xbcbb3577	-0.022852642
7	0xbdc143b0	-0.094367385
8	0x3e4e9df4	0.20177442
9	0x3d8acbd8	0.06777161
10	0x3dc53cd4	0.09630743
11	0x3de35fcc	0.11102256
12	0x3e05fba7	0.13084279
13	0xbcb3ed46	-0.021963727
14	0xbce5c3b8	-0.028047428
15	0xbced3f5e	-0.02896088
16	0x3cb369d9	0.021901058
17	0xbe151b9e	-0.14561316
18	0xbe6e7666	-0.23287353
19	0xbe1537a3	-0.14572005
20	0xbde03497	-0.10947531
21	0xbe9a2014	-0.301026
22	0xbe43fb29	-0.19138779
23	0x3dfc44e3	0.123178266
24	0x3e4e8d74	0.20171148
25	0x3da6bbbd	0.08141277
26	0x3e068e85	0.13140304
27	0xbe20b593	-0.15694265
28	0xbd9b7c74	-0.07592097
29	0xbd8f49ac	-0.06996474
30	0x3ce64964	0.028111167
31	0x3e79466d	0.24343272
32	0x3e00d2e4	0.12580448
33	0xbe390714	-0.18069106
34	0x3cb32bfc	0.02187156
35	0xbe1efa84	-0.15525252
36	0xbe8d71da	-0.27625924
37	0x3e835ca6	0.25656623
38	0x3e270e7d	0.1631412
39	0xbe839553	-0.25699863
40	0xbc8f77c6	-0.017513167
41	0xbcd99f98	-0.026565358
42	0x3e51e975	0.20499213
43	0xbe3ccaed	-0.18436785
44	0x3e6c8276	0.23096642
45	0x3e8117cf	0.25213477
46	0xbd227a10	-0.03966719
47	0xbd21a93b	-0.03946803
48	0xbb901d25	-0.0043980055
49	0xbe65cd91	-0.22441699
50	0xbdfeb554	-0.12436929
51	0x3e2d8030	0.16943431
52	0xbd84c418	-0.064827144
53	0x3d9c76e7	0.07639866
54	0x3ddbd169	0.10733301
55	0x3e7c45b9	0.24635972
56	0x3e08834d	0.13331337
57	0x3da0303e	0.078217015
58	0xbe8a2a9c	-0.26985633
59	0x3e55f308	0.2089349
60	0x3e6c2e28	0.23064482
61	0x3e2890be	0.16461465
62	0x3e192e4b	0.14959066
63	0xbe37949e	-0.17927787
64	0xbe4a0456	-0.19728217
65	0xbe177711	-0.14791514
66	0xbec09683	-0.3761483
67	0xbe6f8da9	-0.23393883
68	0x3e2b1697	0.16707836
69	0xbdb73a23	-0.089466356
70	0x3c8494c0	0.01618421
71	0x3d54c35e	0.05194413
72	0xbe2784ce	-0.16359255
73	0xbe77ba57	-0.24192177
74	0x3e2fff6a	0.17187276

st_gcns.0.tcn.2.bias f4 [5]
0	0xbe145677	-0.14486109
1	0xbe03277e	-0.12808034
2	0x3caecc06	0.02133752
3	0x3c5b0504	0.013367895
4	0x3e0b7386	0.13618287

st_gcns.0.tcn.3.weight f4 [5]
0	0x3db8feaf	0.09032952
1	0x3e64d1d0	0.22345662
2	0x3eeb04e0	0.45902157
3	0xbe064121	-0.13110782
4	0x3f3ac426	0.7295555

st_gcns.0.tcn.3.bias f4 [5]
0	0x3dc7f918	0.09764308
1	0x3d22c6ba	0.0397403
2	0xbe4f10a6	-0.20221195
3	0x3d44b153	0.048020672
4	0xbd9c25bb	-0.07624384

st_gcns.0.tcn.3.running_mean f4 [5]
0	0xbe375a80	-0.17905617
1	0xbea7ae79	-0.327503
2	0xbd0abaf9	-0.033869717
3	0x3d22227a	0.03958366
4	0xbe272678	-0.16323268

st_gcns.0.tcn.3.running_var f4 [5]
0	0x3b1159b9	0.0022178723
1	0x3b93fb81	0.0045160656
2	0x3ba5c451	0.005058803
3	0x3b3306dc	0.002731732
4	0x3ba70afb	0.0050977445

st_gcns.0.residual.0.weight f4 [5, 2, 1, 1]
0	0x3c9ac6cb	0.01889362
1	0xbd2451fc	-0.04011725
2	0xbe895623	-0.2682353
3	0xbeb6a89f	-0.35675523
4	0x3edb25cd	0.42802277
5	0xbe75033f	-0.2392702
6	0x3eafdf8d	0.34350243
7	0x3ed5994f	0.41718528
8	0xbf07ee72	-0.53098214
9	0xbe391ccc	-0.18077391

st_gcns.0.residual.0.bias f4 [5]
0	0xbe46af1b	-0.19402735
1	0xbda108be	-0.078629956
2	0x3ebb24a9	0.36551407
3	0xbf1099be	-0.5648459
4	0xbefd0f5a	-0.49425775

st_gcns.0.residual.1.weight f4 [5]
0	0x3f62bb9a	0.8856751
1	0x3f4c18f1	0.7972556
2	0x3f2438ea	0.64149344
3	0x3f39b724	0.72545075
4	0x3e683e59	0.22680034

st_gcns.0.residual.1.bias f4 [5]
0	0x3dc7f918	0.09764308
1	0x3d22c6ba	0.0397403
2	0xbe4f10a6	-0.20221195
3	0x3d44b153	0.048020672
4	0xbd9c25bb	-0.07624384

st_gcns.0.residual.1.running_mean f4 [5]
0	0xbe46ab94	-0.1940139
1	0xbd9bda31	-0.07609976
2	0x3eba1cb9	0.3635004
3	0xbf116792	-0.5679866
4	0xbefb2b3c	-0.49056423

st_gcns.0.residual.1.running_var f4 [5]
0	0x3841d332	4.6211477e-05
1	0x3be33394	0.006933639
2	0x3c969b67	0.018384648
3	0x3c36c3af	0.011155053
4	0x3cce9622	0.025218073

tpcnns.0.weight f4 [12, 8, 3, 3]
0	0x3b408ea6	0.00293819
1	0xbcd8b9fe	-0.026455875
2	0xbd0019e0	-0.031274676
3	0xba5ff721	-0.00085436
4	0xbad236bd	-0.0016038042
5	0xbc65cf95	-0.014026542
6	0x3d9befa2	0.07614066
7	0x3dba7791	0.09104837
8	0x3d955a1a	0.07292576
9	0xbba22ea6	-0.0049494086
10	0x3cab93a9	0.020944433
11	0x3c8d7b68	0.017270759
12	0x3d888e49	0.06667764
13	0xbd20e473	-0.039280366
14	0x3c9c8fa8	0.01911147
15	0xbdefd662	-0.11710812
16	0xbdcbc33f	-0.099493496
17	0xbd346f2b	-0.04405133
18	0xbd2a1103	-0.04152013
19	0xbdabb12f	-0.083834045
20	0x3ca373c6	0.019952666
21	0xbc9bfaaa	-0.019040424
22	0xbdab2902	-0.08357431
23	0x3c35f453	0.011105615
24	0x3db61754	0.08891168
25	0xbde3d564	-0.111246854
26	0xbc22e724	-0.0099428035
27	0x3b6de628	0.0036300514
28	0xbded372a	-0.11582787
29	0xbc3d2dee	-0.011546595
30	0xbdff61d1	-0.12469829
31	0xbd28b41c	-0.04118739
32	0xbd9723b4	-0.07379857
33	0xbd88e44c	-0.06684169
34	0xbd065d90	-0.032804072
35	0xbd03398c	-0.032037303
36	0xbd1d2633	-0.038366508
37	0x3d16d2c4	0.036822096
38	0xbc9953b7	-0.018716676
39	0xbd29c4f9	-0.041447613
40	0x3d856804	0.0651398
41	0x3da27009	0.07931525
42	0xbca3292b	-0.019917091
43	0xbd645fa6	-0.05575528
44	0xbdcf117e	-0.10110758
45	0xbbf70b1d	-0.0075391666
46	0x3c961744	0.01832164
47	0x3b46bee8	0.0030326191
48	0xbd54ab4a	-0.051921166
49	0xbd1a9e33	-0.037748527
50	0x3d1a055f	0.03760278
51	0x3e0df10d	0.13861485
52	0xbd643c7c	-0.055721745
53	0xbd4b3f3d	-0.049620856
54	0xbcbb6bdf	-0.022878585
55	0x3d7ae346	0.0612519
56	0x3c89e958	0.0168349
57	0xbd3a5a78	-0.045496434
58	0xbd0c3d4d	-0.03423815
59	0xbd2e0227	-0.04248252
60	0x3cd7d4b2	0.026346538
61	0x3dce6afd	0.10079
62	0x3bd3c9e8	0.006463278
63	0xbdc53764	-0.096297055
64	0x3d4e09ca	0.050302304
65	0x3d3c67ca	0.04599742
66	0x3d92f91d	0.07176421
67	0x3d10d23c	0.035356745
68	0x3cf3d47e	0.02976441
69	0x3c329fc9	0.010902354
70	0xbc3a7e3a	-0.011382634
71	0xbd10732f	-0.035266098
72	0xbd1f4909	-0.03888801
73	0xbe0b6c8e	-0.13615629
74	0xbde46c35	-0.11153451
75	0xbc361ef9	-0.011115783
76	0x3b967b62	0.004592345
77	0x3d0455e5	0.032308478
78	0x3d115b5c	0.035487518
79	0x3c86bdf8	0.016448006
80	0x3dc0412e	0.09387432
81	0x3bcbd8b2	0.0062209005
82	0x3e173787	0.14767276
83	0x3cfbc1af	0.030732004
84	0xbdbb8e99	-0.09158058
85	0xbc70d6a1	-0.014699609
86	0x3ce76387	0.0282457
87	0xbbdcfdd6	-0.006744127
88	0x3e8ddc03	0.27706918
89	0x3d130c45	0.035900373
90	0xbd0cca11	-0.034372393
91	0xbd343323	-0.04399408
92	0x3b22551d	0.002476997
93	0xbd8382ea	-0.06421454
94	0xbd195121	-0.037430886
95	0xbda3e634	-0.08002892
96	0xbd7bc853	-0.06147034
97	0xbdff8665	-0.124768056
98	0xbc96c2eb	-0.018403491
99	0xbcebe919	-0.028797673
100	0xbdec442c	-0.1153644
101	0xbc2944ea	-0.010331372
102	0x3b68cc8d	0.0035522312
103	0xbde722a3	-0.11285903
104	0xbd8e1a52	-0.06938614
105	0xbcc9f734	-0.024654008
106	0xbdeb661b	-0.114940844
107	0xbe6a417e	-0.22876546
108	0x3dcbb761	0.09947086
109	0x3da13f9b	0.0787346
110	0x3de5bb5d	0.11217377
111	0x3dbf1013	0.09329238
112	0x3d08895e	0.03333413
113	0x3e1fb22a	0.15595308
114	0x3d5d5b62	0.054042228
115	0x3df46792	0.11933817
116	0xbd9ed605	-0.07755665
117	0xbbf20b04	-0.007386567
118	0x3bfd9abb	0.0077393926
119	0x3c81a1c0	0.015824199
120	0x3cec313f	0.028832076
121	0xbd49f243	-0.049303304
122	0x3c7cc013	0.015426653
123	0xbe1751d0	-0.14777303
124	0xbcd0807b	-0.02545189
125	0xbd70f845	-0.05883052
126	0x3a8163e9	0.0009871694
127	0xbd02db3a	-0.031947352
128	0xbdfe7fa0	-0.12426686
129	0x3c422908	0.011850603
130	0x3e27a3f7	0.16371141
131	0xba78f708	-0.000949726
132	0x3d44e1d6	0.048066936
133	0x3e95e58d	0.29276696
134	0x3dca437c	0.09876153
135	0x3c1a7aa5	0.009428655
136	0x3d09a6a5	0.03360619
137	0xbcf9704d	-0.030449057
138	0xbddb0fef	-0.106963985
139	0xbc748d1d	-0.014926222
140	0x3dac7fb7	0.08422797
141	0x3cdd47c0	0.027011752
142	0x3d3ef678	0.04662177
143	0x3dc90a6f	0.09816443
144	0x3c149ea5	0.009071027
145	0xbe186913	-0.14883833
146	0x3d0f5fb0	0.035003364
147	0xbdaa1377	-0.08304494
148	0xbcba0070	-0.022705287
149	0xbe097dde	-0.13426921
150	0x3d14822a	0.036256947
151	0x3dc24aa4	0.09486893
152	0x3be8d4c4	0.0071054418
153	0x3ce0215d	0.027359659
154	0x3af4059d	0.0018617396
155	0xbd2e9265	-0.04262008
156	0xbb813d19	-0.003944051
157	0x3de1215f	0.10992693
158	0xbd808926	-0.06276159
159	0x3cc4a033	0.02400217
160	0x3e22e2fb	0.15906899
161	0xbca57588	-0.020197645
162	0xbdcd8005	-0.100341834
163	0x3cacad2e	0.021078672
164	0x3d1f529a	0.038897134
165	0x3d2c482f	0.042061027
166	0x3d71f6c9	0.059073243
167	0xbd0a4b50	-0.03376323
168	0x3d1e27eb	0.038612287
169	0x3cca1b02	0.024671081
170	0xbc4f5d87	-0.012656576
171	0xbdc9659f	-0.09833836
172	0x3e855003	0.26037607
173	0xbdd1b384	-0.10239318
174	0xbc4c12f0	-0.012455687
175	0x3d72091a	0.05909071
176	0xbd592a8d	-0.053019095
177	0xbd3ffe5f	-0.046873447
178	0xbcc18fbb	-0.023628106
179	0x3a8519d4	0.0010154792
180	0x3d077225	0.03306784
181	0x3e0307a1	0.12795879
182	0x3cdf5fbd	0.027267331
183	0xbd4faa40	-0.050699472
184	0x3d9a1996	0.075244114
185	0x3e090505	0.13380821
186	0xbd03fa26	-0.032220982
187	0xbe14e6fb	-0.14541237
188	0x3dbf978c	0.09355077
189	0xbd18f65f	-0.037344333
190	0x3d43a8c6	0.047768377
191	0xbd229509	-0.039692912
192	0x3d860d8b	0.06545552
193	0x3c9e9ae4	0.019360967
194	0xbc83ebf7	-0.016103728
195	0xbc5fce7d	-0.0136600705
196	0x3e1fd644	0.1560908
197	0xbcfd8154	-0.030945458
198	0xbd57b229	-0.05266014
199	0x3c4d0642	0.012513699
200	0x3d612be6	0.054973505
201	0xb9a2d90f	-0.0003106077
202	0xbe48415a	-0.1955618
203	0x3c3f8641	0.0116897235
204	0xbcc80016	-0.024414103
205	0x3d9a8381	0.07544614
206	0xbb5f39b6	-0.0034061498
207	0xbde14b1f	-0.11000656
208	0x3d8e2e62	0.069424406
209	0x3b18dde1	0.002332561
210	0x3d7c2a8c	0.061564013
211	0xbd750393	-0.05981786
212	0x3be3cc5e	0.0069518527
213	0x3c98500e	0.01859286
214	0x3d445942	0.047936685
215	0x3cbf57dc	0.023357324
216	0x3d5c1a35	0.05373593
217	0x3e292bf4	0.16520673
218	0xbc0d07f3	-0.008607852
219	0x3dac18af	0.084031455
220	0x3d4d9f80	0.05020094
221	0x3d184237	0.037172522
222	0xbcd809e5	-0.026371906
223	0x3e08f852	0.13375977
224	0x3d21f076	0.039535962
225	0xbd51d5ea	-0.051229395
226	0xbe05cc87	-0.13066302
227	0xbc90eda2	-0.017691437
228	0xbd2885d1	-0.041143242
229	0xbe4795b7	-0.19490705
230	0xbdd04dc3	-0.10171082
231	0x3b3cdfa9	0.0028819835
232	0xbccea8ef	-0.025227038
233	0x3caec431	0.021333786
234	0x3d659ceb	0.05605785
235	0x3da498b0	0.08036935
236	0xbd513f67	-0.051085856
237	0x3b188081	0.0023269954
238	0xbdfca00c	-0.12335214
239	0x3df727f5	0.12068168
240	0xbd884c51	-0.06655181
241	0xbc1e5d35	-0.009665777
242	0xbd7d0a9f	-0.061777707
243	0xbd8bf2bc	-0.06833407
244	0x3d36589a	0.04451809
245	0xbd4df9ab	-0.05028693
246	0x3c101352	0.008793669
247	0xbdb3c1bb	-0.087771855
248	0xbdba80d8	-0.09106606
249	0xbcaa6149	-0.020798342
250	0x3dd0d311	0.10196508
251	0xbd5df7df	-0.054191466
252	0x3d503530	0.050831974
253	0x3d7de1f8	0.06198308
254	0x3d859fde	0.06524633
255	0xbd8c4e7c	-0.06850907

tpcnns.0.bias f4 [12]
0	0x3e20c782	0.15701106
1	0x3e12f243	0.14350228
2	0x3d85dc77	0.06536191
3	0xbdf1f2d8	-0.11813897
4	0xbd592f84	-0.05302383
5	0x3d63c469	0.055607233
6	0xbd08c8fb	-0.033394795
7	0xbcbf6436	-0.023363214
8	0xbdca16a4	-0.098675996
9	0x3e1c1b2c	0.1524474
10	0x3ec8effd	0.39245597
11	0xbe08baff	-0.13352583

tpcnns.1.weight f4 [12, 12, 3, 3]
0	0x3c0335a4	0.008008394
1	0x3d3146a8	0.043280274
2	0xbc2882d0	-0.010285094
3	0xbdf9d93b	-0.121996365
4	0x3bedfb7d	0.0072626458
5	0xbd81f37b	-0.06345268
6	0xbdef9365	-0.11698035
7	0x3c42c1a2	0.011886986
8	0xbe3749a4	-0.17899185
9	0x3bd72743	0.0065659597
10	0x3d4bf10f	0.04979044
11	0xbc8f464f	-0.01748958
12	0x3c9f5b67	0.019452764
13	0xbcf48211	-0.029847177
14	0x3c1e5d6b	0.009665827
15	0xbc915e77	-0.01774524
16	0x3df8da69	0.121510334
17	0xbd2ae9e5	-0.041726965
18	0x3df0ceb4	0.117581755
19	0xbd19e7c4	-0.037574545
20	0x3cd65498	0.026163384
21	0x3d941c35	0.072319426
22	0x3d458c09	0.04822925
23	0x3d4e67d6	0.050391994
24	0x3cb3472d	0.021884525
25	0xbdd8d5e4	-0.105876714
26	0x3d829fbd	0.06378124
27	0xbc4f28dc	-0.012644019
28	0xbc76a7d3	-0.015054661
29	0x3de0556c	0.10953793
30	0x3ce7650f	0.02824643
31	0x3d4fafb8	0.050704688
32	0x3d23ae80	0.039961338
33	0x3d8075d9	0.06272478
34	0x3d07ab83	0.03312255
35	0xbd417788	-0.047233135
36	0x3ca0b2d6	0.019616526
37	0xbdddbfef	-0.10827624
38	0xbdc84be8	-0.09780103
39	0x3cc3327e	0.023827787
40	0x3bcc2e3e	0.0062310984
41	0xbca332ed	-0.019921744
42	0x3d8c04c2	0.06836845
43	0x3bfd782e	0.007735274
44	0xbddda7f8	-0.10823053
45	0xbafc43d7	-0.0019246292
46	0xbb3364b1	-0.002737325
47	0x3d66beae	0.05633419
48	0x3da7fbd2	0.08202328
49	0x3d8ba387	0.068183
50	0xbd215df5	-0.039396245
51	0xbd8dcc1a	-0.06923695
52	0x3c2ece2d	0.010669273
53	0xbd9c21d1	-0.076236375
54	0xbd504b3e	-0.050853007
55	0x3d75712f	0.059922393
56	0x3d679bb7	0.056544986
57	0x3da27494	0.07932392
58	0x3d7016a8	0.058615357
59	0xbced0545	-0.028933177
60	0xbe059335	-0.13044436
61	0xbc25deac	-0.01012389
62	0x3d879eb3	0.06622066
63	0xbd697331	-0.05699462
64	0x3a981288	0.0011602202
65	0xbd1ac98e	-0.037789874
66	0x3d5e5313	0.054278444
67	0xbd7d7f89	-0.061889205
68	0x3db0fc76	0.08641903
69	0xbc207b35	-0.009795
70	0x3cafda99	0.02146654
71	0x3d37940e	0.04481893
72	0x3d1e3ec7	0.038634088
73	0x3d285361	0.04109514
74	0xbd529bcf	-0.051418122
75	0xbd607244	-0.054796472
76	0xbd13a337	-0.036044326
77	0xba8be56f	-0.0010673235
78	0xbdab6a58	-0.08369893
79	0xbc2af4cd	-0.010434342
80	0xbc23ba45	-0.009993141
81	0x3da5d32b	0.08096918
82	0xbccee844	-0.025257237
83	0xba26d694	-0.0006364372
84	0xbd134594	-0.035955027
85	0xbe2cee4e	-0.16887781
86	0xbe040d38	-0.12895668
87	0xbd6993f7	-0.057025876
88	0xbda5c944	-0.08095029
89	0xbbd490f6	-0.0064870073
90	0xbd25a424	-0.04043974
91	0xbe2b2348	-0.16712677
92	0xbe093cc3	-0.13402085
93	0xbe2f0214	-0.17090636
94	0xbcd29104	-0.025703914
95	0xbd7c6f1c	-0.0616294
96	0xbd2fabfa	-0.04288862
97	0xbd966541	-0.073435314
98	0xbd3004bd	-0.04297327
99	0xbd858413	-0.06519332
100	0x3db75d46	0.08953337
101	0xbdde0f9b	-0.1084282
102	0x3d1321ad	0.035920788
103	0xbda8b5a8	-0.08237773
104	0xbc5a0c57	-0.013308606
105	0x3d143728	0.036185414
106	0x3c6474c9	0.013943859
107	0xbca609f9	-0.020268427
108	0x3d849df9	0.064754434
109	0xbdadcfd2	-0.08486904
110	0x3c290c36	0.010317853
111	0x3d20617c	0.03915547
112	0xbcca2f3a	-0.024680723
113	0x3d70c7f0	0.058784425
114	0xbd88a17a	-0.06671424
115	0x3ddb276e	0.1070088
116	0xbdb7b2c6	-0.08969645
117	0xbaff0185	-0.0019455409
118	0xbd91197c	-0.07084939
119	0xbde10581	-0.10987378
120	0x3d60d6c1	0.054892305
121	0xbd608ac2	-0.05481983
122	0x3a313de9	0.00067612395
123	0x3d72ce50	0.059278786
124	0x3da4dc83	0.08049872
125	0xbd5869ad	-0.052835155
126	0xbd3c7826	-0.04601302
127	0x3d8d3a2d	0.06895862
128	0x3d62bb72	0.055354543
129	0x3d360ce2	0.04444588
130	0x3cd86602	0.026415829
131	0xbdb605e4	-0.08887842
132	0xbd650a14	-0.055917814
133	0x3defde63	0.11712339
134	0x3d513c5a	0.051082946
135	0xbd2d0345	-0.042239446
136	0x3d9feed2	0.07809223
137	0xbcb6308a	-0.022239942
138	0xbda6ac9b	-0.08138391
139	0x3b9c4839	0.004769352
140	0x3c9d27d5	0.019184032
141	0x3d9fa27e	0.07794665
142	0x3cdf4c5f	0.027258096
143	0xbbc973ac	-0.0061478224
144	0xbc07cb05	-0.00828815
145	0x3ce9eaf6	0.02855442
146	0x3dce02b3	0.100591086
147	0xbca2c575	-0.019869545
148	0x3b3d8aaf	0.0028921773
149	0xbdac38e3	-0.08409288
150	0xbdb73049	-0.089447565
151	0x3d6248f6	0.055245362
152	0x3dafcdc8	0.085841715
153	0xbd47da47	-0.04879215
154	0xbda1facf	-0.07909166
155	0xbd93b094	-0.07211414
156	0xbd88c121	-0.066774614
157	0x3dcec430	0.100960135
158	0xbd356cf3	-0.044293355
159	0xbda59d70	-0.080866694
160	0x3cb5a2b2	0.022172306
161	0x3ce75af9	0.028241621
162	0x3d82e490	0.06391251
163	0xbd5ea451	-0.054355923
164	0xbc9c283b	-0.019062152
165	0xbca7a332	-0.02046356
166	0xbd0b35ee	-0.03398698
167	0xbd3b947d	-0.045795906
168	0xbbf5d3a4	-0.007502036
169	0xbc02a7c2	-0.007974567
170	0x3d0b743e	0.034046404
171	0x3db81c5e	0.089897856
172	0x3d124d8d	0.03571849
173	0xbdbb4ac8	-0.09145123
174	0x3d677dc5	0.056516428
175	0x3d4756dd	0.048666824
176	0x3dab4d9f	0.083644144
177	0x3d191cf2	0.03738112
178	0x3d94f8cc	0.07274017
179	0xbd827d8a	-0.06371601
180	0x3cfe9af8	0.031079754
181	0xbd635231	-0.055498306
182	0xbd89f359	-0.06735868
183	0x3caa1b5b	0.020764997
184	0x3d8b4092	0.06799425
185	0x3d12aeaf	0.035811123
186	0x3d3fca81	0.046823982
187	0x3d319b46	0.04336097
188	0x3d413e71	0.04717869
189	0xbc87aff0	-0.016563386
190	0xbc83c2db	-0.016084125
191	0x3dc6b3b5	0.09702245
192	0xbd468d74	-0.048474744
193	0x3d30e215	0.04318436
194	0x3c8dfbc4	0.017331965
195	0x3d506c2d	0.050884414
196	0xbd03f53f	-0.032216307
197	0x3d4e993d	0.05043911
198	0x3cd0a70b	0.025470277
199	0xbd95b01c	-0.07308981
200	0xbde53a2a	-0.111927345
201	0xbda68215	-0.0813028
202	0x3d84493e	0.06459282
203	0x3cfe493b	0.031040778
204	0xbd321ce7	-0.043484595
205	0x3d8086c0	0.062757015
206	0xbdc49619	-0.09598941
207	0xbde68399	-0.11255569
208	0xbb94205f	-0.0045204605
209	0x3d8b0eb4	0.06789914
210	0x3d5c5d79	0.05380008
211	0xbd9d7201	-0.0768776
212	0xbc987100	-0.01860857
213	0x3d5228d8	0.051308483
214	0x3d9043c8	0.07044178
215	0x3d7ef90f	0.06224924
216	0xbda39759	-0.07987852
217	0xbc9637b5	-0.01833711
218	0x3ca4d1ce	0.020119574
219	0xbd3eabb8	-0.046550483
220	0xbdb85b02	-0.09001733
221	0x3ceb63a1	0.02873403
222	0xbe189400	-0.14900208
223	0x3d2ccc69	0.04218713
224	0x3ba16e72	0.004926496
225	0xbc57d68d	-0.0131737115
226	0x3d874960	0.06605792
227	0x3c3f25e4	0.011666749
228	0x3c2836d4	0.010266978
229	0x3d8b1976	0.06791966
230	0xbc6aa8e2	-0.014322491
231	0xbd4eb7ac	-0.050468132
232	0x3da9c196	0.08288877
233	0xbd89cb40	-0.0672822
234	0x3cfe93b4	0.03107629
235	0x3e27b253	0.16376619
236	0xbd0d74ad	-0.0345351
237	0xbc9d6794	-0.019214429
238	0xbdc6289b	-0.09675714
239	0x3c1f2022	0.009712251
240	0xbcf85530	-0.030314058
241	0x3d0e9257	0.03480753
242	0x3d1e3d28	0.038632542
243	0x3dafa023	0.085754655
244	0x3d030a41	0.0319922
245	0x3c7dc27b	0.015488262
246	0x3daba03a	0.0838017
247	0xbdce7afb	-0.100820504
248	0x3cefbeb6	0.029265743
249	0x3db8cc66	0.09023361
250	0xbc55acd5	-0.013041695
251	0xbd819fe7	-0.06329327
252	0x3d99f80a	0.07518013
253	0xbd39e1de	-0.04538142
254	0xbc459f1d	-0.012061861
255	0xbd568e4e	-0.052381806

tpcnns.1.bias f4 [12]
0	0x3e12e26c	0.14344186
1	0xbdedcefc	-0.11611745
2	0xbdf17d59	-0.11791486
3	0xbdc3ff44	-0.095701724
4	0x3bf19943	0.0073730065
5	0x3e157cc0	0.1459837
6	0x3b9944cf	0.004677392
7	0x3d8f059e	0.06983493
8	0x3d9d7022	0.07687403
9	0xbd6f7b30	-0.05846709
10	0x3e46c4b8	0.1941098
11	0x3e68d9d1	0.2273934

tpcnns.2.weight f4 [12, 12, 3, 3]
0	0x3d6a8a2f	0.05726069
1	0x3d61a9ca	0.055093564
2	0xbdc564f5	-0.09638397
3	0xbe26a272	-0.16272905
4	0xbd4b0b8a	-0.04957155
5	0xbdc4c07d	-0.09607027
6	0xbbff4dff	-0.0077912803
7	0x3d690911	0.056893412
8	0xbcf6b353	-0.030114805
9	0xbd9ab8d1	-0.07554782
10	0x3d89133d	0.066931225
11	0x3d81ecef	0.063440196
12	0x3c6dc753	0.014512855
13	0xbd4b90ed	-0.04969876
14	0xbdee0505	-0.11622051
15	0xbd7e6b85	-0.062114257
16	0xbdd93585	-0.10605911
17	0xbd848ed6	-0.06472556
18	0xbc3efaff	-0.011656522
19	0xbc8a07b6	-0.01684938
20	0x3db647b6	0.089003965
21	0xbc8ee425	-0.017442772
22	0xbce43080	-0.027855158
23	0xbc9e2675	-0.019305447
24	0x3d99cebf	0.07510137
25	0xbce0e7ba	-0.027454246
26	0xbd32af92	-0.04362447
27	0x3d48cf6b	0.049025934
28	0xbd19640f	-0.03744894
29	0x3d51bf0a	0.05120758
30	0xbd763965	-0.06011333
31	0x3d2cf9f1	0.04223055
32	0x3c58032a	0.013184348
33	0xbd972a31	-0.07381094
34	0xbd9e3ba5	-0.0772622
35	0x3d4f13e5	0.050556082
36	0xbd4a812b	-0.04943959
37	0xbac78faa	-0.001522531
38	0xbdffea27	-0.12495833
39	0xbd67068f	-0.05640274
40	0xbb0dd039	-0.0021639003
41	0xbda1ca0c	-0.078998655
42	0x3d0136a0	0.031546235
43	0xba8d07d5	-0.001075978
44	0xbc57c9b4	-0.013170648
45	0xbcd729df	-0.026265083
46	0x3aefb676	0.001828863
47	0x3dd988ea	0.106218174
48	0xbdbe2819	-0.09284992
49	0xbd3d6340	-0.04623723
50	0xbc81f2ff	-0.01586294
51	0xbd2bfab9	-0.041987155
52	0x3d855c1f	0.06511711
53	0x3d82445d	0.063606955
54	0xbd8c2fc4	-0.06845048
55	0xbdefbe0f	-0.11706173
56	0x3c9f32e8	0.019433454
57	0x3d65c538	0.056096286
58	0x3c9c9603	0.0191145
59	0x3da96239	0.082706876
60	0x3d9d268c	0.07673368
61	0xbd78b303	-0.060717594
62	0x3c744413	0.014908808
63	0xbcb6b365	-0.022302339
64	0xbd89bcdd	-0.06725476
65	0xbda6ded5	-0.081479706
66	0xbc37cfed	-0.011219007
67	0x3cfa03cd	0.03051939
68	0x3cc2a41b	0.023759892
69	0xbbf43c62	-0.0074534873
70	0xbd6382e8	-0.055544764
71	0xbcfd8fda	-0.030952383
72	0x3d4ee4d9	0.050511215
73	0x3da89bfc	0.08232877
74	0x3d2ff134	0.04295464
75	0x3b50d180	0.0031863153
76	0xbc55a41b	-0.013039614
77	0x3e0aef5b	0.1356787
78	0x3ce7a051	0.028274687
79	0x3d88702a	0.066620186
80	0x3e106765	0.14101942
81	0x3c893341	0.016748073
82	0xbdda3ac8	-0.10655743
83	0x3cf663ef	0.030076949
84	0x3d91e605	0.07123951
85	0x3c4fe79b	0.012689496
86	0xbdfcf802	-0.12351991
87	0x3d281ab3	0.041041087
88	0xbd9c2789	-0.07624728
89	0x3d8518ff	0.06498908
90	0xbd93cea2	-0.072171465
91	0xbdcb8874	-0.09938136
92	0xbdf22b12	-0.11824621
93	0xbda9f72e	-0.08299099
94	0x3b90212e	0.0043984866
95	0xbda396e6	-0.07987766
96	0xbd79d8b2	-0.060997672
97	0x3db1daa1	0.08684278
98	0x3c8b2de9	0.016989665
99	0xbe0ed866	-0.13949737
100	0xbd1667ca	-0.036720075
101	0x3da99a98	0.082814395
102	0xbdf20ce0	-0.11818862
103	0x3dadb33d	0.084814526
104	0x3ca4ba63	0.020108407
105	0xbdbfff76	-0.09374897
106	0x3d56c326	0.0524322
107	0x3aeb9135	0.0017972352
108	0xbd692395	-0.0569187
109	0xbdce0f06	-0.10061459
110	0xbd0e913a	-0.034806468
111	0x3d13ac45	0.03605296
112	0xbd561ad7	-0.05227169
113	0x3d472c2f	0.04862612
114	0x3bb41ece	0.0054968363
115	0xbc510a0b	-0.012758742
116	0xbda2084b	-0.07911738
117	0xbc54d137	-0.012989334
118	0x3d64fc7a	0.055904843
119	0xbda5938b	-0.08084782
120	0x3d053690	0.032522738
121	0xbdc8bdf1	-0.098018534
122	0xbcf0ae41	-0.029379966
123	0x3db84ead	0.08999381
124	0x3dcdd229	0.100498505
125	0xbd4f5732	-0.050620265
126	0x3d6f222a	0.05838219
127	0x3d83b9cd	0.06431923
128	0x3cabd246	0.02097429
129	0x3d8f3681	0.06992818
130	0x3d9dca16	0.077045605
131	0xbbc1b718	-0.005911719
132	0xbdb21521	-0.08695436
133	0x3d934a5b	0.071919166
134	0xbdb45594	-0.08805385
135	0x3db9905a	0.09060736
136	0x3d87fd57	0.066401176
137	0xbd5f811a	-0.05456648
138	0x3d969d93	0.07354274
139	0xbdb7b811	-0.08970655
140	0x3d498352	0.049197502
141	0xbd52154a	-0.051289834
142	0xbd7def15	-0.061995585
143	0x3d1b84e7	0.037968542
144	0x3d515d20	0.0511142
145	0xbdd3a0c4	-0.10333398
146	0x3dba78a7	0.09105044
147	0xbd8fffad	-0.07031188
148	0xbdb23c97	-0.08702963
149	0x3da475af	0.08030259
150	0x3d86efe6	0.06588726
151	0x3b1c6d78	0.002386896
152	0xbbfa7f19	-0.0076445458
153	0xbcd5e9f0	-0.026112527
154	0x3d7128a4	0.05887665
155	0xbd69d250	-0.057085335
156	0xbdca20e4	-0.09869555
157	0xbc4a95b4	-0.012364794
158	0xbd2a0573	-0.041509103
159	0xbdcaa79e	-0.09895252
160	0xbccf2eab	-0.025290808
161	0xbdc34726	-0.09535055
162	0x3d81d526	0.06339483
163	0x3b196fb0	0.0023412518
164	0xbd94c99d	-0.07265017
165	0x3d8d7b86	0.06908326
166	0xbbb49563	-0.0055109723
167	0x3d86fb45	0.065908946
168	0x3c7bbb1a	0.015364433
169	0x3d8c033d	0.06836555
170	0x3c25bc61	0.010115714
171	0xbd0a8c9b	-0.033825498
172	0xbd0378a0	-0.03209746
173	0xbcd2fcc1	-0.025755288
174	0x3cf77f03	0.030211931
175	0xbd9d3f7f	-0.076781265
176	0x3d5a108b	0.053238433
177	0xbc13aee2	-0.009013863
178	0xbd67e2c4	-0.056612745
179	0x3c6bf7c0	0.01440233
180	0x3d8bdb49	0.06828935
181	0x3d81a6dd	0.06330655
182	0x3d78d446	0.060749315
183	0xbbfb7926	-0.007674354
184	0xbc5134fe	-0.012768982
185	0xbd87b8f2	-0.066270724
186	0x3c55101f	0.013004332
187	0x3d9e3bed	0.07726274
188	0x3a9ee6d5	0.0012123237
189	0xbc7e7dea	-0.01553295
190	0xbd84d3a9	-0.064856835
191	0x3d9026dd	0.070386626
192	0x3ca83ed3	0.02053777
193	0xbd16eaa5	-0.03684487
194	0x3d50cbe0	0.05097568
195	0x3d56c0ab	0.052429836
196	0xbd7de80e	-0.061988883
197	0x3d3d7c1e	0.046260945
198	0xbd54a651	-0.051916424
199	0xbe007b49	-0.1254703
200	0xbd94bba4	-0.07262352
201	0xbda5aea9	-0.080899544
202	0xbde69353	-0.112585686
203	0xbd577f13	-0.05261142
204	0xbd9f3b72	-0.0777501
205	0xbddbef68	-0.107390225
206	0x3d65a525	0.056065697
207	0xbb852f48	-0.0040644743
208	0x3a806a40	0.000979729
209	0xbd3cb399	-0.046069715
210	0x3ba7e2af	0.0051234583
211	0x3c48ac7d	0.012248156
212	0xbceb3536	-0.028711896
213	0xbcf3e4eb	-0.029772243
214	0x3d027b49	0.031855855
215	0x3ca38826	0.019962382
216	0x3d6fd4ae	0.058552437
217	0x3d9366fa	0.071973756
218	0x3cc62873	0.02418921
219	0x3dd861e7	0.105655484
220	0x3da22811	0.07917798
221	0x3dbafd79	0.09130377
222	0xbd0c3478	-0.034229726
223	0xbdbf9330	-0.09354246
224	0xbc464280	-0.012100816
225	0x3ddf373c	0.10899207
226	0x3cb25ef5	0.021773795
227	0xbcb872ab	-0.022515615
228	0xbb870f6b	-0.004121711
229	0xbd87f3d1	-0.06638301
230	0xbe078659	-0.13234843
231	0x3c2b5d4b	0.0104592545
232	0xbd5d5ef4	-0.054045632
233	0xbddd617b	-0.108096085
234	0xbda45417	-0.08023851
235	0x3d8c4c9a	0.06850548
236	0x3d1fd39f	0.039020177
237	0xbd6394d7	-0.055561867
238	0xbdec73bc	-0.11545512
239	0xbdacd5d6	-0.084392235
240	0xbd960f91	-0.07327188
241	0x3df09a85	0.11748222
242	0x3bc29704	0.0059384126
243	0xbd4606c4	-0.048346296
244	0xbbda2e11	-0.0066583236
245	0x3ce33d32	0.027739141
246	0x3d978ff0	0.07400501
247	0xbc9616e3	-0.01832146
248	0x3d9e698f	0.077349775
249	0x3ccc7867	0.024959756
250	0xbdb9cc3f	-0.0907216
251	0xbdab8f84	-0.08376983
252	0xbd468fbe	-0.048476927
253	0x3c650f8d	0.013980758
254	0xbdeace3c	-0.11465117
255	0x3ce9e96b	0.028553685

tpcnns.2.bias f4 [12]
0	0x3c8c043c	0.017091863
1	0xbdbdbb4c	-0.0926424
2	0xbd1c6a03	-0.03818704
3	0x3dada593	0.084788464
4	0xbd31ff4f	-0.043456372
5	0x3dad53bc	0.08463237
6	0xbdc8eacb	-0.09810408
7	0xbe2dee10	-0.16985345
8	0x3d643a51	0.055719677
9	0xbd83279c	-0.06404039
10	0x3ea8072c	0.32817972
11	0x3e3c8141	0.18408681

tpcnns.3.weight f4 [12, 12, 3, 3]
0	0x3db05fe0	0.08612037
1	0x3df5e094	0.120057255
2	0xbd45bef7	-0.04827782
3	0xbd53f224	-0.051744595
4	0xbddd13aa	-0.10794766
5	0xbd84cb26	-0.0648406
6	0x3d24ece3	0.040264975
7	0x3cb50e72	0.022101615
8	0xbc5cd840	-0.013479292
9	0xbdc3b541	-0.09556056
10	0x3d17d52b	0.037068527
11	0x3cc04cfa	0.023474205
12	0x3d49afb7	0.04923984
13	0x3c3bbad8	0.011458121
14	0x3dc2108e	0.09475814
15	0x3cee2cce	0.029074099
16	0x3d327202	0.043565758
17	0x3cf6a7f9	0.030109392
18	0xbc3c6e07	-0.011500842
19	0xbe00d774	-0.12582189
20	0xbd9f4ca4	-0.0777829
21	0xbe275b47	-0.16343413
22	0xbda49a77	-0.08037274
23	0xbd4246b2	-0.0474307
24	0xbcc40d69	-0.023932176
25	0xbe0f516e	-0.13995907
26	0xbde52837	-0.11189311
27	0x3c2bd479	0.010487669
28	0x3d104fbb	0.035232287
29	0x3cbe2304	0.023210056
30	0xbd5fa67f	-0.054602142
31	0xbc6b2808	-0.014352806
32	0x3c07f0b2	0.008297132
33	0xbdbd4fd0	-0.09243739
34	0x3d00a0cd	0.03140335
35	0xbd23e737	-0.040015426
36	0xbd4397eb	-0.047752302
37	0xbe2fae78	-0.17156398
38	0xbdd596af	-0.10429131
39	0xbd13caa3	-0.03608192
40	0xbd6d88ca	-0.05799178
41	0x3cae7897	0.021297736
42	0x3ca0b120	0.01961571
43	0xbcbfe4de	-0.023424562
44	0xbde26185	-0.110537566
45	0xbe01e66a	-0.12685552
46	0x3b30c81c	0.0026974743
47	0xbd8fe746	-0.07026534
48	0xbd11b2cd	-0.03557091
49	0xbceb2acf	-0.028706936
50	0x3cd24daa	0.025671799
51	0xbcd84836	-0.02640162
52	0x3d7dba97	0.061945524
53	0xbd43148a	-0.04762701
54	0xbd220667	-0.039556887
55	0xbe662720	-0.22475863
56	0xbe2ae1f8	-0.16687763
57	0xbcdff34b	-0.02733769
58	0xbcda4125	-0.026642391
59	0x3cb502f8	0.022096142
60	0xbc2dea92	-0.010615008
61	0xbe22f31f	-0.15913056
62	0x3cdf6126	0.027268004
63	0xbd7613b3	-0.06007738
64	0xbd90037f	-0.07031917
65	0xbde6aa0a	-0.11262901
66	0xbcd3ac62	-0.025839034
67	0xbd9fa597	-0.07795256
68	0xbd579394	-0.052630976
69	0x3af735f3	0.0018860683
70	0x39d56c61	0.00040707274
71	0x3ca04f6d	0.019569123
72	0x3d45d9cd	0.048303414
73	0xbc8b1c6d	-0.016981328
74	0x3ddadf7d	0.10687158
75	0xbda4f770	-0.080550075
76	0xbc995275	-0.018716076
77	0xbc75df0b	-0.015006791
78	0x3df47efd	0.119382836
79	0xbd1079b5	-0.03527232
80	0x3c2fbb7a	0.01072585
81	0xbdc5288e	-0.09626876
82	0xbcfdbdcd	-0.030974293
83	0xbd1574ab	-0.036488216
84	0xbdb0e2e3	-0.08637025
85	0xbe42d9ee	-0.19028446
86	0xbdb7decf	-0.08978044
87	0x3c8b5699	0.017009066
88	0xbdff7387	-0.12473207
89	0x3ce06387	0.027391208
90	0x3d0d9fae	0.03457611
91	0xbdff2329	-0.12457878
92	0xbe033d32	-0.12816313
93	0x3d099b5d	0.03359543
94	0xbd2842db	-0.041079383
95	0xbc067963	-0.008207652
96	0x3de9f23d	0.114231564
97	0x3c535b8e	0.012900246
98	0x3db24f31	0.08706511
99	0xbd380850	-0.044929802
100	0x3d85fef5	0.0654277
101	0x3bbb4e8c	0.0057161506
102	0xbcd43ea4	-0.025908776
103	0x3dc48edd	0.095975615
104	0xbda833d8	-0.082130134
105	0xbd244236	-0.040102206
106	0x3dfe8426	0.12427549
107	0x3da680b8	0.0813002
108	0x3ccc5184	0.024941213
109	0xbda1fcfd	-0.07909582
110	0x3d84ce86	0.06484704
111	0xbd9e13ea	-0.07718642
112	0x3c98471d	0.018588597
113	0x3d258313	0.040408205
114	0xbdb3a259	-0.087712
115	0xbd0cda38	-0.034387797
116	0xbe03f75f	-0.12887333
117	0xbd9efebb	-0.0776343
118	0xbc99313a	-0.01870023
119	0x3cc665fd	0.024218554
120	0xbd4ef9f8	-0.050531358
121	0x3d7e09b4	0.062020972
122	0xbd058bd3	-0.03260405
123	0x3d0b387e	0.033989422
124	0x3dc84c99	0.09780235
125	0x3d87d716	0.06632821
126	0x3c89f15a	0.016838718
127	0x3ba7df48	0.0051230527
128	0x3d8c6295	0.068547405
129	0x3c51a4be	0.012795625
130	0xbdc5c351	-0.09656394
131	0xbdc08943	-0.094011806
132	0x3aa2dad9	0.0012424841
133	0xbda893bf	-0.08231305
134	0xbdd3de11	-0.1034509
135	0xbdb2bbc7	-0.08727222
136	0xbbb55b1a	-0.005534542
137	0x3ca6978c	0.020335935
138	0xbd5b155b	-0.053487163
139	0xbdc2f148	-0.09518677
140	0xbd8e2e4c	-0.06942424
141	0x3d79a8ed	0.060952116
142	0xbd41bc6d	-0.047298837
143	0x3d00ab55	0.031413395
144	0xbd15ef1a	-0.03660498
145	0x3d00d9e8	0.03145781
146	0xbd8f738e	-0.07004462
147	0x3d12f80b	0.035881083
148	0x3bde446b	0.0067830584
149	0x3d7a7332	0.061145015
150	0x3d6270cb	0.05528335
151	0x3db91f1f	0.09039139
152	0xbb76adf8	-0.0037640315
153	0x3d0d5a86	0.034510158
154	0x3d0c4d95	0.034253675
155	0xbd935a51	-0.07194961
156	0xb919ed10	-0.0001467953
157	0x3d31b39d	0.043384183
158	0xbdb334b9	-0.087502904
159	0x3d80643e	0.0626912
160	0xbd170370	-0.036868513
161	0xbd3afe67	-0.045652773
162	0x3ce63cfa	0.028105248
163	0x3c220c46	0.0098906215
164	0xbcf329dd	-0.029683048
165	0x3ca29e3b	0.01985084
166	0xbbf36fbd	-0.0074290917
167	0xbda1dcbe	-0.07903431
168	0xbdb0843e	-0.08618973
169	0xbb398982	-0.002831072
170	0xbdda68da	-0.1066453
171	0x3d08988b	0.0333486
172	0xbcaa898b	-0.020817539
173	0xbd846eb9	-0.06466431
174	0x3dde91ff	0.1086769
175	0x3da5435c	0.080694884
176	0xbb2ce212	-0.0026379866
177	0x3c266eff	0.0101582995
178	0xbd1d4989	-0.038400207
179	0xbd7e824e	-0.062135987
180	0xbd7a03ec	-0.061038896
181	0xbdd140e1	-0.10217453
182	0x3ca03bd4	0.019559778
183	0x3a4508c9	0.00075162627
184	0xbd4486d9	-0.047980163
185	0x3c89ebda	0.016836096
186	0xbc6da00c	-0.01450349
187	0xbb60b8d7	-0.003428986
188	0xbcf3f146	-0.029778134
189	0x3c0d182b	0.008611719
190	0x3d673507	0.056447055
191	0xbd8a1761	-0.067427404
192	0xbb0459d1	-0.0020195136
193	0xbce7a86d	-0.028278554
194	0x3d530bda	0.051524974
195	0xbd9cd784	-0.07658294
196	0x3b75f0df	0.0037527604
197	0xbc0e1394	-0.00867166
198	0xbd362a93	-0.044474196
199	0x3bac91d5	0.005266408
200	0x3dacb5c2	0.08433105
201	0xbd152be2	-0.036418803
202	0xbd2a9405	-0.04164507
203	0xbdcd393b	-0.100206815
204	0x3aa39358	0.0012479825
205	0xbd8b7ca0	-0.0681088
206	0xbdf180a4	-0.117921144
207	0xbcd86afc	-0.026418202
208	0x3d9c6dc8	0.076381266
209	0x3d33e81e	0.043922536
210	0xbdbe0504	-0.092783004
211	0x3d40b7e9	0.04705039
212	0x3d81a07e	0.063294396
213	0x3db13051	0.08651794
214	0xbd20973c	-0.03920673
215	0x3d886bd7	0.06661194
216	0x3db8d416	0.09024827
217	0x3e05b227	0.13056241
218	0xbd12957d	-0.035787094
219	0xbce5f131	-0.02806911
220	0xbd808a9f	-0.0627644
221	0xbda681ff	-0.081302635
222	0x3cdf2947	0.027241362
223	0xbc9a070c	-0.018802188
224	0xbb990bd1	-0.004670598
225	0xbd0acbf3	-0.033885907
226	0xbd9727e4	-0.073806554
227	0xbd324431	-0.043522064
228	0xbd6a5cfd	-0.057217587
229	0x3d1968b8	0.037453383
230	0x3dbd73f7	0.09250634
231	0x3d566938	0.05234644
232	0x3c872755	0.016498247
233	0x3d12c8fc	0.035836205
234	0xbcbab899	-0.022793101
235	0x3d591b3d	0.053004492
236	0xbd99f157	-0.07516735
237	0xbc57dd5c	-0.013175335
238	0xbdeed832	-0.1166233
239	0xbd9f4aef	-0.07777964
240	0xbdac1add	-0.08403561
241	0xbd82031d	-0.0634825
242	0x3d816c33	0.063194655
243	0x3cfa8038	0.030578718
244	0x3d8360fb	0.06414982
245	0x3d56bece	0.05242806
246	0xbc536a41	-0.012903751
247	0x3de80b23	0.11330249
248	0x3c49eb6d	0.012324196
249	0xbccec206	-0.025239002
250	0xbd738566	-0.05945339
251	0x3d7061c2	0.05868698
252	0xbd45ef10	-0.04832369
253	0x3d2aeda3	0.041730534
254	0xbda3c61b	-0.0799677
255	0x3d9db74b	0.07700976

tpcnns.3.bias f4 [12]
0	0x3e808214	0.25099242
1	0xbde8d59a	-0.11368866
2	0x3e2bbef4	0.16772062
3	0x3d008513	0.03137691
4	0x3e035b4c	0.12827796
5	0x3e4bc1e4	0.19898182
6	0xbd446644	-0.04794909
7	0xbd57f7fc	-0.05272673
8	0x3dd5cf9d	0.1043999
9	0xbd32fe4b	-0.043699544
10	0x3e76b580	0.24092674
11	0x3d32630c	0.04355149

tpcnns.4.weight f4 [12, 12, 3, 3]
0	0xbd16887c	-0.036751255
1	0x3cfc58a4	0.030803986
2	0x3d8ad70b	0.067792974
3	0x3d82bbc9	0.063834734
4	0x3d9cc78f	0.0765525
5	0x3db455bd	0.08805416
6	0x3ccedf6c	0.02525302
7	0x3cd1acdc	0.025595121
8	0xbc3cd290	-0.011524811
9	0xbdb8a448	-0.09015709
10	0xbd85494c	-0.06508121
11	0x3cbafb14	0.022824802
12	0xbdb39e6a	-0.087704495
13	0xbc094070	-0.0083771795
14	0xbd7d6ce6	-0.06187143
15	0x3d3936de	0.04521834
16	0x3d9e8d21	0.07741762
17	0xbda965be	-0.08271359
18	0x3d8ccdf7	0.06875222
19	0xbd4a54a2	-0.04939712
20	0x3d4e1376	0.05031153
21	0x3db73df9	0.08947367
22	0xbdaaf268	-0.083470166
23	0x3d00dbfa	0.031459786
24	0xbd02211c	-0.031769857
25	0x3ba51ae0	0.005038604
26	0x3d588cb2	0.052868553
27	0x3d3cdde6	0.046110056
28	0x3cf144dc	0.02945178
29	0xbd959d4e	-0.07305394
30	0xbd80ce64	-0.06289366
31	0x3c8b8e70	0.017035693
32	0xbd9659f4	-0.07341376
33	0xbd66f179	-0.05638263
34	0x3d1e172a	0.03859631
35	0x3ca96d7c	0.020682089
36	0xbdb648d7	-0.08900612
37	0xbbdd4d30	-0.006753586
38	0xbc805bf0	-0.01566884
39	0xbdbff6ae	-0.09373222
40	0xbc4cea58	-0.012507044
41	0xbcb97c0c	-0.022642158
42	0xbb9db040	-0.0048122704
43	0xbdaea3d7	-0.08527344
44	0xbd98427e	-0.074345574
45	0xba520300	-0.00080113113
46	0xbd7097bd	-0.05873846
47	0xbc823000	-0.015892029
48	0xbce111ec	-0.027474366
49	0xbc125448	-0.008931227
50	0xbd85d475	-0.065346636
51	0x3d8d85eb	0.069103085
52	0x3cb089ec	0.021550141
53	0x3ccc822c	0.024964415
54	0x3d7b841e	0.061405294
55	0xbcd3df84	-0.025863416
56	0x3b2dd840	0.00265266
57	0xbd3de62e	-0.046362095
58	0x3d862709	0.06550414
59	0xb9a31500	-0.0003110543
60	0x3cd6e318	0.026231334
61	0xbcc52b78	-0.02406858
62	0xbd394b3e	-0.045237772
63	0xbc198270	-0.009369478
64	0x3d7f4c16	0.06232842
65	0xbdb5b2ff	-0.088720314
66	0xbda8d600	-0.08243942
67	0x3dbf6b95	0.093466915
68	0xbd565fec	-0.052337572
69	0x3d66f47a	0.056385495
70	0x3da0d861	0.07853771
71	0x3bf67790	0.007521577
72	0x3cedcc5c	0.02902811
73	0x3d9aed35	0.07564775
74	0x3cd59b28	0.02607496
75	0xbd327390	-0.04356724
76	0xbd888bd2	-0.066672936
77	0xbd2e3f43	-0.0425408
78	0xbcf1a7a8	-0.02949889
79	0xbd661223	-0.05616964
80	0xbd6d8202	-0.057985313
81	0xbc1d2ad0	-0.009592727
82	0x3cc8800c	0.02447512
83	0xbd7bd090	-0.061478198
84	0xbd543b4b	-0.05181436
85	0x3d808193	0.06274714
86	0xbd8a1f7a	-0.06744285
87	0x3d96fd0f	0.07372486
88	0x3c3622a8	0.011116661
89	0xbd99625b	-0.07489463
90	0x3d56a20a	0.052400626
91	0x3da6177d	0.08109949
92	0xbdb49628	-0.088177025
93	0x3c86932c	0.016427599
94	0xbd4ebd1c	-0.050473318
95	0xbc4662a0	-0.012108475
96	0xbd05462a	-0.032537617
97	0x3cfd00ec	0.030884229
98	0xbdb56bb1	-0.08858431
99	0xbcd96540	-0.026537538
100	0xbd080bd4	-0.033214405
101	0x3d231566	0.03981533
102	0xbd431041	-0.047622923
103	0xbd8199b1	-0.063281424
104	0xbd025b72	-0.03182549
105	0x3d951517	0.07279413
106	0xbdb534fd	-0.08847997
107	0xbdb6ebd1	-0.08931697
108	0x3d83f293	0.06442752
109	0xbcbaf378	-0.022821173
110	0x3d9eae71	0.07748116
111	0xbda5c1a8	-0.080935776
112	0xbd9ee854	-0.07759157
113	0x3dbe4947	0.0929132
114	0xbcd10348	-0.02551426
115	0xbd8b5d53	-0.068049096
116	0xbc182a80	-0.009287477
117	0x3cf9dccc	0.030500792
118	0xbcf7f540	-0.030268312
119	0x3daf24e3	0.085519575
120	0xbd2bdad9	-0.041956756
121	0x3c06a010	0.008216873
122	0xbdc2d586	-0.095133826
123	0xbd80c4ac	-0.06287512
124	0x3d42461a	0.047430135
125	0x3d08001a	0.03320322
126	0x39aa9700	0.0003253743
127	0x3bf581e0	0.007492289
128	0x3bad2b40	0.005284697
129	0x3cde54e4	0.027140088
130	0x3dc37cf1	0.09545315
131	0xbdb7b9c0	-0.08970976
132	0xbcfd1ebc	-0.030898444
133	0x3dc30dd3	0.09524121
134	0x3dc110c3	0.09427025
135	0x3daadf89	0.08343417
136	0x3c99a2b0	0.018754333
137	0x3db157e9	0.08659346
138	0xbc54e2a8	-0.012993492
139	0xbd1122f2	-0.035433717
140	0xbd30a7a4	-0.043128625
141	0x3d8488a7	0.06471377
142	0x3d7d88ee	0.061898164
143	0x3ab5d400	0.0013872385
144	0xbd379475	-0.044819314
145	0xbda48c9d	-0.08034632
146	0x3d4199ba	0.047265746
147	0xbd978065	-0.07397536
148	0x3d32751e	0.043568723
149	0xbce03a80	-0.027371645
150	0xbd4d6e30	-0.05015391
151	0x3c5b3710	0.013379827
152	0x3bd54ee0	0.006509647
153	0x3d5a9192	0.053361483
154	0x3c9814f8	0.018564686
155	0xbd7a003a	-0.061035372
156	0x3db2df7f	0.08734035
157	0xbaa251c0	-0.0012383983
158	0x3c4b82c8	0.012421317
159	0xbd98954e	-0.074503526
160	0x3d6ed4a2	0.05830825
161	0xbdbcc90b	-0.092180334
162	0xbd141e02	-0.03616143
163	0xbbbf4840	-0.0058374703
164	0xbd1cabcd	-0.03824978
165	0x3c6ef220	0.014584094
166	0x3bd2ddf0	0.0064351484
167	0x3d7ec0b6	0.062195502
168	0x3d94bef3	0.07262983
169	0xbd3c09db	-0.045907836
170	0xbc1764a0	-0.009240299
171	0xbd6074eb	-0.054799
172	0x3c9640e8	0.018341497
173	0x3da5514b	0.08072146
174	0xbc7d8600	-0.015473843
175	0xbd895b04	-0.06706813
176	0xbdc1dc85	-0.09465889
177	0xbd506a6e	-0.05088275
178	0x3db41987	0.087939315
179	0xbd3fe1e3	-0.04684628
180	0x3d21d9b6	0.039514266
181	0xbc8bc8fc	-0.01706361
182	0x3cf0e5c4	0.029406436
183	0x3d590102	0.052979477
184	0xbd521e39	-0.051298354
185	0x3dbf8447	0.09351402
186	0xbd637a38	-0.05553648
187	0x3d79abe6	0.06095495
188	0x3cfb9364	0.03070993
189	0xbd03e1f6	-0.032197915
190	0x3b301720	0.0026869252
191	0x3da6fc8f	0.081536405
192	0x3db97eb7	0.09057372
193	0x3d0cfc72	0.034420438
194	0x3d10bf9a	0.035338975
195	0x3d7d8022	0.061889775
196	0x3d07653a	0.03305552
197	0x3cd42880	0.025898218
198	0x3d68b216	0.05681046
199	0xbc0dbf08	-0.008651502
200	0x3d3c6cbe	0.046002142
201	0x3db86fe1	0.09005714
202	0x3d3dd422	0.046344884
203	0x3da0176f	0.078169696
204	0x3c9fd810	0.019512206
205	0xbd37b97e	-0.044854634
206	0x3d822d89	0.063563414
207	0xbd6df497	-0.058094587
208	0xbd421c43	-0.047390234
209	0xbdb477e0	-0.08811927
210	0xbd6448b8	-0.055733413
211	0x3d9a6f95	0.07540814
212	0x3d205e3a	0.03915236
213	0xbcb2a660	-0.02180785
214	0xbda43438	-0.080177724
215	0xbca4be54	-0.020110287
216	0x3caf7b44	0.021421082
217	0xbd9a90b5	-0.07547132
218	0x39b83000	0.00035130978
219	0x3d72d7be	0.05928778
220	0xbc93c298	-0.018037125
221	0x3d90555d	0.07047532
222	0xbd5aa438	-0.053379267
223	0x3ca2308c	0.01979854
224	0x3d5e7626	0.054311894
225	0x3d92f05d	0.07174752
226	0x3da154f3	0.07877531
227	0x3b8dab50	0.0043234006
228	0xbd7e0128	-0.06201282
229	0xbd7b2ac7	-0.061320093
230	0x3cf33fc4	0.029693492
231	0x3d9e1b27	0.07720023
232	0xbd943558	-0.07236737
233	0x3dc150d9	0.094392486
234	0x38efdc00	0.00011437386
235	0xbce0ec10	-0.027456313
236	0x3d8c2583	0.06843092
237	0xbdb73c57	-0.08947056
238	0xbba49580	-0.0050227046
239	0x3bbc7890	0.005751677
240	0x3dc1d6e3	0.094648145
241	0xbd343a59	-0.044000957
242	0xbd3067f1	-0.043067876
243	0xbc2b8f20	-0.010471135
244	0xbdb9bb05	-0.09068874
245	0xbdb1ed4f	-0.08687841
246	0x3db6379d	0.08897326
247	0x3d878291	0.066167004
248	0xbd3df3b3	-0.046374988
249	0xbd6b525a	-0.057451583
250	0xbd763041	-0.060104612
251	0x3d8cea5d	0.06880639
252	0xbd2d749c	-0.042347535
253	0x3d4c8322	0.049929745
254	0x3dbf288f	0.09333908
255	0xbd41daf0	-0.047327936

tpcnns.4.bias f4 [12]
0	0xbdaa2e1d	-0.08309577
1	0xbd41940e	-0.047260337
2	0xbda33c3a	-0.07970472
3	0xbd84e5c7	-0.06489139
4	0xbd8868d2	-0.06660618
5	0x3c85d8a0	0.016338646
6	0x3dbd0809	0.09230048
7	0xbda19ec3	-0.078916095
8	0xbc5c82d8	-0.01345893
9	0x3db632c9	0.08896405
10	0x3db3bef9	0.087766595
11	0xbd8cf614	-0.06882873

tpcnn_ouput.weight f4 [12, 12, 3, 3]
0	0x3d175c3f	0.036953207
1	0x3e96f633	0.2948471
2	0x3c613dcc	0.013747644
3	0xbae54305	-0.0017491287
4	0x3d6bd3a0	0.05757487
5	0xbd487ce3	-0.048947226
6	0xbd2353d7	-0.039874878
7	0x3e21bf0c	0.15795535
8	0xbcf10905	-0.029423246
9	0xbbcef08c	-0.0063152965
10	0xbda0ac0e	-0.07845317
11	0x3d7f6bc8	0.062358648
12	0xbbfb8365	-0.0076755756
13	0xbbf4c76a	-0.007470061
14	0x3d669c85	0.056301612
15	0xbb66dd34	-0.0035227062
16	0x3e0e7d3b	0.13914959
17	0xbc941ff9	-0.018081652
18	0x3ca20448	0.019777432
19	0x3dbd9064	0.09256056
20	0xbd7977b1	-0.060905162
21	0x3c464864	0.01210222
22	0x3dad287b	0.08454987
23	0xbd0a5e77	-0.033781495
24	0xbca21492	-0.0197852
25	0xbdb45da4	-0.08806923
26	0xbd472782	-0.048621662
27	0xbe305c4d	-0.1722271
28	0xbc2469f0	-0.010035023
29	0x3ba3a946	0.004994544
30	0xbd828229	-0.06372482
31	0x3d52ab7d	0.051433075
32	0x3d4d3761	0.05010164
33	0xbcee3944	-0.02908004
34	0xbd23b3ae	-0.039966278
35	0x3d117522	0.035512097
36	0xbbfc992c	-0.007708689
37	0xbd3c16f1	-0.045920316
38	0xbb0ed474	-0.0021794112
39	0xbd726fcc	-0.05918865
40	0x3c1135e4	0.008862946
41	0x3c5c90c0	0.013462245
42	0x3cade036	0.021225076
43	0x3d1b95a9	0.037984524
44	0xbd0c32a5	-0.034227986
45	0xbcf1cbff	-0.029516218
46	0xbd61e7aa	-0.055152573
47	0xbc9e4a32	-0.019322488
48	0x3cbdf59a	0.023188401
49	0x3cd14266	0.025544357
50	0x3bf7916c	0.0075551774
51	0xbc22a837	-0.009927801
52	0xbcd3feb3	-0.025878286
53	0x3d581601	0.05275536
54	0x3c4c71ae	0.012478275
55	0xbd32534c	-0.04353647
56	0xbdbf4866	-0.09339981
57	0x3d1d645b	0.038425785
58	0x3d7169a9	0.058938656
59	0xbd260f24	-0.040541783
60	0x3a8e663b	0.0010864207
61	0xbc9dff07	-0.019286646
62	0xbd1a03e2	-0.03760136
63	0x3cb58c87	0.022161735
64	0xbd936f80	-0.07199001
65	0xbd62340a	-0.05522541
66	0x3d2d2181	0.04226828
67	0xbd93a212	-0.07208647
68	0x3cce72aa	0.02520116
69	0x3d76bd61	0.0602392
70	0xbc23bc4c	-0.009993624
71	0x3d4e4784	0.05036117
72	0x3c952397	0.018205447
73	0x3e120b9e	0.14262244
74	0xbc8b8d2d	-0.017035091
75	0x3cab27e9	0.020893054
76	0xbcdd38a4	-0.027004547
77	0xbc431190	-0.011906043
78	0x3d5d8cf5	0.054089505
79	0x3d8c9805	0.06864933
80	0xbc461993	-0.012091058
81	0xbcf5f9fc	-0.030026428
82	0xbb8f8e45	-0.0043809735
83	0x3d005a8a	0.031336345
84	0xbcb19936	-0.021679502
85	0xbd7726f2	-0.060339876
86	0x3d111041	0.03541589
87	0xbd2ef471	-0.042713586
88	0xbe0958da	-0.134128
89	0x3c45e14f	0.012077644
90	0x3da34177	0.07971471
91	0xbe477f0a	-0.19482055
92	0x3d8eaeef	0.0696696
93	0x3d608074	0.054810002
94	0xbe32a05b	-0.17443983
95	0x3d829a40	0.06377077
96	0x3c8d80b6	0.017273288
97	0xbdb7251c	-0.08942625
98	0x3cb73be3	0.022367423
99	0xbdc29b26	-0.095022485
100	0xbd0dd3ce	-0.03462582
101	0xbc42807c	-0.011871453
102	0xbd5d44e3	-0.054020774
103	0xbc206612	-0.00978996
104	0x3cb87f6b	0.022521695
105	0xbd40d9e2	-0.04708279
106	0x3d61c85c	0.05512272
107	0x3d415396	0.047198854
108	0x3ce11784	0.027477033
109	0x3e8ee8c8	0.27911973
110	0x3c1e1da8	0.009650625
111	0xbaeaa379	-0.0017901502
112	0x3da6c1e3	0.0814245
113	0xbcd347ed	-0.025791133
114	0xbd1dcf1f	-0.038527604
115	0x3e2df5cc	0.16988295
116	0xbd47eb74	-0.04880853
117	0xbabd5f8b	-0.001444803
118	0xbdc9d05f	-0.09854197
119	0x3d86e589	0.06586749
120	0xbbc20ea4	-0.0059221555
121	0xbbe945ba	-0.0071189078
122	0x3d287179	0.04112384
123	0xbaa575c3	-0.0012623597
124	0x3de4efd7	0.11178558
125	0x3b471ce4	0.003038221
126	0x3c70164a	0.014653752
127	0x3da680c9	0.081300326
128	0xbcbccf36	-0.023048025
129	0x3cd9267e	0.026507612
130	0x3d88a79b	0.06672593
131	0xbcf0c5bc	-0.029391162
132	0xbc0fdc7f	-0.008780598
133	0xbd89e20f	-0.067325704
134	0xbd4bb439	-0.04973242
135	0xbe22b7a2	-0.15890363
136	0x3ce3cbc7	0.02780713
137	0xbcdb9e63	-0.026808923
138	0xbd0391b9	-0.032121394
139	0x3ca74478	0.02041839
140	0x3d88d8e1	0.06681991
141	0xbcf403b8	-0.02978693
142	0xbd1d2595	-0.03836592
143	0x3d0afd6e	0.033933096
144	0x3b0327b2	0.0020012674
145	0xbd026aa0	-0.031839967
146	0x3bec02ed	0.007202497
147	0xbcf5d1d7	-0.030007286
148	0x3ad3d81c	0.0016162428
149	0x3cbf6a46	0.023366105
150	0x3cf013f7	0.029306395
151	0x3d6a5738	0.057212085
152	0xbd29aa08	-0.04142192
153	0x3c52abfa	0.012858385
154	0xbd0a1253	-0.03370888
155	0xbd337097	-0.043808546
156	0x3d5cc757	0.053901043
157	0xba4fa56b	-0.00079210725
158	0x3d12233b	0.03567813
159	0xbc7280f8	-0.014801256
160	0xbcc31adc	-0.023816518
161	0x3c976da1	0.018484892
162	0x3cac3d92	0.021025453
163	0xbd219976	-0.039452992
164	0xbdba6757	-0.09101742
165	0x3cb2a54c	0.021807335
166	0x3d29b5c9	0.04143313
167	0xbd75a79a	-0.05997429
168	0xbbbe1794	-0.0058011506
169	0xbd1bdba8	-0.038051277
170	0xbd05c3ff	-0.03265762
171	0x3d659169	0.056046877
172	0xbd921d9d	-0.071345545
173	0xbd39c77a	-0.04535625
174	0x3d01d112	0.031693526
175	0xbcdc558f	-0.026896266
176	0x3cf41f35	0.029800037
177	0x3d6ac388	0.05731538
178	0x376dbbf0	1.4170058e-05
179	0x3d2c4f01	0.04206753
180	0xbd534b8a	-0.05158571
181	0x3e13139d	0.1436295
182	0xbc9064e7	-0.017626239
183	0x3cc06601	0.02348614
184	0xbcb5b4df	-0.022180973
185	0xba4e2291	-0.0007863427
186	0x3d3803b7	0.044925418
187	0x3d938422	0.07202937
188	0xbc9d3f58	-0.019195244
189	0xbb9116bd	-0.0044277594
190	0xbcf2a1e8	-0.029618219
191	0x3cfef0ef	0.031120745
192	0xbcf75f61	-0.030196847
193	0xbda80ae4	-0.08205202
194	0x3d12da4f	0.035852727
195	0xbd3ba9bd	-0.045816172
196	0xbdf539b4	-0.119738966
197	0x3c99993e	0.01874983
198	0x3ce78bc1	0.028264882
199	0xbe2363a9	-0.15955986
200	0x3d79df85	0.06100418
201	0x3cec3008	0.028831497
202	0xbe1b89fe	-0.15189359
203	0x3d7dc6cd	0.06195717
204	0x3d125d09	0.035733256
205	0xbddbe992	-0.107379094
206	0x3cd8f5ee	0.026484456
207	0xbd4dce48	-0.050245553
208	0xbd2a013f	-0.041505095
209	0xbc5bb24b	-0.013409208
210	0xbd37e8bd	-0.04489969
211	0xbd176f33	-0.036971282
212	0x3cd82189	0.026383178
213	0xbd05bd7f	-0.03265142
214	0x3d8219c3	0.0635257
215	0x3d9b48e3	0.075822614
216	0xbc1f0a30	-0.009707019
217	0xbcfa7b19	-0.030576276
218	0xbc91c1e3	-0.017792648
219	0x3ce9545d	0.02848261
220	0x3da2d3ec	0.07950577
221	0xbd0ef10c	-0.03489785
222	0xbd7d649f	-0.061863538
223	0x3dba6f05	0.091032065
224	0x3c306b71	0.0107678035
225	0xbb89aae9	-0.0042012823
226	0xbd825414	-0.06363693
227	0x3bc68a3f	0.0060589607
228	0xbc257041	-0.010097564
229	0x3dbe114a	0.092806414
230	0xbcac4713	-0.021029985
231	0x3ce0c274	0.027436472
232	0x3dbf9d2e	0.093561515
233	0x3cadb818	0.021205947
234	0x3d8be090	0.06829941
235	0xbd4bbbc4	-0.049739614
236	0xbc3117d8	-0.010808907
237	0xbb89fbd7	-0.00421093
238	0x3c0fcb02	0.008776428
239	0x3b5920ac	0.0033131046
240	0x3c21c78b	0.009874235
241	0xbd9199f5	-0.07109443
242	0xbc40025c	-0.0117193125
243	0x3d8c84c8	0.068612635
244	0x3d248909	0.04016975
245	0x3c7ed7ef	0.015554412
246	0xbd1fe420	-0.039035916
247	0x3b0f87fc	0.0021901121
248	0xbc8d2d43	-0.017233497
249	0xbd00d9fb	-0.031457882
250	0x3da7e830	0.08198583
251	0x3d44a319	0.048007105
252	0xbc3f5e85	-0.01168025
253	0x3d8ae68f	0.06782257
254	0x3d46f28e	0.048571162
255	0xbb86a85e	-0.0041094264

tpcnn_ouput.bias f4 [12]
0	0x3d0ccf13	0.03437717
1	0x3c8050ff	0.015663622
2	0xbd8dd328	-0.069250405
3	0xbb7dcde7	-0.0038727464
4	0xbe381b45	-0.17979153
5	0xbf563f22	-0.83690083
6	0xbf2c34a6	-0.67267835
7	0xbf58b3da	-0.8464943
8	0xbf4d352f	-0.80159277
9	0xbf06f272	-0.5271369
10	0xbcd5aef7	-0.026084406
11	0xbc53fd73	-0.012938845
