checkpoint/social-stgcnn-zara2/val_best.pth (torch_old, 36956 bytes, 30 tensors)

st_gcns.0.gcn.conv.weight f4 [5, 2, 1, 1]
-0.42484304 -0.5453646 0.11563671 0.20351656 0.58104205 -0.3408142 -0.74587685 0.17583694
-0.5854512 -0.6011496
00000000: 0785 d9be 049d 0bbf f0d2 ec3d a566 503e
00000010: 2cbf 143f 337f aebe c9f1 3ebf 990e 343e
00000020: 21e0 15bf f1e4 19bf

st_gcns.0.gcn.conv.bias f4 [5]
0.35556197 -0.12469698 -0.43537596 -0.4779656 -0.1322386
00000000: 380c b63e 2161 ffbd 99e9 debe e8b7 f4be
00000010: 8e69 07be

st_gcns.0.tcn.0.weight f4 [5]
0.9614218 0.20118183 0.12392469 0.8967802 0.307089
00000000: bd1f 763f 9c02 4e3e 3acc fd3d 6393 653f
00000010: c53a 9d3e

st_gcns.0.tcn.0.bias f4 [5]
0.28601542 0.21767238 0.12758055 0.11550184 -0.033979937
00000000: 9d70 923e 82e5 5e3e 7aa4 023e 3b8c ec3d
00000010: 8c2e 0bbd

st_gcns.0.tcn.0.running_mean f4 [5]
0.016353585 -0.0056441408 -0.020062238 -0.018293988 -0.003938364
00000000: f4f7 853c 7cf2 b8bb 9059 a4bc 46dd 95bc
00000010: 640d 81bb

st_gcns.0.tcn.0.running_var f4 [5]
0.01162941 0.0012542368 0.015873112 0.020725973 0.012479244
00000000: 4889 3e3c 3465 a43a 5408 823c 84c9 a93c
00000010: be75 4c3c

st_gcns.0.tcn.2.weight f4 [5, 5, 3, 1]
-0.14287223 -0.19533992 -0.15726519 0.021220956 0.19654348 -0.18289495 -0.08808683 -0.06902505
0.19006671 0.012303486 0.0034883358 0.06778588 0.12395624 -0.110018075 -0.20846915 0.23050132
0.12684663 0.26756275 0.1373586 0.029543186 0.20282564 0.16163494 -0.2543412 0.17259394
0.04036322 0.05816429 0.14143616 -0.12225757 0.0046822517 -0.08127806 -0.055306792 -0.03302162
-0.15302698 0.020312503 -0.21290569 -0.12794515 -0.013329143 0.23001947 -0.21639046 -0.00061778765
0.037204016 -0.052684143 0.16503973 0.056942854 0.08935178 -0.06668593 -0.015795432 0.05635141
0.1867359 0.07519199 0.24367729 0.2454116 0.015206083 -0.053154517 -0.08304871 -0.03176225
-0.003445644 -0.11361072 -0.06133303 0.12775522 -0.039975073 0.106559336 0.0030991803 -0.30071628
-0.2618921 -0.037704367 0.091406085 0.100209706 0.122550525 -0.102934 0.055851694 0.2262762
-0.00033960017 0.15735257 0.023001777
00000000: 194d 12be 3007 48be 200a 21be 92d7 ad3c
00000010: b242 493e d048 3bbe de66 b4bd 015d 8dbd
00000020: d9a0 423e 8f94 493c 909c 643b 53d3 8a3d
00000030: c5dc fd3d 2851 e1bd f078 55be 8a08 6c3e
00000040: 15e4 013e fcfd 883e bca7 0c3e 8d04 f23c
00000050: 86b1 4f3e a183 253e 0339 82be 77bc 303e
00000060: e753 253d ae3d 6e3d a4d4 103e 2d62 fabd
00000070: 936d 993b 1d75 a6bd 6089 62bd ae41 07bd
00000080: 1bb3 1cbe 6866 a63c f303 5abe 0e04 03be
00000090: 7a62 5abc 398a 6b3e 7695 5dbe 07f3 21ba
000000a0: 3d63 183d 54cb 57bd 2d00 293e e93c 693d
000000b0: 11fe b63d a292 88bd 6c65 81bc bcd0 663d
000000c0: b237 3f3e 42fe 993d 8a86 793e 2e4d 7b3e
000000d0: ef22 793c 8db8 59bd 7115 aabd 2219 02bd
000000e0: 50d0 61bb bdac e8bd 5838 7bbd 44d2 023e
000000f0: e7bc 23bd c83b da3d 9e1b 4b3b 7cf7 99be
00000100: b916 86be e56f 1abd 1d33 bb3d bf3a cd3d
00000110: c5fb fa3d 10cf d2bd bfc4 643d f3b4 673e
00000120: 5d0c b2b9 0821 213e 396e bc3c

st_gcns.0.tcn.2.bias f4 [5]
0.03188908 0.21179809 -0.20460027 0.18671435 -0.22225724
00000000: 209e 023d 99e1 583e bc82 51be 0c32 3f3e
00000010: 6797 63be

st_gcns.0.tcn.3.weight f4 [5]
0.10281952 0.2625346 0.1760155 0.14639121 0.0560843
00000000: 0a93 d23d ef6a 863e 683d 343e 94e7 153e
00000010: a7b8 653d

st_gcns.0.tcn.3.bias f4 [5]
0.102115005 -0.032817397 0.24958616 -0.07318258 0.2695944
00000000: ac21 d13d 896b 06bd 8493 7f3e c0e0 95bd
00000010: 4708 8a3e

st_gcns.0.tcn.3.running_mean f4 [5]
-0.13290818 0.58537847 -0.35547087 0.27464208 -0.22530767
00000000: 1519 08be 5ddb 153f 4700 b6be e39d 8c3e
00000010: 0eb7 66be

st_gcns.0.tcn.3.running_var f4 [5]
0.14700687 0.16465952 0.011716021 0.024711542 0.05720229
00000000: f888 163e 819c 283e 8ef4 3f3c dc6f ca3c
00000010: f34c 6a3d

st_gcns.0.residual.0.weight f4 [5, 2, 1, 1]
0.32090062 -0.20529887 0.1260947 -0.527376 0.15956838 0.3890056 -0.17078851 0.41439736
0.024704201 0.029674621
00000000: 164d a43e de39 52be f81e 013e 1d02 07bf
00000010: e565 233e be2b c73e 2fe3 2ebe e42b d43e
00000020: 7760 ca3c 3118 f33c

st_gcns.0.residual.0.bias f4 [5]
0.10811734 0.24334297 -0.295549 -0.3754861 0.12608473
00000000: a06c dd3d e62e 793e 3352 97be b73f c0be
00000010: 5b1c 013e

st_gcns.0.residual.1.weight f4 [5]
0.5836281 0.61340773 0.39804927 0.49995872 0.76586616
00000000: a768 153f 4a08 1d3f 1dcd cb3e 97fa ff3e
00000010: ce0f 443f

st_gcns.0.residual.1.bias f4 [5]
0.102115005 -0.032817397 0.24958616 -0.07318258 0.2695944
00000000: ac21 d13d 896b 06bd 8493 7f3e c0e0 95bd
00000010: 4708 8a3e

st_gcns.0.residual.1.running_mean f4 [5]
0.11240011 0.24046434 -0.2883914 -0.37464765 0.12692702
00000000: 0732 e63d 493c 763e 0aa8 93be d1d1 bfbe
00000010: 28f9 013e

st_gcns.0.residual.1.running_var f4 [5]
0.007660335 0.0053183404 0.003419732 0.004711629 5.5539862e-05
00000000: 8c03 fb3b 7945 ae3b 951d 603b 0264 9a3b
00000010: 79f3 6838

tpcnns.0.weight f4 [12, 8, 3, 3]
-0.02416405 0.010282197 -0.00041347524 0.053963713 0.06993092 0.027545169 0.030517673 0.11136439
-0.08244526 -0.033611726 -0.038426448 0.11951042 -0.047113698 -0.05448574 -0.06605834 -0.03962395
-0.014447128 0.023326093 0.0057156873 -0.06429684 -0.05247405 -0.03707714 0.014987127 0.012211118
-0.009751257 0.0206307 0.014362969 -0.05599479 -0.15425788 -0.026662318 -0.0492008 0.015425438
-0.04134508 0.051517125 -0.1292552 -0.045793552 -0.033543933 0.0020831039 0.061008696 0.03793259
0.008547756 0.026005948 0.05876521 -0.08046947 0.004547043 0.004826195 0.10530669 -0.00881316
-0.021772984 -0.13420491 -0.0782555 0.02413686 0.0789403 0.04076328 0.15266572 0.2071804
0.08944217 -0.077877805 -0.14275679 -0.04800647 0.10990432 0.14729436 0.05633501 0.05809082
-0.00829085 -0.060122665 0.0009660781 -0.22605857 -0.11826402 -0.10439706 -0.15818785 0.05348442
-0.03813117 0.00480059 -0.08958328 -0.08844188 -0.10333121 0.037879206 0.030970557 -0.038915753
0.07537217 0.08075503 -0.08627774 -0.061740823 0.0372776 -0.0054109995 -0.003900952 -0.022265175
0.076603554 -0.028309299 -0.0008901903 -0.03460208 0.1057716 -0.015206379 0.104987845 0.037763815
-0.10132529 -0.015698738 -0.026348313 0.008035332 0.027653825 0.05152822 -0.04068884 0.122540936
-0.013142044 -0.06656561 -0.10165325 -0.08250766 0.10771053 0.24423747 0.15205789 -0.107514895
-0.1592825 -0.12173329 -0.0025880842 -0.038679093 0.08686422 -0.092441306 -0.026386859 -0.043217797
-0.03883284 -0.10197702 0.04627664 0.012984197 0.08382011 0.013663122 -0.05964932 0.062134802
0.0051923427 0.026567109 0.15527256 0.054355394 -0.039655823 -0.03963591 -0.017568208 -0.0027627652
0.11029792 0.075031996 0.02570185 0.05622994 -0.16612184 -0.02075673 -0.079340436 -0.05129617
0.013801523 0.07289486 -0.012785566 -0.012050176 0.00896988 0.018001253 -0.045015346 -0.034107003
0.08616046 -0.0070085935 -0.17627238 -0.007441798 -0.048168525 0.11037914 0.019698137 -0.015312313
-0.018852789 -0.047758095 0.07160682 -0.13553958 -0.026249396 0.062512 -0.03815651 -0.049280602
0.0117781265 -0.06595258 -0.018857807 -0.006551756 0.050829902 -0.013100578 0.018984705 -0.07266424
-0.02138829 0.008372494 -0.0855299 -0.07556538 -0.05210675 -0.0001910024 -0.05676894 -0.11929227
0.084690176 0.097027525 -0.095630854 -0.1744077 -0.1806866 -0.018433841 -0.02589782 -0.040069733
0.08855882 -0.029719846 0.039206237 0.12851334 -0.08429265 -0.05361562 0.10040481 0.06713768
0.025254386 0.00071194064 -0.0959361 -0.02418671 0.015330253 -0.006057753 -0.020525115 0.13294837
0.016343975 0.020405246 -0.018388763 0.053931255 -0.013239424 0.005815705 -0.04621214 -0.15761425
-0.15151022 -0.15562722 -0.14866377 0.022749865 0.002744887 -0.0272407 -0.10385117 -0.05191539
0.052350912 -0.06354024 0.1933278 -0.037672725 0.016545512 0.13372496 -0.032572966 0.0049472186
0.17147817 -0.060242888 -0.0034942785 -0.030575234 0.096421875 0.04811009 0.02782374 -0.013685467
-0.076733164 -0.018446753 -0.03680366 -0.020941067 0.015035699 -0.025004854 0.013801131 0.09301811
0.07317846 0.041000467 0.0008422841 0.01471759 0.037630744 -0.013497956 -0.027477583 -0.03337236
00000000: b0f3 c5bc a976 283c b5c7 d8b9 0e09 5d3d
00000010: f137 8f3d 68a6 e13c 3300 fa3c 0313 e43d
00000020: 0fd9 a8bd 73ac 09bd 0d65 1dbd e1c1 f43d
00000030: 4bfa 40bd 702c 5fbd 9849 87bd b94c 22bd
00000040: a6b3 6cbc 5d16 bf3c a94a bb3b 10ae 83bd
00000050: 08ef 56bd 33de 17bd 918c 753c 2411 483c
00000060: bcc3 1fbc b701 a93c a952 6b3c cb5a 65bd
00000070: c7f5 1dbe ef6a dabc c786 49bd faba 7c3c
00000080: 7559 29bd 9f03 533d 7a5b 04be 0592 3bbd
00000090: 5d65 09bd af84 083b 41e4 793d 345f 1b3d
000000a0: e30b 0c3c 6d0a d53c cab3 703d 2dcd a4bd
000000b0: 5cff 943b 0f25 9e3b 09ab d73d 1265 10bc
000000c0: 425d b2bc 036d 09be 6b44 a0bd aaba c53c
000000d0: 74ab a13d 66f7 263d 6754 1c3e 1927 543e
000000e0: 752d b73d 667e 9fbd d62e 12be 6fa2 44bd
000000f0: 8415 e13d 55d4 163e 8abf 663d a4f0 6d3d
00000100: 58d6 07bc 2f43 76bd 6740 7d3a e67b 67be
00000110: 6834 f2bd 20ce d5bd fffb 21be 7b12 5b3d
00000120: 6e2f 1cbd 454e 9d3b 7077 b7bd 0421 b5bd
00000130: 509f d3bd 3a27 1b3d f7b5 fd3c 2066 1fbd
00000140: b95c 9a3d e562 a53d 62b2 b0bd f2e3 7cbd
00000150: 66b0 183d c14e b1bb 1da7 7fbb 7565 b6bc
00000160: 53e2 9c3d e7e8 e7bc a95b 69ba e9ba 0dbd
00000170: c89e d83d 2d24 79bc de03 d73d 3bae 1a3d
00000180: a283 cfbd a49a 80bc 6bd8 d7bc a0a6 033c
00000190: 468a e23c 410f 533d 57a9 26bd bef6 fa3d
000001a0: ba51 57bc 8d53 88bd 942f d0bd c7f9 a8bd
000001b0: 5797 dc3d 6319 7a3e 10b5 1b3e c530 dcbd
000001c0: f41a 23be 4e4f f9bd d99c 29bb f86d 1ebd
000001d0: dee5 b13d de51 bdbd 4129 d8bc 2505 31bd
000001e0: 2f0f 1fbd 54d9 d0bd 938c 3d3d abbb 543c
000001f0: e1a9 ab3d 4adb 5f3c d852 74bd 1081 7e3d
00000200: 8724 aa3b 44a3 d93c c5ff 1e3e c3a3 5e3d
00000210: 256e 22bd 4459 22bd 34eb 8fbc 820f 35bb
00000220: e0e3 e13d 60aa 993d b08c d23c 5e51 663d
00000230: d81b 2abe 050a aabc 3d7d a2bd ef1b 52bd
00000240: c81f 623c e649 953d 8d7a 51bc 1a6e 45bc
00000250: 67f6 123c 5d77 933c 0362 38bd c9b3 0bbd
00000260: e574 b03d 58a8 e5bb bf80 34be 54da f3bb
00000270: 5c4c 45bd 750e e23d fd5d a13c 7fe0 7abc
00000280: 2a71 9abc fe9d 43bd 99a6 923d e3ca 0abe
00000290: f908 d7bc 4b06 803d 004a 1cbd 75da 49bd
000002a0: 0bf9 403c 2512 87bd b07b 9abc 1db0 d6bb
000002b0: 0433 503d cfa3 56bc d085 9b3c fdd0 94bd
000002c0: 7f36 afbc c92c 093c 4d2a afbd 06c2 9abd
000002d0: e36d 55bd d147 48b9 8c86 68bd 814f f4bd
000002e0: 0b72 ad3d 5eb6 c63d 1cda c3bd ef97 32be
000002f0: e805 39be 9102 97bc aa27 d4bc 2920 24bd
00000300: 545e b53d 0977 f3bc b896 203d 0099 033e
00000310: a0a1 acbd 0d9c 5bbd 09a1 cd3d 7b7f 893d
00000320: 49e2 ce3c 87a1 3a3a 257a c4bd 3523 c6bc
00000330: be2b 7b3c 1e80 c6bb 4924 a8bc 9e23 083e
00000340: cde3 853c e728 a73c 08a4 96bc 05e7 5c3d
00000350: 2bea 58bc ab91 be3b f148 3dbd a165 21be
00000360: 7f25 1bbe be5c 1fbe 513b 18be ed5d ba3c
00000370: 90e3 333b e327 dfbc ecaf d4bd 3ba5 54bd
00000380: e96d 563d 6321 82bd b9f7 453e b74e 1abd
00000390: 748a 873c 32ef 083e 3b6b 05bd 471c a23b
000003a0: f997 2f3e 3fc1 76bd 4400 65bb ea78 fabc
000003b0: d578 c53d 160f 453d 9dee e33c 0239 60bc
000003c0: 4726 9dbd a51d 97bc 6fbf 16bd 9a8c abbc
000003d0: 4b58 763c fbd6 ccbc 241e 623c 4780 be3d
000003e0: 97de 953d 1bf0 273d bbcc 5c3a 0c22 713c
000003f0: b222 1a3d 8826 5dbc ab18 e1bc 75b1 08bd

tpcnns.0.bias f4 [12]
0.038136415 0.04657334 0.19540748 -0.13348173 0.012163743 0.050822873 0.2366209 -0.2419768
-0.19043918 0.05276092 0.049208272 0.081089206
00000000: ee34 1c3d b0c3 3e3d e618 483e 6faf 08be
00000010: 704a 473c a52b 503d c04c 723e c4c8 77be
00000020: 7d02 43be d61b 583d 9d8e 493d 1912 a63d

tpcnns.1.weight f4 [12, 12, 3, 3]
-0.05031376 0.0057605617 -0.0596778 -0.0037840519 0.010296005 -0.0077840886 0.047062863 -0.011276026
0.05811395 0.0551479 -0.10972269 -0.003170521 0.047946587 -0.06985924 0.025582131 -0.06192105
-0.032629963 -0.04481786 -0.050098702 0.024642808 -0.09047079 0.0014199157 -0.03977677 -0.03188228
-0.048654802 -0.0774756 0.0272461 -0.060680337 -0.003934901 -0.019191178 -0.0074237525 -0.13089086
-0.053180363 0.063476995 -0.023319604 0.05750645 0.02115554 -0.07162627 0.042459536 -0.021748265
-0.030594971 0.07763136 0.049157266 -0.06972249 -0.05739737 0.050574753 -0.005932878 0.038907457
-0.039970215 -0.11465663 -0.008749876 -0.018477663 -0.0685751 0.08302969 0.075130895 0.058401536
-0.03367108 0.06448596 0.028147366 -0.034660928 0.045371644 0.008123347 -0.027260672 -0.08313407
0.10489655 -0.050354376 -0.055920083 -0.006015008 0.06445645 0.05484571 0.044352405 -0.026226075
-0.042866223 -0.06504585 -0.06896685 0.0408649 -0.001228017 0.065483406 -0.008490402 -0.10860738
0.02385171 0.05588618 0.030789144 -0.015634723 0.042105354 0.0062666214 0.037839655 -0.037377607
-0.04603008 0.0030134667 0.02411255 0.11578042 -0.105658725 -0.031321924 -0.055140484 -0.096434236
-0.022345137 0.010939413 -0.0022157035 -0.036053002 -0.034290522 -0.07640416 -0.028206475 -0.010837018
0.019159056 0.07079382 0.041393086 -0.037587076 0.04419668 -0.100654475 -0.09594128 -0.10436107
-0.010026809 -0.048030004 0.04649853 0.01642507 0.06260404 0.021330036 -0.069330715 0.05233567
-0.08933355 -0.015871797 -0.013698747 0.026444633 -0.013980703 0.036206543 -0.015412159 -0.051561277
0.09110475 0.053476542 -0.037225276 0.038991682 -0.019663228 0.006782713 -0.01289041 -0.04906628
0.0013785235 -0.07745753 -0.04055276 -0.095852464 0.04628258 -0.015291938 -0.08370492 -0.08156479
-0.078857325 0.004991097 0.04270817 0.070275 -0.019890545 -0.020018822 0.03271929 0.079913475
-0.08023375 -0.0191797 -0.040737994 0.0111189205 0.055766493 -0.05980613 -0.045618206 0.037548255
-0.11850036 0.032171126 0.005274533 -0.06904404 -0.034715854 0.0017158745 0.00057732087 -0.039318927
-0.056214385 0.024199776 0.017162226 -0.09525134 -0.084212236 0.05978911 -0.09143153 0.08156874
0.05847754 0.05527897 -0.03553672 -0.053376887 0.09240799 0.007208157 0.051613204 -0.043764085
-0.048043583 0.08950904 0.024581743 -0.05777611 0.055228073 0.050245073 -0.07641944 0.06768898
-0.07888121 0.045100313 -0.03261759 -0.0124925785 -0.03947326 0.037615404 -0.037536908 -0.06417597
0.010265916 -0.057149876 -0.0031181944 0.054273896 -0.08061677 0.022199292 -0.012003086 0.03147406
0.038622078 -0.050710842 -0.043355342 0.019015398 0.01403559 0.0660969 0.088142894 -0.060098734
0.041514337 0.046717912 0.0029205037 -0.10386699 -0.052343298 0.084564395 -0.05622908 -0.015848108
-0.08668522 -0.025275292 -0.0461696 0.010633749 -0.016392209 -0.012455916 0.038824007 -0.08945921
0.09099188 -0.07124688 -0.044717796 -0.074053615 -0.09918409 0.009158559 0.014727618 -0.10996182
0.017599786 -0.10339431 -0.09903981 0.012097005 -0.028679935 0.059605584 0.014671172 0.009875624
-0.0608068 0.0019824256 -0.023218606 -0.103730954 -0.06963477 -0.027384004 0.051854968 0.04060284
00000000: cd15 4ebd 18c3 bc3b b570 74bd dbfd 77bb
00000010: 93b0 283c ab11 ffbb fdc4 403d 15bf 38bc
00000020: e508 6e3d c4e2 613d 4ab6 e0bd 84c8 4fbb
00000030: a463 443d 5c12 8fbd 9e91 d13c eda0 7dbd
00000040: ffa6 05bd ef92 37bd 4c34 4dbd b7df c93c
00000050: c048 b9bd 771c ba3a f7ec 22bd fe96 02bd
00000060: 424a 47bd 87ab 9ebd 3733 df3c f28b 78bd
00000070: 58f0 80bb d136 9dbc f342 f3bb 4108 06be
00000080: a7d3 59bd 3a00 823d c108 bfbc e28b 6b3d
00000090: 624e ad3c cbb0 92bd 0dea 2d3d 6b29 b2bc
000000a0: 4ea2 fabc 31fd 9e3d 2159 493d aaca 8ebd
000000b0: 8119 6bbd 7927 4f3d 9668 c2bb 6d5d 1f3d
000000c0: cfb7 23bd 18d1 eabd a45b 0fbc 785e 97bc
000000d0: 1a71 8cbd 780b aa3d 3ade 993d 7336 6f3d
000000e0: b0ea 09bd 3711 843d 4e95 e63c 9ef8 0dbd
000000f0: 9ed7 393d c917 053c c651 dfbc 3242 aabd
00000100: 01d4 d63d 6440 4ebd 750c 65bd 8b19 c5bb
00000110: be01 843d e5a5 603d deaa 353d 11d8 d6bc
00000120: 7e94 2fbd c236 85bd 7e3e 8dbd f461 273d
00000130: 6af5 a0ba 2a1c 863d 541b 0bbc 8c6d debd
00000140: a964 c33c e8e8 643d 8439 fc3c 6414 80bc
00000150: aa76 2c3d 3b58 cd3b c1fd 1a3d 4319 19bd
00000160: 0a8a 3cbd 957d 453b af87 c53c 491e ed3d
00000170: 9a63 d8bd 6b4b 00bd fdda 61bd 507f c5bd
00000180: 260d b7bc 393b 333c 5635 11bb 50ac 13bd
00000190: 3874 0cbd c979 9cbd 4411 e7bc bf8d 31bc
000001a0: 74f3 9c3c 5afc 903d cc8b 293d e8f4 19bd
000001b0: 9407 353d ef23 cebd dd7c c4bd 42bb d5bd
000001c0: 7c47 24bc 1cbb 44bd 3e75 3e3d de8d 863c
000001d0: 8c36 803d 54bc ae3c 43fd 8dbd ed5d 563d
000001e0: 82f4 b6bd 9205 82bc b670 60bc 6aa2 d83c
000001f0: 520f 65bc 504d 143d 4883 7cbc eb31 53bd
00000200: 2195 ba3d 380a 5b3d 8879 18bd beb5 1f3d
00000210: c714 a1bc 8541 de3b 4c32 53bc b9f9 48bd
00000220: 93af b43a 0ea2 9ebd a71a 26bd 4c4e c4bd
00000230: cd92 3d3d 098b 7abc 7c6d abbd 710b a7bd
00000240: f37f a1bd 5b8c a33b c3ee 2e3d 57ec 8f3d
00000250: 7ff1 a2bc 83fe a3bc aa04 063d ada9 a33d
00000260: 9851 a4bd bf1e 9dbc e2dc 26bd 222c 363c
00000270: 686b 643d 46f7 74bd 28da 3abd 33cc 193d
00000280: 51b0 f2bd dfc5 033d fdd5 ac3b f666 8dbd
00000290: 3632 0ebd 32e7 e03a 5957 173a e20c 21bd
000002a0: 0e41 66bd 9c3e c63c cc97 8c3c 2213 c3bd
000002b0: 7777 acbd 6de5 743d 7440 bbbd 830d a73d
000002c0: 2586 6f3d 346c 623d f48e 11bd b9a1 5abd
000002d0: 6640 bd3d 6732 ec3b 5e68 533d f841 33bd
000002e0: 59c9 44bd 8450 b73d a75f c93c a4a6 6cbd
000002f0: d536 623d c7cd 4d3d cc81 9cbd 85a0 8a3d
00000300: 798c a1bd 1bbb 383d 069a 05bd acad 4cbc
00000310: b7ae 21bd 9c12 1a3d 4dc0 19bd b16e 83bd
00000320: 5f32 283c fd15 6abd 9f5a 4cbb 4e4e 5e3d
00000330: 681a a5bd 4adb b53c 97a8 44bc f2ea 003d
00000340: 2f32 1e3d 2cb6 4fbd 5f95 31bd 2ec6 9b3c
00000350: 88f5 653c d05d 873d 4384 b43d 172a 76bd
00000360: f00a 2a3d 485b 3f3d ec65 3f3b 37b8 d4bd
00000370: ed65 56bd 1930 ad3d 7750 66bd e4d3 81bc
00000380: 0588 b1bd 210e cfbc 561c 3dbd 2d39 2e3c
00000390: f448 86bc e613 4cbc ec05 1f3d 6436 b7bd
000003a0: f359 ba3d e2e9 91bd 022a 37bd 6ca9 97bd
000003b0: 0721 cbbd c80d 163c 1b4c 713c aa33 e1bd
000003c0: 6d2d 903c 65c0 d3bd 62d5 cabd 8432 463c
000003d0: 2ff2 eabc fc24 743d 5b5f 703c 5fcd 213c
000003e0: 8d10 79bd 95eb 013b f234 bebc e570 d4bd
000003f0: ad9c 8ebd 6b54 e0bc e065 543d 2a4f 263d

tpcnns.1.bias f4 [12]
-0.09573261 -0.15553063 -0.060350288 -0.08535714 0.3168085 0.14089599 0.12000688 -0.04761821
0.2688704 0.14215222 0.018067645 -0.037882492
00000000: 750f c4bd 6c43 1fbe dd31 77bd b9cf aebd
00000010: b934 a23e 0a47 103e 2bc6 f53d 500b 43bd
00000020: 62a9 893e 5a90 113e 9902 943c ac2a 1bbd

tpcnns.2.weight f4 [12, 12, 3, 3]
-0.0036960938 0.0720969 0.0668582 -0.10177408 0.023880517 0.050276242 -0.01854513 0.074756466
0.06959512 -0.00051587046 -0.04603389 0.08695471 -0.02567503 0.033176865 -0.014016683 -0.06314263
0.06034855 -0.010928653 0.024249002 0.115247756 0.043383066 0.0761342 -0.072184056 -0.060627505
0.061321046 0.01238026 0.061398495 -0.09687693 -0.11507659 -0.01818784 -0.019917522 -0.12769175
0.0645369 0.02313555 0.09021778 -0.015563932 0.00094953517 -0.064717606 -0.070165046 0.02911718
0.066183925 0.014744482 -0.13935107 0.0039043177 -0.005787391 -0.00094842707 -0.11200633 -0.10993009
-0.020505652 0.007149903 -0.025715038 0.124412976 0.11821161 -0.094307296 0.12004834 0.06202088
-0.09546888 -0.023206271 -0.034455728 0.07497072 -0.057008907 0.099947 0.052447114 0.02964263
0.022606922 0.098037906 0.034561656 0.078435615 0.0896766 0.04711683 0.021948008 0.031279597
0.008601699 -0.048440386 0.08371324 0.007903193 0.0139974635 0.018351818 0.01051183 -0.123734884
-0.060003147 0.066509515 0.09153554 -0.058934357 -0.0043988293 0.13293704 0.024619233 0.05692054
0.039570667 0.017273521 0.05168046 0.036386557 -0.09796775 -0.0023828843 0.05182652 -0.09007411
-0.00999132 -0.010173829 0.06870376 0.0036323206 0.024410041 0.03649326 -0.061411936 0.003210834
0.039117858 0.030810684 -0.010514133 0.049540147 -0.08248645 0.025525544 -0.038719393 -0.07540627
-0.10852737 0.006563217 -0.07750647 -0.052165557 -0.06573618 0.09672048 0.083908014 0.008279541
0.08977258 -0.0013576003 0.10119439 -0.021501781 0.024723645 0.056564756 -0.00014313358 0.048519395
0.054916725 -0.015873918 0.082556605 0.053165678 0.035342142 -0.081893355 0.027437733 0.011147107
-0.072227634 0.029442161 0.008049171 0.004118406 -0.1244301 0.00028709567 0.066949196 -0.034753513
0.053264577 0.06192495 0.07050718 0.033204105 0.06976038 0.06525216 -0.0690671 0.013480126
-0.077535115 0.04390763 0.069610514 0.12743248 0.01618396 0.10769228 -0.063640036 -0.083104685
-0.22489725 -0.124621384 0.022252824 0.0049186856 0.0029246458 0.022540696 0.042230368 0.039966825
-0.070140906 -0.09572514 -0.0041983696 -0.009173165 -0.036132965 0.08704147 0.05532863 -0.042146347
0.030875169 0.11972799 0.092586204 0.05313102 -0.08214967 0.05985913 0.00473156 0.07533456
0.014458134 0.047831208 -0.07729531 -0.043564726 0.011535621 0.08289533 0.09536723 0.08345704
0.1369833 0.14714822 -0.010838601 0.002119411 -0.09839612 0.011291429 0.0359864 0.090534665
0.0019156483 0.039057564 -0.067997366 0.027148275 -0.011697334 0.083081834 -0.016847577 0.05513074
0.04287337 0.06545166 0.04478653 -0.0085466 0.10691454 0.12538555 0.16143355 0.02340442
0.019112471 0.082502775 0.077620536 0.032682236 -0.050329793 -0.006771304 -0.04517151 0.03130214
0.079590075 -0.015421392 0.09055578 0.07942266 -0.02061214 -0.037394937 -0.009647511 -0.077295996
-0.053168815 -0.08532208 0.11402568 0.017208993 -0.05445738 0.11633498 -0.08404587 0.014771095
0.06784439 0.021905819 0.028712012 -0.090792045 -0.15807521 -0.13567029 0.050826296 -0.0723495
-0.11269978 -0.059461094 -0.052332435 -0.014449388 -0.041898333 0.0169654 0.004343646 0.0544217
00000000: 2a3a 72bb 8aa7 933d f4ec 883d ee6e d0bd
00000010: 13a1 c33c 76ee 4d3d f5eb 97bc eb19 993d
00000020: e387 8e3d 7b3b 07ba 088e 3cbd 5015 b23d
00000030: 7154 d2bc 77e4 073d 3ba6 65bc ec50 81bd
00000040: 0b30 773d 180e 33bc d8a5 c63c 0407 ec3d
00000050: 71b2 313d 3fec 9b3d 3cd5 93bd 8c54 78bd
00000060: c72b 7b3d 93d6 4a3c fd7c 7b3d 6967 c6bd
00000070: 46ad ebbd aafe 94bc 122a a3bc a0c1 02be
00000080: ec2b 843d c486 bd3c 19c4 b83d ddff 7ebc
00000090: 3aea 783a aa8a 84bd b1b2 8fbd 2787 ee3c
000000a0: 708b 873d d792 713c 0cb2 0ebe 95df 7f3b
000000b0: 28a4 bdbb dd9f 78ba 9363 e5bd 0723 e1bd
000000c0: 78fb a7bc bc49 ea3b 58a8 d2bc 3bcc fe3d
000000d0: ee18 f23d 2f24 c1bd e7db f53d 9b09 7e3d
000000e0: 3085 c3bd 141b bebc 7321 0dbd 408a 993d
000000f0: 2c82 69bd 03b1 cc3d c9d2 563d 1ad5 f23c
00000100: 2732 b93c 19c8 c83d 8690 0d3d daa2 a03d
00000110: 5ea8 b73d 94fd 403d 4fcc b33c 091f 003d
00000120: 24ee 0c3c 6d69 46bd d971 ab3d 657c 013c
00000130: 9e55 653c 8d56 963c d039 2c3c b768 fdbd
00000140: dcc5 75bd 2436 883d fc76 bb3d 2765 71bd
00000150: 0e24 90bb a620 083e 46ae c93c 8325 693d
00000160: da14 223d 3381 8d3c e4ae 533d 120a 153d
00000170: 51a3 c8bd 2a2a 1cbb 0c48 543d c678 b8bd
00000180: a2b2 23bc 22b0 26bc 8fb4 8c3d 3a0c 6e3b
00000190: 91f7 c73c f579 153d 158b 7bbd db6c 523b
000001a0: 0c3a 203d b066 fc3c 7843 2cbc 9cea 4a3d
000001b0: a8ee a8bd f21a d13c 3a98 1ebd 9a6e 9abd
000001c0: 9943 debd 4110 d73b b6bb 9ebd 8dab 55bd
000001d0: b1a0 86bd 6315 c63d f7d7 ab3d e9a6 073c
000001e0: b0da b73d 82f1 b1ba 013f cf3d 8124 b0bc
000001f0: 3e89 ca3c 72b0 673d 2116 16b9 46bc 463d
00000200: 5cf0 603d 050a 82bc 7013 a93d 41c4 593d
00000210: ecc2 103d b4b7 a7bd 19c5 e03c 5ba2 363c
00000220: 15ec 93bd b030 f13c ace0 033c b2f3 863b
00000230: 35d5 febd 5485 9639 a91c 893d b359 0ebd
00000240: f52b 5a3d 04a5 7d3d 1266 903d 0701 083d
00000250: 88de 8e3d eda2 853d 0d73 8dbd bfdb 5c3c
00000260: bbca 9ebd 7dd8 333d f58f 8e3d a97d 023e
00000270: 3994 843c c58d dc3d b555 82bd ca32 aabd
00000280: 774b 66be 7f39 ffbd 8e4b b63c ed2c a13b
00000290: 6aab 3f3b 44a7 b83c c0f9 2c3d 41b4 233d
000002a0: 09a6 8fbd 8b0b c4bd 7a92 89bb 0b4b 16bc
000002b0: 2900 14bd cc42 b23d 46a0 623d a6a1 2cbd
000002c0: eced fc3c f333 f53d d69d bd3d ea9f 593d
000002d0: 163e a8bd d92e 753d 340b 9b3b 0149 9a3d
000002e0: cfe1 6c3c a8ea 433d 014d 9ebd ed70 32bd
000002f0: e7ff 3c3c 07c5 a93d e54f c33d 86eb aa3d
00000300: 5a45 0c3e 06ae 163e 6394 31bc d1e5 0a3b
00000310: e883 c9bd b0ff 383c 7a66 133d 3d6a b93d
00000320: 7e16 fb3a d3fa 1f3d 3442 8bbd 0f66 de3c
00000330: 2da6 3fbc cf26 aa3d ee03 8abc c5d0 613d
00000340: fd9b 2f3d 850b 863d 1572 373d 0a07 0cbc
00000350: 03f6 da3d 1265 003e d64e 253e a0ba bf3c
00000360: c291 9c3c 37f7 a83d 84f7 9e3d cfdd 053d
00000370: 9d26 4ebd d1e1 ddbb c305 39bd ac36 003d
00000380: 1f00 a33d 02aa 7cbc 4f75 b93d 59a8 a23d
00000390: cada a8bc 6f2b 19bd 9810 1ebc 5d4d 9ebd
000003a0: 8bc7 59bd 58bd aebd 4c86 e93d e0f9 8c3c
000003b0: b40e 5fbd 0941 ee3d 3e20 acbd 7602 723c
000003c0: 00f2 8a3d d573 b33c 7435 eb3c 2ef1 b9bd
000003d0: 78de 21be 27ed 0abe 3c2f 503d fa2b 94bd
000003e0: 24cf e6bd 7a8d 73bd 895a 56bd 20bd 6cbc
000003f0: 969d 2bbd 06fb 8a3c 2555 8e3b 4ae9 5e3d

tpcnns.2.bias f4 [12]
0.048322823 -0.0151946675 0.19472365 -0.14799966 0.3568061 0.038999747 0.09086135 0.040884685
0.25005108 -0.108072475 0.05057309 -0.032971483
00000000: 27ee 453d 0ef3 78bc a365 473e 398d 17be
00000010: 4aaf b63e 33be 1f3d 8415 ba3d b376 273d
00000020: b206 803e 1a55 ddbd ba25 4f3d 1b0d 07bd

tpcnns.3.weight f4 [12, 12, 3, 3]
0.095326796 0.07161313 0.06698147 -0.050339244 -0.061762698 0.12483335 0.004520782 0.07235442
0.024967209 -0.0533857 0.090258956 0.0192559 -0.037720963 0.0246037 -0.03468044 -0.04369224
-0.02392502 0.029759513 0.052043315 0.020258786 0.07910617 -0.122629024 -0.021179922 0.01077967
-0.08783274 0.060129587 0.010813873 0.077521555 -0.031939466 0.0008505731 0.069319636 -0.107184395
0.051102936 -0.043179885 0.07916396 -0.018311169 0.0004603513 0.0021645376 -0.095731035 0.0029888055
0.034114636 0.088815324 0.09366716 0.014577498 0.03286228 0.05975806 0.04458079 -0.07734271
-0.0815175 -0.08855445 -0.008876162 0.027895574 -0.025388928 -0.041330155 0.04165026 0.03254265
0.012023116 -0.015801098 0.034933805 -0.07360521 0.00013726261 0.16421226 -0.008191888 0.10901218
0.110783674 -0.062565774 0.08444053 -0.031234505 0.06509869 0.018927505 -0.068895794 -0.01070157
-0.0008856901 0.15358533 0.106361575 0.09228508 0.06840922 0.09054893 -0.021346413 -0.01669623
-0.0640242 -0.06604577 0.15343925 0.01787441 0.034854785 -0.048262436 0.017299185 0.021739885
0.06077217 -0.091387525 0.07673954 0.018020395 0.09655572 -0.08379442 -0.012059505 -0.031591058
0.040514015 0.13937846 0.014236908 -0.01698076 0.039650653 0.06483105 -0.05140088 -0.020145345
0.040080484 0.0006016113 -0.07166353 0.081122674 -0.0597267 -0.08466379 -0.014954402 0.059538975
0.025527012 0.048548333 0.03542411 0.045586545 0.06854308 -0.061605845 -0.019080365 0.06542444
0.068141006 -0.04949383 0.028422147 -0.004899031 -0.08865711 -0.047314536 0.030361556 -0.021159831
-0.072045326 0.05406842 -0.09121526 -0.06901842 -0.06413114 -0.08294412 -0.04434147 0.0037555567
0.05581645 0.022295294 0.013906073 0.04094137 0.016218068 0.07981434 0.036017105 -0.05025667
-0.032830607 -0.071849115 -0.030885493 -0.011001289 0.09698317 -0.008063366 0.039799638 0.007674613
0.04841592 -0.06879338 -0.002650263 -0.091282964 -0.03891475 0.07421158 0.03618922 -0.06577239
-0.1363957 -0.05463454 0.052960765 -0.08164262 -0.021780249 0.03496677 -0.0014617321 -0.07253816
-0.030417182 -0.043055914 -0.059067935 -0.0007572612 0.0116566345 0.09580046 0.08444528 0.074822195
-0.03324626 0.08485211 0.012214844 -0.008360155 -0.006420013 -0.0073982487 -0.030482523 -0.032326065
0.0836749 -0.05160285 0.003557069 -0.08654153 0.030826308 0.059718832 0.06094051 -0.026809439
-0.06915202 0.0044781556 -0.046677303 0.031893533 -0.0209546 0.019643659 -0.042975448 -0.023754332
0.027154349 0.011082102 0.012981146 0.034483224 -0.02929667 -0.070310116 -0.09029435 -0.00946369
-0.050009288 -0.06645904 -0.07601831 0.07441242 -0.059929535 -0.065080516 0.11132205 0.112479515
-0.022142764 0.059586953 -0.033479597 -0.045195173 -0.020373054 -0.037452966 0.059865907 0.05601334
-0.054382686 -0.04920169 -0.055613924 -0.07329066 -0.08813991 -0.045449387 -0.012193728 0.008184512
7.6058905e-06 -0.083170764 0.07627276 0.023741925 -0.07004272 0.05915962 -0.13020311 0.010682334
0.09073714 -0.03661663 -0.095462315 -0.05958155 -0.115290314 0.007515309 -0.043969896 -0.09197691
0.016932499 0.050617673 0.026330734 -0.04934344 -0.109482504 0.10411293 -0.037713595 -0.051038764
00000000: b23a c33d e8a9 923d 952d 893d 8630 4ebd
00000010: e2fa 7cbd a1a8 ff3d 1123 943b 8e2e 943d
00000020: 0888 cc3c f7aa 5abd b0d9 b83d 8dbe 9d3c
00000030: 4c81 1abd b38d c93c 140d 0ebd a2f6 32bd
00000040: 67fe c3bc 39ca f33c 5f2b 553d c1f5 a53c
00000050: 6a02 a23d ed24 fbbd 8481 adbc 379d 303c
00000060: a7e1 b3bd 714a 763d ac2c 313c 9fc3 9e3d
00000070: f5d2 02bd fff8 5e3a 74f7 8d3d 7e83 dbbd
00000080: 5051 513d 64dd 30bd b720 a23d 4e01 96bc
00000090: 4e5b f139 eada 0d3b a20e c4bd d6df 433b
000000a0: cabb 0b3d cfe4 b53d 91d4 bf3d 75d6 6e3c
000000b0: 999a 063d dec4 743d 599a 363d db65 9ebd
000000c0: a6f2 a6bd 095c b5bd 526d 11bc 4285 e43c
000000d0: 71fc cfbc cf49 29bd 7799 2a3d 714b 053d
000000e0: 9bfc 443c 4e71 81bc c016 0f3d 54be 96bd
000000f0: 27ee 0f39 4227 283e 4537 06bc c741 df3d
00000100: 8de2 e23d 7c22 80bd 28ef ac3d 81df ffbc
00000110: 7652 853d db0d 9b3c 3d19 8dbd a355 2fbc
00000120: a82d 68ba 7945 1d3e 19d4 d93d f6ff bc3d
00000130: 221a 8c3d b871 b93d acde aebc 88c6 88bc
00000140: 1f1f 83bd 0143 87bd 2e1f 1d3e 5b6d 923c
00000150: e4c3 0e3d d5ae 45bd 05b7 8d3c d817 b23c
00000160: 3dec 783d 6229 bbbd 9f29 9d3d 829f 933c
00000170: 01bf c53d 699c abbd 3b95 45bc a065 01bd
00000180: 06f2 253d 3ab9 0e3e ec41 693c 3c1b 8bbc
00000190: b968 223d 24c6 843d bb89 52bd da07 a5bc
000001a0: 6f2b 243d 73b5 1d3a 54c4 92bd a523 a63d
000001b0: fca3 74bd 3664 adbd 4f03 75bc 24df 733d
000001c0: 061e d13c 9eda 463d df18 113d f5b8 3a3d
000001d0: 5060 8c3d 6956 7cbd 6d4e 9cbc 40fd 853d
000001e0: 838d 8b3d 0bba 4abd 90d5 e83c 0d88 a0bb
000001f0: dc91 b5bd e3cc 41bd ccb8 f83c 6257 adbc
00000200: 808c 93bd d976 5d3d 11cf babd 8859 8dbd
00000210: 3057 83bd 9bde a9bd 679f 35bd c91f 763b
00000220: ca9f 643d 9fa4 b63c 4cd6 633c 23b2 273d
00000230: c1db 843c b375 a33d ac86 133d f0d9 4dbd
00000240: 6379 06bd a125 93bd 9303 fdbc c03e 34bc
00000250: 1d9f c63d 351c 04bc f204 233d 527b fb3b
00000260: c64f 463d 8be3 8cbd 09b0 2dbb 90f2 babd
00000270: 1365 1fbd 3efc 973d 263b 143d adb3 86bd
00000280: 50ab 0bbe 78c8 5fbd 63ed 583d 3f34 a7bd
00000290: 7e6c b2bc 5139 0f3d 9797 bfba e38e 94bd
000002a0: 742d f9bc 665b 30bd 38f1 71bd f082 46ba
000002b0: 78fb 3e3c 0833 c43d a6f1 ac3d 613c 993d
000002c0: 3b2d 08bd f1c6 ad3d c520 483c 08f9 08bc
000002d0: f95e d2bb 026d f2bb 7cb6 f9bc 5668 04bd
000002e0: bf5d ab3d 835d 53bd b71d 693b b03c b1bd
000002f0: 7487 fc3c bc9b 743d c29c 793d 789f dbbc
00000300: 939f 8dbd 7ebd 923b b330 3fbd cba2 023d
00000310: fba8 abbc bdeb a03c 0607 30bd 7298 c2bc
00000320: cc72 de3c b491 353c dfae 543c 483e 0d3d
00000330: 92ff efbc c0fe 8fbd 3fec b8bd 980d 1bbc
00000340: 8ad6 4cbd ad1b 88bd 7daf 9bbd 8a65 983d
00000350: ac78 75bd ef48 85bd d1fc e33d a95b e63d
00000360: be64 b5bc 7311 743d e721 09bd 931e 39bd
00000370: 64e5 a6bc 4868 19bd f435 753d 3e6e 653d
00000380: 61c0 5ebd b687 49bd 6dcb 63bd 6a19 96bd
00000390: b282 b4bd 2329 3abd 34c8 47bc 5518 063c
000003a0: 1a36 ff36 6f55 aabd e534 9c3d 6d7e c23c
000003b0: 8f72 8fbd 5c51 723d f753 05be f504 2f3c
000003c0: 65d4 b93d 52fb 15bd bf81 c3bd c90b 74bd
000003d0: 541d ecbd fb42 f63b c719 34bd 645e bcbd
000003e0: 06b6 8a3c 7a54 4f3d 8db3 d73c 591c 4abd
000003f0: 5d38 e0bd 2939 d53d 9279 1abd 060e 51bd

tpcnns.3.bias f4 [12]
0.076544285 0.028226761 0.18702428 -0.08026383 0.34778863 0.05796922 0.1262276 0.19477178
0.06595494 0.011862753 0.21055366 0.11087376
00000000: 40c3 9c3d cf3b e73c 4b83 3f3e 5d61 a4bd
00000010: 5a11 b23e 2271 6d3d cf41 013e 4172 473e
00000020: 6213 873d fe5b 423c 619b 573e c811 e33d

tpcnns.4.weight f4 [12, 12, 3, 3]
0.024890997 -0.083246134 -0.09150716 -0.005376555 0.09307829 0.06842997 -0.08672658 0.09562711
-0.028995283 -0.062725775 0.030786358 -0.07119956 0.04648211 0.052888043 0.07383137 -0.009791933
-0.009840548 -0.049514808 0.05421292 -0.023152009 0.06584164 -0.017809115 -0.06687859 -0.05277546
0.08704234 0.017652526 0.056468643 0.039791025 -0.00990396 5.07012e-05 -0.0015537739 -0.014279105
0.060345747 0.056644328 0.067444675 0.057782523 -0.02959419 -0.07235823 0.044446282 0.03078904
0.07224391 -0.08523545 -0.093669154 -0.0032467544 0.059203394 0.0948539 -0.040331375 -0.04105106
-0.02418384 -0.0073382556 0.03990511 0.061904736 0.056565873 0.041052602 0.08140782 -0.05188102
0.087220095 0.053712584 -0.009946078 -0.03540014 0.074403174 0.09511831 -0.0021553263 -0.010852531
-0.095249675 0.031232916 -0.06962568 0.0666799 -0.04403624 -0.028756164 0.08246907 -0.04075673
0.07650598 -0.049814086 -0.074048124 -0.07328798 0.0821337 -0.03316076 -0.09314974 -0.05720146
0.028774671 -0.00409203 0.0040581226 -0.037288003 -0.06429061 0.013621673 0.03680841 -0.06826751
0.057621337 0.0068825483 -0.015784934 -0.0755251 -0.05284915 -0.058385845 -0.05729972 0.019431345
0.059325255 0.028057441 0.023839712 -0.009250596 -0.08687346 0.0071598813 0.030984141 0.032014333
0.08240015 0.065970995 0.08739268 0.04857924 0.025649823 0.08713878 -0.04106878 0.024889104
-0.07370978 -0.049355395 0.09513252 -0.040922288 0.05042685 0.058531053 -0.011808544 -0.016348273
0.007662654 0.02246552 -0.07582605 -0.08129607 -0.048090775 0.09567491 0.028547652 -0.06350191
0.075603776 0.08220152 -0.009331651 -0.039969433 0.029087149 -0.010534786 0.06953875 0.0711317
0.017314173 0.06669807 0.0057312474 0.093528695 0.0021851435 -0.017300949 -0.023015358 -0.09150862
0.061318077 0.03833676 0.010617219 -0.069999956 0.056259014 0.06768339 0.084039725 -0.0060156733
-0.017472014 -0.06675779 0.015691333 -0.004448779 0.018209293 -0.048236523 0.040894337 0.051913567
-0.065871894 0.016483411 -0.04204623 0.03737951 -0.011727169 -0.042657677 -0.028138041 0.047636427
-0.010219932 0.033815794 0.0027552769 -0.056372616 0.094524466 -0.046796463 -0.029026873 0.02303145
0.046058305 -0.04526543 0.0046972483 -0.0053999573 -0.018515155 -0.082458936 -0.006241478 0.05958926
0.0049925894 -0.031302176 -0.06259026 0.016330078 0.040339984 -0.0077439174 -0.05175984 0.085677035
-0.065593496 -0.051417008 0.018163227 -0.029577538 0.090499185 0.09469352 0.05379092 0.03795535
-0.08841025 -0.06898484 0.018850647 -0.027871788 0.033178516 -0.065372735 -0.09546099 0.039009057
0.08618466 0.0517124 0.025209397 0.08982792 -0.020845853 0.06402109 0.011633486 -0.06495072
0.043690123 -0.06289421 -0.054514673 0.07553334 -0.013209403 0.074114986 -0.038577367 0.013075583
-0.012073025 0.015579425 -0.07222745 0.03852331 -0.015317738 0.06671599 0.06939063 0.014696866
-0.035080824 0.004606068 0.045038395 0.024018787 -0.083276846 -0.065632984 -0.06125822 0.039908327
0.04127709 -0.009963855 -0.08539701 -0.042170953 0.06480204 -0.06763915 -0.051657703 0.039923795
-0.052565854 -0.07714599 -0.069095954 -0.005560264 0.0022727475 -0.04764972 0.03341093 0.013052978
00000000: 34e8 cb3c f37c aabd 1b68 bbbd d02d b0bb
00000010: d59f be3d 0325 8c3d b59d b1bd 25d8 c33d
00000020: 8487 edbc 5f76 80bd ac33 fc3c 13d1 91bd
00000030: 0664 3e3d 22a1 583d e734 973d 586e 20bc
00000040: 403a 21bc 0ad0 4abd 5e0e 5e3d 48a9 bdbc
00000050: fbd7 863d 6ce4 91bc a4f7 88bd 152b 58bd
00000060: 4143 b23d 089c 903c aa4b 673d eafb 223d
00000070: 3844 22bc 00a8 5438 00a8 cbba e8f2 69bc
00000080: 1a2d 773d e203 683d 6f20 8a3d 5ead 6c3d
00000090: 846f f2bc 8d30 94bd 4e0d 363d 4c39 fc3c
000000a0: 9df4 933d ec8f aebd 9dd5 bfbd 80c7 54bb
000000b0: 427f 723d c342 c23d 8332 25bd 2825 28bd
000000c0: 301d c6bc c075 f0bb 8a73 233d d28f 7d3d
000000d0: 9eb1 673d c626 283d 25b9 a63d 3181 54bd
000000e0: 73a0 b23d ba01 5c3d e0f4 22bc bdff 10bd
000000f0: b160 983d 63cd c23d 6040 0dbb d0ce 31bc
00000100: 4312 c3bd 2cdc ff3c e997 8ebd 798f 883d
00000110: 585f 34bd 0c92 ebbc 8be5 a83d 87f0 26bd
00000120: 2baf 9c3d db09 4cbd 8ba6 97bd 0218 96bd
00000130: b735 a83d 94d3 07bd 4ac5 bebd 144c 6abd
00000140: dcb8 eb3c 7016 86bb 00fa 843b 4ebb 18bd
00000150: ccaa 83bd 702d 5f3c 6ac4 163d d6cf 8bbd
00000160: 5a04 6c3d 0087 e13b 684f 81bc e7ac 9abd
00000170: 5a78 58bd ff25 6fbd 1cb3 6abd 7c2e 9f3c
00000180: 0aff 723d b8d8 e53c 804b c33c d08f 17bc
00000190: b6ea b1bd 709d ea3b 74d2 fd3c 7621 033d
000001a0: 69c1 a83d cd1b 873d effa b23d 06fb 463d
000001b0: 941f d23c d175 b23d bd37 28bd 3ce4 cb3c
000001c0: 27f5 96bd e228 4abd d7d4 c23d 219e 27bd
000001d0: 628c 4e3d 42be 6f3d a078 41bc d0ec 85bc
000001e0: 0017 fb3b 9c09 b83c b04a 9bbd 8e7e a6bd
000001f0: d5fa 44bd 35f1 c33d c4dc e93c 4a0d 82bd
00000200: 27d6 9a3d 4559 a83d c8e3 18bc fdb6 23bd
00000210: 2c48 ee3c 189a 2cbc 556a 8e3d 7fad 913d
00000220: 74d6 8d3c ff98 883d 30cd bb3b f98b bf3d
00000230: a034 0f3b b8ba 8dbc b48a bcbc df68 bbbd
00000240: aa28 7b3d 0207 1d3d d8f3 2d3c 235c 8fbd
00000250: da6f 663d 979d 8a3d 051d ac3d 201f c5bb
00000260: 7821 8fbc 4fb8 88bd 1c8b 803c 10c7 91bb
00000270: a82b 953c a993 45bd d280 273d 52a3 543d
00000280: d8e7 86bd 3808 873c ab38 2cbd 421b 193d
00000290: 5023 40bc d1b9 2ebd c081 e6bc 6a1e 433d
000002a0: 8071 27bc 6e82 0a3d e091 343b f9e6 66bd
000002b0: 0b96 c13d a6ad 3fbd c4c9 edbc 74ac bc3c
000002c0: a2a7 3c3d 3e68 39bd 60eb 993b 20f2 b0bb
000002d0: 18ad 97bc 3be0 a8bd 5085 ccbb de13 743d
000002e0: e098 a33b b636 00bd 522f 80bd a8c6 853c
000002f0: 8a3b 253d b0c0 fdbb 2002 54bd 7177 af3d
00000300: e255 86bd a49a 52bd 0ccb 943c 984c f2bc
00000310: a357 b93d adee c13d de53 5c3d 1277 1b3d
00000320: 6f10 b5bd ec47 8dbd ac6c 9a3c 6053 e4bc
00000330: 32e6 073d 24e2 85bd 0d81 c3bd f6c7 1f3d
00000340: 9581 b03d 62d0 533d f083 ce3c b3f7 b73d
00000350: ecc4 aabc 7d1d 833d 609a 3e3c e204 85bd
00000360: 6af4 323d aece 80bd c74a 5fbd 39b1 9a3d
00000370: 406c 58bc 99c9 973d 4d03 1ebd f83a 563c
00000380: f0cd 45bc d840 7f3c fceb 93bd 9eca 1d3d
00000390: 40f7 7abc 65a2 883d ad1c 8e3d 20cb 703c
000003a0: e9b0 0fbd 80ee 963b 2e7a 383d 0cc3 c43c
000003b0: 0d8d aabd 966a 86bd e6e9 7abd ea76 233d
000003c0: 2a12 293d 703f 23bc a1e4 aebd 73bb 2cbd
000003d0: efb6 843d 6586 8abd 0797 53bd 2287 233d
000003e0: 4b4f 57bd b8fe 9dbd 2e82 8dbd e032 b6bb
000003f0: 60f2 143b 5a2c 43bd e6d9 083d 28dc 553c

tpcnns.4.bias f4 [12]
0.07792487 -0.037854675 -0.0808217 -0.085808635 0.09363105 0.054238953 -0.032242864 -0.055635702
-0.041702516 -0.023313172 -0.09302678 -0.043034095
00000000: 1397 9f3d 810d 1bbd d985 a5bd 70bc afbd
00000010: a3c1 bf3d aa29 5e3d 1811 04bd 43e2 63bd
00000020: 42d0 2abd 44fb bebc d384 bebd 8544 30bd

tpcnn_ouput.weight f4 [12, 12, 3, 3]
0.057741474 0.08157596 0.029889463 0.012647541 -0.022865523 0.020089982 -0.03314378 -0.13970423
-0.021588428 -0.07711544 -0.06522069 -0.037671138 0.015261357 0.13308387 0.030799573 -0.0518002
-0.07378395 0.03325526 -0.02391592 -0.06604183 0.029735142 -0.023215037 0.0026303441 -0.0248316
-0.060259122 -0.030852763 -0.0677031 0.065139934 0.091451265 -0.037571654 -0.0064062555 -0.027654523
0.013784679 -0.022124046 0.01745975 0.003671377 0.057480317 -0.037223257 0.032787483 -0.009261627
-0.068692595 -0.039370917 0.019921139 -0.01275431 0.04319264 -0.045003187 0.11138843 0.0015360421
-0.029684052 -0.024547782 0.055542577 -0.021693036 -0.026590846 0.034420043 -0.057625774 -0.05733654
0.036398035 0.012441266 0.030301664 0.01962062 0.054005098 -0.107861914 0.06607332 -0.014982204
0.021417359 -0.025139917 -0.014787879 -0.00040227987 -0.0035018828 0.023716195 0.08355868 0.0104428865
-0.05827765 0.1412865 -0.006277873 -0.030675068 0.089289926 0.009278567 -0.038245287 0.20123369
0.026932811 -0.09204611 0.015928889 -0.021558117 -0.047270823 0.020314354 -0.03137957 0.06907353
0.19557075 0.028854525 0.038311403 -0.16819067 -0.07870975 0.07355773 -0.08826779 0.0038036879
0.0010121325 -0.0030526496 0.07451439 -0.06703502 -0.12522982 0.014400604 -0.00077402545 -0.05366345
-0.00076293794 -0.018254297 -0.07824276 -0.033219647 0.048359588 0.08846783 0.04337138 0.016293319
-0.024159519 0.029132217 -0.04503777 -0.14494649 -0.0028654516 -0.06668254 -0.06717423 -0.09360345
0.045896735 0.117777005 0.015149177 -0.041050106 -0.083103545 0.004719293 -0.044167556 -0.049165703
0.043690156 0.0001139846 -0.019233854 -0.016374527 -0.03299428 -0.071010634 -0.07989687 0.047962174
0.10621663 -0.038451523 0.031086572 -0.043661527 0.03748753 -0.018721795 0.015956113 -0.009848491
0.039936017 -0.013944668 0.0011634693 0.008482289 -0.06502024 -0.044568963 0.017667715 -0.015303668
0.020883841 -0.05365987 0.107916586 0.009749328 -0.00931543 -0.012632086 0.05574975 -0.04575909
-0.052133348 0.02166758 -0.058024004 -0.046291217 0.024699876 0.02819984 0.05751966 0.04889546
0.04062387 -0.12544934 0.08223544 0.019498816 0.026463546 -0.05104671 -0.038196493 -0.061588645
-0.012437826 0.011384886 0.10228631 0.019320834 -0.049345955 0.1299386 -0.007093797 -0.017356219
0.09555631 0.02519417 -0.028442936 0.21329917 0.034300346 -0.08940168 -0.011522783 -0.0032757837
-0.069844455 0.036592208 -0.056192573 0.032218322 0.15898937 0.04707821 0.05801332 -0.16174889
-0.06984475 0.023632137 -0.07522929 -0.03655881 0.052115515 -0.00027384056 0.08033001 -0.059514392
-0.1161485 -0.0010014359 0.004866771 -0.0632185 0.036291327 -0.04522972 -0.05716364 -0.03236073
0.05365264 0.14625166 0.105436236 0.0010654926 -0.10449865 0.037286744 -0.036077976 -0.12196229
-0.011009892 -0.041369952 0.038052145 -0.036874566 0.01783182 0.086583935 0.03863377 -0.030342821
-0.003144716 -0.014050106 0.08173379 0.15836819 0.04967113 -0.02601904 -0.053732276 -0.013454874
-0.05685535 -0.14549075 -0.059018675 0.020504195 -0.037431415 -0.003601339 -0.04276122 -0.024941122
0.02182271 0.014141649 -9.472786e-05 0.0018825307 -0.018168146 0.08190518 0.018387975 -0.05136154
00000000: 5382 6c3d 4c11 a73d bfda f43c a237 4f3c
00000010: 7a50 bbbc bf93 a43c c6c1 07bd a00e 0fbe
00000020: 37da b0bc b3ee 9dbd 6d92 85bd 0d4d 1abd
00000030: c50a 7a3c 2347 083e 634f fc3c 722c 54bd
00000040: 0a1c 97bd ab36 083d 52eb c3bc f040 87bd
00000050: 1d97 f33c 762d bebc da61 2c3b a46b cbbc
00000060: 45d2 76bd efbe fcbc eca7 8abd 1668 853d
00000070: cd4a bb3d bce4 19bd 91eb d1bb bd8b e2bc
00000080: 22d9 613c 7d3d b5bc c007 8f3c 7c9b 703b
00000090: 7b70 6b3d 6a77 18bd 2b4c 063d 14be 17bc
000000a0: b4ae 8cbd 6643 21bd a831 a33c 74f7 50bc
000000b0: c4ea 303d 4355 38bd 9e1f e43d 0555 c93a
000000c0: f82b f3bc 6e18 c9bc 9d80 633d 98b5 b1bc
000000d0: 0cd5 d9bc 08fc 0c3d 0109 6cbd b8d9 6abd
000000e0: 1b16 153d 74d6 4b3c 323b f83c 6cbb a03c
000000f0: 7334 5d3d b5e6 dcbd 7351 873d eb77 75bc
00000100: 7573 af3c 3af2 cdbc dc48 72bc 17e9 d2b9
00000110: d87f 65bb 7748 c23c d020 ab3d a418 2b3c
00000120: 8cb4 6ebd 69ad 103e 9eb6 cdbb 484a fbbc
00000130: a3dd b63d 2105 183c 17a7 1cbd 3410 4e3e
00000140: 33a2 dc3c ac82 bcbd 4d7d 823c a69a b0bc
00000150: 0d9f 41bd 4a6a a63c dd87 00bd 6c76 8d3d
00000160: b343 483e 5360 ec3c 6bec 1c3d 2d3a 2cbe
00000170: 9432 a1bd 6fa5 963d bec5 b4bd 4b47 793b
00000180: 88a9 843a f60e 48bb 009b 983d a849 89bd
00000190: 3f3c 00be 83f0 6b3c f8e7 4aba 35ce 5bbd
000001a0: e6ff 47ba 098a 95bc bd3d a0bd 5311 08bd
000001b0: b414 463d 9f2e b53d 30a6 313d 9179 853c
000001c0: 2fea c5bc b0a6 ee3c 8679 38bd da6c 14be
000001d0: 4dca 3bbb db90 88bd a592 89bd 2ab3 bfbd
000001e0: 37fe 3b3d 1235 f13d 4134 783c 2824 28bd
000001f0: 3132 aabd 4da4 9a3b 0ae9 34bd fa61 49bd
00000200: 73f4 323d 040b ef38 5190 9dbc df23 86bc
00000210: 0325 07bd 066e 91bd f8a0 a3bd fc73 443d
00000220: 1b88 d93d 587f 1dbd 44a9 fe3c 6ed6 32bd
00000230: 868c 193d 735e 99bc 65b6 823c 915b 21bc
00000240: f393 233d 2d78 64bc 8d7f 983a 4cf9 0a3c
00000250: 5529 85bd f28d 36bd e2bb 903c 3cbc 7abc
00000260: 9714 ab3c 74ca 5bbd 5f03 dd3d a5bb 1f3c
00000270: bf9f 18bc cff6 4ebc da59 643d e26d 3bbd
00000280: c789 55bd 3580 b13c 94aa 6dbd dc9b 3dbd
00000290: 6557 ca3c 5a03 e73c bc99 6b3d 9b46 483d
000002a0: 3765 263d cb75 00be 0e6b a83d fbbb 9f3c
000002b0: 14ca d83c 5b16 51bd ed73 1cbd 6044 7cbd
000002c0: 06c8 4bbc ac87 3a3c 7c7b d13d ba46 9e3c
000002d0: fc1e 4abd a00e 053e 1573 e8bb a12e 8ebc
000002e0: 07b3 c33d 0164 ce3c 2901 e9bc 196b 5a3e
000002f0: 857e 0c3d 3a18 b7bd 0eca 3cbc 88ae 56bb
00000300: 9c0a 8fbd b6e1 153d 2f2a 66bd 5cf7 033d
00000310: 1cce 223e 15d5 403d 609f 6d3d 80a1 25be
00000320: c40a 8fbd 2f98 c13c d011 9abd b1be 15bd
00000330: 1477 553d 4292 8fb9 0f84 a43d 5dc5 73bd
00000340: 44df edbd 9d42 83ba 6f79 9f3b b378 81bd
00000350: 37a6 143d cd42 39bd 6c24 6abd af8c 04bd
00000360: dfc2 5b3d ffc2 153e f4ee d73d 00a8 8b3a
00000370: 6303 d6bd fcb9 183d 80c6 13bd 5dc7 f9bd
00000380: d662 34bc 8a73 29bd 91dc 1b3d c909 17bd
00000390: 0914 923c eb52 b13d 723e 1e3d 8291 f8bc
000003a0: 9417 4ebb 6a32 66bc 0c64 a73d 452b 223e
000003b0: f473 4b3d e225 d5bc 6016 5cbd d571 5cbc
000003c0: 28e1 68bd 87fb 14be 91bd 71bd 6af8 a73c
000003d0: af51 19bd 7104 6cbb 6426 2fbd 5351 ccbc
000003e0: 8ac5 b23c 60b2 673c a2a8 c6b8 40bf f63a
000003f0: 5dd5 94bc e7bd a73d 61a2 963c 7a60 52bd

tpcnn_ouput.bias f4 [12]
-0.042753097 -0.050862726 -0.014678683 0.003463731 -0.1892778 -0.6358788 -0.5500481 -0.6878255
-0.6678569 -0.43263534 -0.07051996 0.035648864
00000000: df1d 2fbd 6f55 50bd dc7e 70bc c3ff 623b
00000010: 0ad2 41be f4c8 22bf f4cf 0cbf 5515 30bf
00000020: abf8 2abf 6182 ddbe c56c 90bd 8b04 123d
