checkpoint/social-stgcnn-zara1/val_best.pth (torch_old, 36966 bytes, 30 tensors)

st_gcns.0.gcn.conv.weight f4 [5, 2, 1, 1]
000000 d4 3a 2e 3f 84 cb 10 be 55 52 e5 be bf 3f 86 be
       0.68058515 -0.14140135 -0.44789377 -0.2622051
000010 7e e0 91 3e 08 18 9d 3e 2c 97 5a 3e 7d b1 11 be
       0.28491586 0.30682397 0.2134673 -0.14227863
000020 09 44 f4 3c 85 72 90 be
       0.029817598 -0.2821237

st_gcns.0.gcn.conv.bias f4 [5]
000000 48 77 2d 3f de 57 2d bf af e5 13 3f 3a 00 9a be
       0.67760134 -0.677122 0.57772344 -0.30078298
000010 ef 21 00 bf
       -0.5005178

st_gcns.0.tcn.0.weight f4 [5]
000000 6d 25 49 3e 96 ae 6d 3f 55 01 29 3f de 2a d0 3e
       0.19643183 0.9284452 0.6601766 0.40657705
000010 c0 4e 39 3e
       0.18096447

st_gcns.0.tcn.0.bias f4 [5]
000000 6c ee a1 bd 93 12 2c 3e f3 47 ef 3e a1 e7 59 3c
       -0.079068035 0.1680396 0.4673458 0.013299854
000010 a5 33 f2 bc
       -0.029565642

st_gcns.0.tcn.0.running_mean f4 [5]
000000 db 3e 38 3d ce 2a 42 bd 88 e3 29 3d f5 6c d0 bc
       0.04498182 -0.047404103 0.041476756 -0.02544258
000010 f7 3b 1f bd
       -0.038875546

st_gcns.0.tcn.0.running_var f4 [5]
000000 31 35 ff 3c 8d 77 c8 3c f0 17 88 3c 1d 3a d7 3b
       0.031153293 0.024471069 0.016612977 0.006568207
000010 18 b4 47 3c
       0.012188934

st_gcns.0.tcn.2.weight f4 [5, 5, 3, 1]
000000 08 04 f3 3c 51 93 43 3e 4a 62 88 bd f6 d9 d3 bd
       0.029665008 0.19099165 -0.06659372 -0.10344307
000010 fe 7e 62 be a2 b8 de 3d 92 b9 40 bd c3 74 6f bd
       -0.22118756 0.1087506 -0.047051974 -0.058460962
000020 e2 aa 79 3e fc 15 2f bd e2 86 03 3e 08 66 0d bc
       0.24381593 -0.042745575 0.12844422 -0.008630283
000030 0d cb 9d ba b0 54 48 3d a2 b8 85 bd 17 9f 1a 3e
       -0.0012038663 0.04890889 -0.065293565 0.1509975
000040 8f a0 77 bd f7 a8 48 be 8a e2 38 bd 5c 7c 03 3d
       -0.060455855 -0.19595705 -0.04513792 0.03210102
000050 87 50 5b 3e e8 22 36 be 41 e2 d0 3c 7b b4 aa be
       0.21417437 -0.17786753 0.025498511 -0.3334082
000060 c0 df 46 3b 67 30 5b 3e 43 78 b4 3d a2 1d fe bd
       0.0030345768 0.21405183 0.088120006 -0.12407996
000070 9e bd 94 bd 5f 2b a1 bd 97 cf fc 3d a5 3c e2 3d
       -0.07262729 -0.078696005 0.12344282 0.11046723
000080 8d 12 12 be b2 af 10 3d 41 ed 87 3e f8 4d 89 3c
       -0.14264889 0.035323806 0.26548198 0.016760811
000090 5f 41 ed bd be 9a 1f 3a 2d 21 e3 3c a9 d2 c8 bd
       -0.11584734 0.0006088427 0.02772578 -0.09805805
0000a0 db 44 e3 3d 22 d5 2f 3e 2b 0b 6c 3e af e8 92 bd
       0.110971175 0.17171147 0.23051135 -0.07173287
0000b0 ce 2f 30 3e 04 fd 55 3d 6f 64 af bd 20 d3 93 bd
       0.17205736 0.052243248 -0.08564078 -0.07218003
0000c0 b1 65 00 be 76 d9 ed bd 50 c2 5e be 33 5c a4 be
       -0.12538792 -0.11613743 -0.21753812 -0.32101592
0000d0 a1 59 40 bd de 80 2d be b8 17 34 be 6a ca 82 3e
       -0.046960477 -0.1694369 -0.17587173 0.25545055
0000e0 02 83 9d 3d 21 6a 07 3e 2b b1 8a 3e 8b 23 38 3e
       0.076910034 0.13224079 0.27088293 0.17982309
0000f0 eb 54 85 3e 06 b0 e9 bd d7 ea 05 3e 29 2c 9f 3c
       0.2604135 -0.11410527 0.13077866 0.019430237
000100 e7 7b 15 3e 85 69 8e be f7 9c 39 bd 38 a5 53 3e
       0.14598046 -0.2781488 -0.04531571 0.20668495
000110 86 12 78 be 4b 89 9a bd c8 28 6f be b9 12 7d 3d
       -0.24225816 -0.07545718 -0.233554 0.061785433
000120 55 b3 38 3d 0e ba e5 bd e4 5a 53 be
       0.0450929 -0.11217128 -0.20640141

st_gcns.0.tcn.2.bias f4 [5]
000000 81 31 cf 3c f9 38 82 3e 7c 2d ae 3d 68 11 9c bd
       0.02529216 0.25434092 0.08504769 -0.076205075
000010 30 13 2d bd
       -0.042254627

st_gcns.0.tcn.3.weight f4 [5]
000000 6f 48 3d 3e c1 5a 80 3e 6a e3 9f 3d b3 5b 1d 3e
       0.18484662 0.2506924 0.07807048 0.15367012
000010 f9 9a 8d 3e
       0.27657297

st_gcns.0.tcn.3.bias f4 [5]
000000 c6 3a af bd d3 74 08 3e 44 fc b4 bc f8 63 1c 3e
       -0.08556132 0.13325815 -0.022092946 0.1527251
000010 67 6b 4f 3d
       0.050639536

st_gcns.0.tcn.3.running_mean f4 [5]
000000 1d 4e be 3c b3 d2 e4 3d 35 81 2c 3e 06 08 dc be
       0.023230607 0.11173 0.16846164 -0.4297487
000010 9e 23 ff bd
       -0.12457965

st_gcns.0.tcn.3.running_var f4 [5]
000000 e9 a6 50 3d d3 8a 47 3e 66 bb b5 3d 25 3c f6 3c
       0.050940428 0.19486551 0.08873634 0.030057976
000010 b9 c7 dc 3c
       0.026950704

st_gcns.0.residual.0.weight f4 [5, 2, 1, 1]
000000 37 d7 a7 be f8 84 ac 3e bc 81 7b be e3 a8 a0 be
       -0.32781383 0.33695197 -0.24561208 -0.3137885
000010 e8 da 6d be fe 32 95 3e 87 2a 94 3e 74 ef ca be
       -0.23228037 0.29140466 0.28938696 -0.39635813
000020 0e d7 70 bc 92 3e 33 bc
       -0.0146997105 -0.010940211

st_gcns.0.residual.0.bias f4 [5]
000000 24 46 17 bf dc 7a 1d bd 5b 39 33 bf d5 10 e2 bd
       -0.590914 -0.038447246 -0.7000939 -0.11038367
000010 77 3a c8 3e
       0.39107105

st_gcns.0.residual.1.weight f4 [5]
000000 5f 82 0b 3f fa b6 81 3f 47 54 d3 3e b8 7b 92 3f
       0.54495806 1.0133965 0.41275236 1.1444006
000010 54 2c fb 3e
       0.49057257

st_gcns.0.residual.1.bias f4 [5]
000000 c6 3a af bd d3 74 08 3e 44 fc b4 bc f8 63 1c 3e
       -0.08556132 0.13325815 -0.022092946 0.1527251
000010 67 6b 4f 3d
       0.050639536

st_gcns.0.residual.1.running_mean f4 [5]
000000 10 05 14 bf 7c ac 20 bd 28 ac 30 bf 52 bc fc bd
       -0.57820225 -0.039226994 -0.6901269 -0.12340607
000010 bb 40 c8 3e
       0.39111885

st_gcns.0.residual.1.running_var f4 [5]
000000 bd 0b 17 3c e7 09 98 3b e2 92 a1 3b 45 af 01 3c
       0.009219107 0.0046398523 0.00493084 0.007915323
000010 27 a6 5e 37
       1.32709165e-05

tpcnns.0.weight f4 [12, 8, 3, 3]
000000 fb 88 71 bc 8d 99 0d be df 19 fc bd f9 1f 5f bd
       -0.014742131 -0.13828106 -0.12309622 -0.05447385
000010 86 de 17 be 45 c5 26 bd 7f 2d ab bc b8 3e 86 bd
       -0.1483098 -0.040715475 -0.020895718 -0.065549314
000020 58 6a 7c 3d c8 99 09 3d f4 ff e6 bc ff 5b e5 3c
       0.061624855 0.033593923 -0.02819822 0.027997969
000030 36 be 19 bd 66 a4 9c bd 7e c6 08 bc 2b f5 b5 bc
       -0.037534915 -0.07648544 -0.0083481055 -0.022211632
000040 32 45 0c 3c 12 4b f4 bc 59 6d d3 3c f5 22 c6 3c
       0.008561419 -0.029820953 0.025808977 0.02418659
000050 f2 78 a0 bc de a5 a7 bc ed 52 0e 3c 56 87 92 3c
       -0.019588921 -0.020464834 0.008686763 0.017886799
000060 29 9c 12 3d a7 07 ed bb b8 04 ab 3b 91 c9 b0 bb
       0.035793457 -0.0072335782 0.0052190684 -0.0053951223
000070 b2 35 a6 bd e8 cc 65 3d fb d5 24 bd 8f 38 aa 3c
       -0.0811571 0.056103617 -0.04024313 0.020778922
000080 26 ff 49 39 49 72 55 bd 11 27 44 bc 6b 8d 30 bd
       0.00019263904 -0.052110944 -0.011972205 -0.043103617
000090 35 29 fa bc a9 19 86 3e a7 34 3b 3d df a7 f9 ba
       -0.030537227 0.26191452 0.04570451 -0.0019047222
0000a0 ca 38 26 bc 33 e2 66 bd f1 9b a9 bc 86 0e 17 3e
       -0.0101453755 -0.056368064 -0.020704241 0.14751634
0000b0 1a 06 16 3d 19 a2 79 bd 60 a3 24 be d6 3a fe bd
       0.036626913 -0.060945604 -0.16077948 -0.12413566
0000c0 52 bb 1c bd 57 5a 4f bd c0 32 26 3c d3 e5 0a ba
       -0.03826458 -0.050623264 0.010143936 -0.00052985287
0000d0 68 f7 09 3c 13 89 31 bd 76 03 12 bd 5f 2d 5d bd
       0.008420803 -0.043343615 -0.03564783 -0.053998347
0000e0 f7 34 99 3d 15 45 30 ba 34 76 ac 3b cf 7c d5 3c
       0.07480805 -0.0006724161 0.0052631143 0.02606049
0000f0 fb a7 9a bd c3 4b 65 bd 39 d3 80 3c c8 6e e5 bc
       -0.07551571 -0.055980455 0.015725719 -0.028006926
000100 f4 26 73 3d 13 1f 85 3d e8 91 a8 bd 0e 9c d6 bd
       0.05936332 0.065000676 -0.082309544 -0.10478984
000110 c8 74 1e bc db 56 33 3d e1 4f 7a 3d 22 da d2 3b
       -0.0096713975 0.043784004 0.061111335 0.006434695
000120 c4 af 24 3d ee 32 15 bd bc 47 d1 3c 45 18 d0 3c
       0.040206686 -0.036425523 0.0255469 0.025402198
000130 b8 95 0a be 40 37 c1 bd 6d a1 f5 3d 9f 89 44 3e
       -0.13533676 -0.09434366 0.1199368 0.19193123
000140 e9 7c ca 3d 37 48 ab bc af 86 9e bc 13 bf 0d 3d
       0.09887106 -0.020908458 -0.019351332 0.03460605
000150 66 89 e8 bd ee 26 86 be 72 35 14 be e8 e7 11 be
       -0.11354332 -0.26201576 -0.14473513 -0.14248621
000160 ac 03 8c 3c 04 3c fd bc f1 8a 5b 3d 0a 7f 06 3d
       0.017091595 -0.030912407 0.0535993 0.032835998
000170 9c f4 26 3d 13 54 85 bd 9f 5b 62 3d 9d 67 d3 3c
       0.04076062 -0.065101765 0.055263158 0.025806243
000180 f9 d6 b4 3d 0f 4a e3 3d fc 06 d5 3d c7 e7 a6 3d
       0.08830065 0.1109811 0.10401723 0.08149677
000190 b2 36 69 3e 53 d7 55 bd b3 cb 85 3d 43 93 db 3c
       0.22774771 -0.052207302 0.06532993 0.026803618
0001a0 d4 a0 36 bd df 7f 8d bd c5 4a 10 be 8c a9 0a be
       -0.04458697 -0.06909155 -0.14091022 -0.1354124
0001b0 3b dc ad 3c 8a e3 f8 3d e1 43 c5 bc 37 68 6b bd
       0.021223178 0.12152775 -0.024080219 -0.057472434
0001c0 0e e9 1a bd 9f ac dc bd 86 1d 94 bd c9 ff f8 3d
       -0.037819915 -0.10775112 -0.07232194 0.12158162
0001d0 fc 77 37 3e 11 e1 e3 bc b1 9a f6 bd 5d 80 65 bd
       0.17916864 -0.027817281 -0.12041224 -0.05603062
0001e0 99 07 41 3c 73 f5 80 3c d6 eb 4e bb 14 ee f7 3c
       0.011781597 0.01574204 -0.0031573675 0.030264892
0001f0 ea 91 e3 3c 33 81 14 3e ac 12 1c 3d 14 26 09 be
       0.027779538 0.1450241 0.038103744 -0.13393432
000200 7e c0 09 be a1 a9 67 bd c5 55 f8 bd af e3 6f bd
       -0.13452336 -0.056558255 -0.12125734 -0.058566745
000210 af 97 3d bd f1 43 15 be 72 01 9e bd b3 c5 16 bc
       -0.046287235 -0.14576699 -0.077151194 -0.009202409
000220 44 c1 93 3d ee 64 96 bc 14 82 3a bd 9c 52 c2 bd
       0.07214597 -0.018358674 -0.04553421 -0.09488413
000230 a5 e6 64 bd 14 1f 09 3e 3a 33 d1 3d b5 ac 4f 3e
       -0.055884022 0.13390762 0.10214849 0.20280726
000240 d6 2d 8b bb 4c 4a 17 3c cc 55 d1 ba c8 33 9b 3c
       -0.0042474074 0.009234022 -0.0015971004 0.01894559
000250 29 e2 95 3d 16 43 af bb a3 50 da bc ce d5 a6 3d
       0.07318527 -0.0053485734 -0.026649779 0.08146249
000260 30 08 9a 3c df 8c 7b bc 00 a9 bd bd 25 9e 24 bd
       0.018802732 -0.0153534105 -0.0926075 -0.04018988
000270 3e fb 28 bc 3f 81 bd bd 3e 17 a9 bc 75 04 cb 3d
       -0.010313807 -0.09253167 -0.020640966 0.099129595
000280 0e e9 dc 3d 5a cc 79 3c f6 1a 98 ba d5 8c b8 3c
       0.10786639 0.015246475 -0.0011604715 0.022528091
000290 f1 e8 27 3d 6b f9 15 bd 50 18 22 bd 48 3c c6 bc
       0.040993635 -0.036614817 -0.039573967 -0.024198666
0002a0 59 73 c2 3c e9 1f cc bc 5c 6e bb 3c ee ce 92 bd
       0.023736643 -0.02491756 0.022879772 -0.07168375
0002b0 0a cb a2 bc 16 98 3e 3d 15 d3 7e bd 1a 4c 85 bd
       -0.019872207 0.04653176 -0.062213022 -0.06508656
0002c0 6d e2 e6 bd e3 78 94 bc bd 35 bf 3d 50 da aa bd
       -0.11273656 -0.01812405 0.09336422 -0.08342421
0002d0 12 18 76 bd 05 8d 6b bd b1 c8 26 be 42 ae 33 bd
       -0.06008155 -0.057507534 -0.16287495 -0.043867357
0002e0 a3 b7 c6 bc 5c 52 f7 bd fe 93 25 bd 8f 8a 20 bd
       -0.024257487 -0.12076256 -0.04042434 -0.03919464
0002f0 fb 39 c4 bd 55 81 c3 bd ad 55 bb bd 0b 7f 36 bc
       -0.095813714 -0.095461525 -0.09147201 -0.011138688
000300 f8 bc 19 3d 57 0d 07 bd 7f 9a e0 bc 30 fe 68 3c
       0.03753373 -0.032971706 -0.02741742 0.014220759
000310 dc 42 cc 3c f2 72 89 3c 33 83 01 3a a3 b7 2c 3d
       0.024934225 0.016778443 0.00049405097 0.042167317
000320 88 6e 0b 3e 52 6b 95 3d 9b 6c c3 bd e3 53 a9 bb
       0.13616383 0.0729586 -0.09542199 -0.005167471
000330 20 09 86 3d 74 f2 12 bc cb d0 4d 3d 5f 18 37 3b
       0.06544709 -0.008968938 0.05024795 0.002793811
000340 ed 62 fc bc fe 84 d3 3d a7 8e 01 3d a4 04 00 be
       -0.03080889 0.103281006 0.031630185 -0.1250177
000350 95 16 0c be b1 2c 72 3c 4b 67 ad 3d 6b df 12 bc
       -0.1368049 0.014781163 0.08466967 -0.0089644
000360 87 59 f9 3c 11 1a 14 bc 9f 4c 8e bc 92 9a 85 bd
       0.030438198 -0.009039418 -0.01737052 -0.065236226
000370 8b b5 75 bd 76 8f 83 bd 72 50 05 3d 01 ce 82 bd
       -0.059987586 -0.064238474 0.03254742 -0.063869484
000380 17 d9 97 3c d5 e8 41 3e 23 f4 52 3e 63 c0 21 3c
       0.018536134 0.18936475 0.20600943 0.009872529
000390 80 f9 d8 bb a5 43 d4 bd f3 6c d8 bc a1 c1 a2 3d
       -0.0066215396 -0.10364465 -0.026419139 0.07947088
0003a0 20 a4 b7 3d a5 3f 04 3d 37 a0 35 bd f5 6d 70 3d
       0.08966851 0.03228726 -0.044342246 0.058698613
0003b0 0f 2e 02 bd e7 36 75 bb a4 90 1d bd 07 26 e2 bb
       -0.031782206 -0.0037416758 -0.03846802 -0.006901506
0003c0 42 96 a2 bc e3 43 2e ba fd fa 16 bd d0 66 3b bd
       -0.01984704 -0.0006647689 -0.036860455 -0.045752347
0003d0 0d 7d c5 bd 35 ca d3 3c 37 da 4b 3c c4 05 ca bd
       -0.09642992 0.025853256 0.012442163 -0.09864381
0003e0 e6 47 60 bc 53 11 f4 3c c3 3a 30 3d 1e 51 27 3c
       -0.013689017 0.029793417 0.04302479 0.010212211
0003f0 c3 62 d2 bd 3b e1 a0 bd f5 e1 52 3a 6c 33 99 bd
       -0.102727436 -0.07855459 0.00080445345 -0.07480511

tpcnns.0.bias f4 [12]
000000 16 9a 5c 3e 7f 18 c2 bb 73 de 0d be 75 16 70 3e
       0.21543154 -0.0059233303 -0.13854389 0.23446067
000010 a3 36 80 bd 0c 45 46 3d ab 9f 67 3e e4 71 34 3e
       -0.06260421 0.048405692 0.22619502 0.17621571
000020 b3 73 64 bd df 85 e6 bc e9 9b be 3d 1b e7 56 3d
       -0.055774402 -0.028140007 0.09307081 0.052466493

tpcnns.1.weight f4 [12, 12, 3, 3]
000000 b2 80 0e 3d 29 e9 67 3d d2 aa b0 bd 33 dc 09 be
       0.034790702 0.056618843 -0.086263314 -0.13462906
000010 42 f1 62 3c 01 7d f0 bd c9 98 25 bd 1c 79 7b 3d
       0.013851466 -0.117425926 -0.04042891 0.061394796
000020 4d e1 df bd 20 24 2b bd 43 52 94 bb 54 78 73 3c
       -0.109316446 -0.0417825 -0.004526408 0.014860231
000030 76 5f cf bc f0 b3 28 bd 1d 92 c4 bd e0 9e a5 3d
       -0.025314074 -0.041187227 -0.095981814 0.080869436
000040 f9 57 c6 bd 96 fc d4 3c 56 16 00 be 08 10 c6 bd
       -0.09684748 0.025999349 -0.1250852 -0.096710265
000050 57 06 b8 bc 80 c0 40 bd d5 4e 28 bd 01 fd 99 bd
       -0.02246396 -0.047058582 -0.041090805 -0.0751896
000060 03 41 4d bd 0c cd 48 bc 71 4e e1 3c ca 4e ca 3c
       -0.050110828 -0.012255918 0.027503224 0.024695773
000070 a2 c1 4a 3d e5 bf 97 3d 25 79 6c 3d e9 07 99 bd
       0.04950107 0.07409648 0.05773272 -0.07472212
000080 73 b6 af bd 92 9f f1 bb d7 88 e7 bd 09 59 77 bc
       -0.08579721 -0.0073737586 -0.11305397 -0.015096911
000090 97 1b b9 bd 7a 0d 22 bd db 30 09 bd 23 a3 73 bd
       -0.090384655 -0.039563634 -0.033493858 -0.05948175
0000a0 a7 18 9d 3d 51 8f 7b bd e3 3a c2 3d b6 f8 ad bd
       0.07670718 -0.061415974 0.09483888 -0.084947035
0000b0 28 04 45 3b 9a 8b 62 3d 7d 7d 65 3d 25 71 cf 3d
       0.0030062292 0.055308916 0.056027878 0.101290025
0000c0 72 24 90 3d d4 43 aa 3c 51 e1 d8 bd 41 49 38 bd
       0.070382014 0.020784296 -0.10589851 -0.044991735
0000d0 d6 78 d4 bd 88 a3 5c 3c 11 d9 26 3d ba b2 ba 3d
       -0.1037461 0.013466723 0.040734354 0.09116121
0000e0 e0 ae cc bb e2 d4 75 bd a7 a2 0e be 7c 7b 49 bd
       -0.0062464327 -0.060017474 -0.13929234 -0.04919003
0000f0 ce 16 b4 bd 41 97 3c 3d 46 ff 08 bd bf ec 4a 3d
       -0.08793412 0.046042684 -0.033446573 0.049542185
000100 4d 40 57 3d d1 dd cd 3d dd fb 83 bd 2d e4 af 3d
       0.052551556 0.10052074 -0.064445235 0.08588443
000110 09 d8 aa bd 70 00 b2 bc f2 10 ba 3d 95 83 9f 3d
       -0.08341987 -0.021728724 0.09085263 0.07788769
000120 6f f2 14 bc 72 20 bd bd ac e1 16 3b fd a4 88 bd
       -0.009091004 -0.09234704 0.0023022695 -0.06672094
000130 12 3f f4 3c eb dd 20 3d 21 1e e5 bd be 28 14 bd
       0.02981523 0.039274137 -0.11187387 -0.036171667
000140 1a db a8 3d fa 7b 72 3d a3 0b 2a bd 71 0f 12 3d
       0.08244915 0.059200265 -0.041515004 0.035659257
000150 98 0a 50 3d 9a f3 a1 bc f2 49 6a 3d 8f 5d 00 bc
       0.050791353 -0.019769479 0.057199426 -0.007834806
000160 e7 f9 88 bd f8 d5 95 3d c5 1b 9d bd af be 6f 3d
       -0.0668829 0.07316202 -0.07671312 0.05853146
000170 30 bb ed bd ae 54 99 bd 43 ea aa 3d 68 88 6b bd
       -0.11607969 -0.074868545 0.08345463 -0.057503134
000180 4c f6 4e bd 75 8f 36 bc 29 d9 2b 3d b3 1f c1 bc
       -0.050527856 -0.011142601 0.041955147 -0.023574686
000190 f9 1f 26 3d 68 e3 b6 bd c9 58 a5 bd 85 25 b6 bd
       0.040557835 -0.08930093 -0.08073575 -0.08893875
0001a0 47 3b dd bd 1e c6 99 bc cb e5 57 3d 10 87 b0 bc
       -0.10802322 -0.018771227 0.052709382 -0.021548778
0001b0 c5 cf 05 be aa 37 f0 3d 0b b6 e7 3c 4f a5 87 bd
       -0.13067539 0.11729367 0.028285047 -0.06623327
0001c0 29 07 c5 bc 3d 2b 28 bc b5 16 03 bd 19 0c 0f 3e
       -0.024051266 -0.010264215 -0.032004077 0.13969459
0001d0 7c a2 c9 3d 9b 1d d0 bc 53 e7 6e 3d c6 7d a0 3c
       0.098454446 -0.025404742 0.058326077 0.019591223
0001e0 7c 14 2b bd 4e 35 ff ba 3b 1c 39 3d bc c8 c0 bd
       -0.041767582 -0.0019470842 0.04519294 -0.09413287
0001f0 4b e0 b2 3d 04 3a 28 bb a1 ce 41 3d a3 e1 2a bd
       0.08734187 -0.0025669346 0.047316197 -0.04171909
000200 c4 32 a6 bd 88 c6 a1 3d 4c 77 57 bd d0 1f 6a bb
       -0.081151515 0.07899195 -0.052604005 -0.0035724528
000210 dd 8d 02 3d f0 e2 f0 bb f2 1a b7 3c ba 39 12 bd
       0.031873573 -0.007351272 0.022351716 -0.035699584
000220 65 2d 90 bd 24 7a 31 3d 6d 55 ac bd a2 2d 22 3c
       -0.07039908 0.043329373 -0.08414731 0.009898575
000230 65 9b 85 bd 67 35 53 bd e8 f1 e4 ba bc 6b d0 bd
       -0.0652378 -0.0515646 -0.0017467113 -0.10176799
000240 6c f0 3d 3c fe 56 2e 3c 8f 5d aa 3d 52 34 c2 3d
       0.011592966 0.010640858 0.08318626 0.094826356
000250 4e 1f bb 3d 18 b0 41 bd 6e 61 07 bc 03 80 ea 3d
       0.0913683 -0.047287077 -0.008262975 0.114501975
000260 af 61 c1 bd f4 20 4f 3d 0d 65 97 bd 85 0b 81 bc
       -0.0944246 0.050568536 -0.07392321 -0.015752563
000270 7a 99 23 3c e8 a3 fe bc b2 8d 22 3d d3 93 97 bd
       0.009985322 -0.031084016 0.039685912 -0.07401242
000280 68 c2 88 bd 84 71 17 bd 3d c8 60 bd 63 74 01 3c
       -0.06677705 -0.03697349 -0.054878462 0.007901284
000290 e9 a1 01 bd b3 c9 8b bc 42 54 74 ba dc 28 b3 bc
       -0.03164855 -0.017063951 -0.0009320417 -0.02187007
0002a0 44 1d 23 bd e6 4b b1 bd 3e 11 c9 bc 67 46 05 3d
       -0.03982283 -0.086570546 -0.024544355 0.032537844
0002b0 e6 96 9e 3d ac 7b 0f bd 7e 3a 62 bd ba 55 58 bc
       0.07743625 -0.035030052 -0.055231564 -0.013204033
0002c0 62 03 5e 3d 90 cf 89 bc 43 c9 79 bd 97 c5 e1 3b
       0.054202445 -0.016822606 -0.060982954 0.0068900096
0002d0 d0 cf ad 3d 92 f1 bf 3c e8 28 13 bc 69 44 34 bd
       0.08486903 0.02343062 -0.008981921 -0.044010554
0002e0 71 21 ce 3d 95 b6 6e 3d 05 ba e8 3d 3e 46 a1 3d
       0.10064972 0.058279593 0.113636054 0.07874726
0002f0 bb 66 63 bb ed 1c 25 bd 81 14 4c bd 7d a9 87 bd
       -0.0034698683 -0.04031079 -0.04982424 -0.06624124
000300 53 c5 51 bd 64 ff 77 3d 12 0c 99 3d 4e 68 2b 3b
       -0.051213574 0.060546294 0.07473005 0.00261547
000310 08 b9 9a 3d 6c 45 05 3b cd 17 8c bc 9a a4 23 bd
       0.07554823 0.0020335568 -0.017101193 -0.0399519
000320 ca a9 ad bd f9 93 b4 bd bc 88 6a bd 98 32 11 bd
       -0.0847965 -0.08817286 -0.057259306 -0.03544864
000330 8a 31 78 3c c3 df b3 3c db 50 0a bd 3c 64 48 3d
       0.01514853 0.021957284 -0.033768516 0.048923716
000340 58 5e 4b bd f3 b3 ad bd 04 cc c8 3d 6a 28 df 3c
       -0.04965052 -0.08481588 0.09804538 0.02724095
000350 14 dc 06 3d 67 a8 95 3d bb 73 af bd a8 27 60 bd
       0.032924727 0.07307511 -0.08566996 -0.05472532
000360 96 ef df bd 84 2a 1d 39 24 5d 2a 3d b1 87 11 3d
       -0.10934369 0.00014988525 0.041592732 0.035529796
000370 68 fa 83 3a 6c 38 50 3d 8e d0 54 bd a5 d8 ad 3d
       0.0010069134 0.050835058 -0.051956706 0.08488587
000380 30 e6 89 3b 1f f1 7e bd 1e 3d f7 bd 5e f8 76 bd
       0.0042083487 -0.06224167 -0.12072204 -0.060295455
000390 ed 31 49 bc 59 05 c7 38 cf 3b 4c 3d e7 40 0b bd
       -0.01227997 9.4900555e-05 0.049861725 -0.033997443
0003a0 b4 d9 13 3d 42 76 8b 3d ce 4a 4b bd 02 09 8b bd
       0.03609629 0.06809665 -0.049631886 -0.067888275
0003b0 04 81 55 bd 82 ae ad 3d e3 d4 67 3c 7d 63 94 3d
       -0.052124992 0.0848055 0.014149877 0.072455384
0003c0 03 36 a5 bd c6 dc 85 3c 15 9b a2 3b d9 c2 84 3d
       -0.080669425 0.016340625 0.004962335 0.06482477
0003d0 ac 2c 74 bd 11 02 e5 3c 55 38 72 3c d7 f4 67 3d
       -0.059612915 0.027955087 0.014783938 0.05662998
0003e0 f6 5b eb 3c 91 64 01 3d a5 61 cb bc 6b 86 da bc
       0.028730374 0.03159005 -0.024826834 -0.026675424
0003f0 6f 97 7c 3d 2d e4 50 bd a8 0e 91 3d f5 65 77 3c
       0.061667856 -0.050998855 0.070828736 0.015099992

tpcnns.1.bias f4 [12]
000000 a7 9b 83 3c 6e b1 56 bd 51 c1 57 be 37 25 31 3e
       0.016065432 -0.052415304 -0.21069838 0.17299353
000010 18 76 ca 3c 02 75 99 bb 08 fc d9 3e 38 a9 04 3e
       0.024714515 -0.004683138 0.42575097 0.12955177
000020 34 68 6d bc b4 99 c1 3d cc 91 05 3e f3 b7 a0 bc
       -0.014490176 0.09453145 0.13043898 -0.019618964

tpcnns.2.weight f4 [12, 12, 3, 3]
000000 43 eb a1 bd 51 5c 23 bd c0 fe 6a 3d 75 98 47 3d
       -0.07906201 -0.03988296 0.057371855 0.04872938
000010 4d 20 f1 bd 58 8a 6b 3d ac 26 20 bc fb 89 66 bb
       -0.11773739 0.05750498 -0.009774845 -0.0035177458
000020 4c 4d a1 bd 68 51 9c 3d e9 a3 81 bd 13 95 c4 bd
       -0.07876071 0.076327145 -0.063300915 -0.09598746
000030 f2 a0 07 3d ad d9 1f bc 26 24 21 bd cf df cc 3c
       0.033112474 -0.009756488 -0.039341114 0.025009064
000040 9f 55 a8 bd da 7e 88 3d 2b 3a 5a 3d 06 74 c7 3c
       -0.08219456 0.0666482 0.05327813 0.024347316
000050 68 16 b4 3b da ae 18 3a 9e 18 67 bd 6f e3 b4 3d
       0.005495835 0.0005824395 -0.05641996 0.08832442
000060 fa ef d9 bc e9 ea 74 bd 05 cc c9 3d 6d e2 1a 3d
       -0.026603688 -0.05979434 0.09853367 0.037813593
000070 67 35 07 bc 7e 71 dc bc 0e f1 58 3d 6d 50 9c bd
       -0.008252478 -0.026909586 0.052964263 -0.076325275
000080 69 2b 60 3d e0 4d c7 3c c9 40 73 3d a6 75 38 bd
       0.0547289 0.024329126 0.059387956 -0.045034073
000090 50 1b 1f 3a be 7d 85 bd ad 59 8a bd 06 57 81 3d
       0.00060694385 -0.06518124 -0.067553855 0.063154265
0000a0 a1 a5 c5 bd 7a 4c 05 3d da 68 1b bc 93 34 f7 bc
       -0.09650732 0.032543637 -0.009485448 -0.030176437
0000b0 82 e1 ad bd 52 c1 9e 3d 67 bf d1 bc 5b 74 47 bd
       -0.08490278 0.07751717 -0.025603963 -0.04869495
0000c0 70 28 19 3d a2 86 92 bc 86 d9 8c bd cb 58 98 bd
       0.03739208 -0.017886464 -0.06877427 -0.07438811
0000d0 0d 26 8c 3c 4a f3 e3 3c 21 1d c1 bd f1 7b a3 bc
       0.017107988 0.02782597 -0.09429384 -0.01995656
0000e0 5b a9 93 bd cb 61 89 bd d3 83 05 be ac 04 d7 bd
       -0.07210036 -0.06708106 -0.13038568 -0.10498938
0000f0 79 e5 82 3c d4 b1 e6 bd bc 1c 72 3d 50 95 b5 3d
       0.015978562 -0.11264387 0.059109434 0.0886637
000100 90 24 b1 3d 54 e2 24 bd 7c dc 3a bd c2 5f 8b 3d
       0.08649552 -0.040254906 -0.045620427 0.06805374
000110 b6 08 94 3c 03 2e 8c 3d 67 e7 55 bc 09 2a 0f bc
       0.01807056 0.068447135 -0.013055659 -0.008738049
000120 8d 91 6e bc b8 08 28 3d d9 40 9a bc cf 51 1d bd
       -0.014561069 0.04102394 -0.01882975 -0.038408097
000130 cb b5 7e 3d ff 27 ca bc a6 b2 34 3d 73 b5 ca bd
       0.06218509 -0.024677275 0.044115685 -0.0989789
000140 64 44 68 3d 71 36 a8 3d d9 8e 13 3d 40 1c 95 3d
       0.056705847 0.08213509 0.036024902 0.07280779
000150 aa 41 94 3b 6d a4 88 bd e9 b6 4d 3d 33 4d c2 ba
       0.0045244293 -0.06671987 0.050223265 -0.0014824033
000160 d9 bc 8d 3c 03 33 23 3d a9 c2 74 3c d1 f7 48 bd
       0.017301964 0.03984357 0.014938989 -0.04906446
000170 20 f0 20 bc 66 2e 46 bd 24 ef c6 bd 7f f9 ae bd
       -0.009822875 -0.048384093 -0.09713581 -0.08543681
000180 f8 72 94 3d 3e 55 a0 3d db 95 7f bd ef c1 bf 3c
       0.07248491 0.07828759 -0.062398773 0.023407904
000190 38 98 55 bd f9 dc 65 3d f7 91 83 bd fe f2 2f 3d
       -0.05214712 0.05611894 -0.06424325 0.042956345
0001a0 28 e5 9c bd b2 0c 38 bd ab f6 4d 3d 7f 2e 88 bc
       -0.076608956 -0.044933982 0.05028407 -0.016623734
0001b0 7e 42 ae bd 6b d3 9d 3c 70 14 81 bd 06 14 a0 bd
       -0.08508776 0.019265851 -0.06302726 -0.07816319
0001c0 16 dc e7 39 25 b9 3e 3c fa 11 26 bd 34 75 74 3c
       0.0004422373 0.011640822 -0.040544488 0.0149205215
0001d0 b4 eb a9 bd 64 3a af bd d3 46 12 bd dc 76 67 3d
       -0.0829691 -0.08556059 -0.035712074 0.056509838
0001e0 1c 57 4f bd 14 3d 02 bd 03 1e 9f bd 29 cf 26 bc
       -0.050620183 -0.03179653 -0.07769396 -0.010181227
0001f0 f7 b3 a2 3d 3e c8 89 bd 3f c1 7a bc 38 ce dc bd
       0.07944482 -0.06727646 -0.0153048625 -0.107815206
000200 be a1 86 bd ed 38 4c 3c d5 0c 4b bd 18 99 a9 3c
       -0.065738186 0.012464744 -0.049572784 0.020702884
000210 d9 85 6e 3d c1 67 83 3d 3f 3c 8a 3d 16 cf e4 bc
       0.058233116 0.06416274 0.06749772 -0.027930778
000220 28 34 44 bd d4 a6 5b bd 04 79 13 bd 05 99 8f bc
       -0.047901303 -0.053625897 -0.03600408 -0.01752902
000230 74 39 f3 3c ea d8 d7 bc 45 e3 9b bd 86 e6 b4 bd
       0.029690482 -0.02634855 -0.076117076 -0.08833031
000240 11 e9 a0 3c a0 26 93 bd 7b 43 36 3d 4d 47 5f bd
       0.019642385 -0.071851015 0.04449795 -0.054511357
000250 dd 93 c1 bc 93 79 a1 bd 0e c8 62 3d 60 6c 8c bd
       -0.023630077 -0.078845166 0.05536657 -0.068566084
000260 ca c9 42 bd 65 b2 78 3d c7 f4 0a bd 32 93 1c 3d
       -0.047555722 0.060717005 -0.033924844 0.038226314
000270 8f 36 4d bd 4b 91 98 bb 67 fd d6 3d 4d e6 75 bc
       -0.05010086 -0.004655992 0.104975514 -0.015008521
000280 ee 32 c6 3c 9e 17 59 3d 34 b0 a8 3c d9 f1 25 bd
       0.024194207 0.05300104 0.020591833 -0.040513847
000290 42 99 53 3d 9f 40 b4 bd b5 7e b4 bd b3 85 16 bd
       0.05165983 -0.08801388 -0.0881323 -0.0367486
0002a0 5c 5a 51 3d 17 66 69 bd 8a b7 50 bc a2 aa 8e bc
       0.051111564 -0.056982126 -0.012739072 -0.017415348
0002b0 dc 2f 9a bd 74 94 00 bd fc c6 40 3c 23 a2 89 bd
       -0.0752866 -0.031391576 0.011766192 -0.06720378
0002c0 a8 08 3e 3d e3 5a 05 3d c6 10 44 3c 58 0a 90 bc
       0.046394974 0.03255738 0.01196689 -0.017583057
0002d0 6a ac 78 3d 11 42 00 3d 59 b4 b4 3c b0 90 9c bd
       0.060711302 0.031313006 0.022058653 -0.076447845
0002e0 b9 84 a7 3d c9 5e c3 3d 49 26 ba bd a6 76 f0 bc
       0.08179612 0.09539563 -0.090893336 -0.029353451
0002f0 f7 d3 87 bd 1f 75 de 3c f9 e6 c6 bd 3e 49 53 bd
       -0.06632226 0.027155457 -0.09712023 -0.05158352
000300 b8 5f 51 bd 4c c7 62 3d 31 62 ba bc 1d 70 c2 ba
       -0.051116675 0.055365846 -0.0227519 -0.0014834438
000310 22 08 16 3d 75 f8 e4 bd d8 cd 0b bd 2b 7b ce 3c
       0.03662885 -0.11180202 -0.034131855 0.025205215
000320 39 fe b6 3a f9 88 82 bd b2 32 8a 3d 2c 2a 9f bd
       0.0013961262 -0.06373782 0.067479506 -0.077717155
000330 84 86 9a bb a3 fa d2 3c c0 59 b9 3d 20 51 94 3d
       -0.0047157425 0.025754279 0.090503216 0.07242036
000340 05 92 c7 3d 85 f3 d3 3d 2b 1d 57 bd 15 29 81 3d
       0.09744648 0.10349182 -0.05251805 0.06306664
000350 4a 05 6e 3c 9e 08 b0 bd 48 9b da 3c bd f7 b4 3c
       0.014527628 -0.085953936 0.026685372 0.022090787
000360 8b 60 0f bd 8b fa 87 3d 1b 64 98 bb be eb 8c 3b
       -0.03500418 0.06639584 -0.0046506054 0.0043005636
000370 bb 75 8d bd f7 99 4a bd ab cd 81 3d 67 7f e2 3d
       -0.06907221 -0.04946324 0.06338056 0.11059456
000380 57 e6 dd 3c b1 d8 1a bd 05 5a cb bd 57 94 65 3d
       0.027087374 -0.03780431 -0.09929279 0.05604967
000390 f3 13 2a 3d a6 1e e8 bc 72 b0 ab bd 96 3b 8b 3d
       0.04152293 -0.028334927 -0.08383264 0.067984745
0003a0 9c 83 02 3c 99 4f 45 3d 8b ef 79 bb 90 02 79 bc
       0.007965948 0.048171613 -0.0038137164 -0.015198365
0003b0 e1 ba 83 bd 29 54 12 3d a0 0e af bd fd 55 ed bc
       -0.06432129 0.035724793 -0.08547711 -0.028971666
0003c0 6f 0d cf bd 5b a3 5e 3d ac e0 86 bd 95 fa 8a ba
       -0.10109984 0.054355007 -0.065858215 -0.0010603244
0003d0 5f 22 1e 3e 95 a3 c2 3d 0d bb af bd 9a f2 0d bd
       0.15442799 0.09503857 -0.08580599 -0.03465519
0003e0 dd 12 26 bd 91 41 3a bd 2d 30 cc 3d a5 e2 27 3c
       -0.040545333 -0.045472685 0.09970126 0.010246907
0003f0 59 8c 9f bc 8a 74 94 3d a8 b6 13 3c 22 03 c3 bb
       -0.019476103 0.072487906 0.009015717 -0.005951301

tpcnns.2.bias f4 [12]
000000 f4 18 b4 bd 97 54 37 bd 0a c1 e1 3d e0 32 8f 3e
       -0.08793822 -0.044758406 0.110231474 0.27968502
000010 66 49 c8 bc 1e 6b a9 3d 3f e7 84 3e 1a e2 cc bd
       -0.024449062 0.08272384 0.25957677 -0.10004063
000020 ca 88 78 3d 2b f8 81 bd 57 1b c8 bd fd ec 17 bd
       0.060677327 -0.063461624 -0.0977084 -0.037091244

tpcnns.3.weight f4 [12, 12, 3, 3]
000000 91 49 0b 3d b0 84 c1 3d bb 86 61 3c c7 85 03 be
       0.034005705 0.09449136 0.013765032 -0.12844001
000010 06 73 4a be a2 7a 3a bd d7 84 ff bc 04 31 08 3e
       -0.1977044 -0.045527108 -0.031191273 0.13299948
000020 50 70 51 3d 0a 54 d3 b9 75 05 b4 3d 14 78 b1 3c
       0.0511325 -0.0004030767 0.08790103 0.021663703
000030 86 12 02 bd 0c d4 37 3d b3 08 39 bc a4 13 29 3d
       -0.031755947 0.044879958 -0.011293578 0.041278496
000040 74 e3 83 3c af 0c 21 bc cb 4b 22 be 17 79 5f bd
       0.016099669 -0.009829684 -0.15849225 -0.05455884
000050 64 c8 7a bd 66 d7 84 3d c5 8d ff bc 84 d0 85 3d
       -0.061226264 0.064863965 -0.03119553 0.06533912
000060 cc 54 18 3d ff be 62 3d f6 a7 9b 3c 91 10 d2 3d
       0.037190244 0.05535793 0.019000988 0.10257066
000070 aa 68 df bc b3 fb fd 3b ae a0 13 bd 4a 56 ff bc
       -0.027271587 0.007750952 -0.036041908 -0.031169076
000080 60 81 d9 3c 91 6a 11 bb e6 23 87 bd 5b f8 75 39
       0.026550949 -0.0022188763 -0.06598644 0.0002345754
000090 43 b4 85 bd ec 5d bd bd f2 27 d1 bd e5 65 9c 3c
       -0.06528523 -0.0924643 -0.10212697 0.019091556
0000a0 5c 02 9a bd 65 6d 4f 3d 85 d6 a5 bc 7a 3c 52 3e
       -0.07519981 0.050641436 -0.020243892 0.20530882
0000b0 6c 18 e4 bb d5 ce 5d 3d df 4d 1e bd 9e fc 0b 3d
       -0.006960919 0.05415233 -0.038648482 0.03417646
0000c0 7c bb 21 bc c9 ab 0e bd cb a7 e1 3d 81 6b 23 3d
       -0.00987136 -0.034831796 0.11018332 0.039897446
0000d0 99 40 18 be 4a 80 69 bd f7 51 0a 3e 75 8e ab 3d
       -0.14868392 -0.05700711 0.1350783 0.08376781
0000e0 36 77 12 3e 30 45 4a be c6 b9 35 be 1c 6b 20 bd
       0.14303288 -0.19752955 -0.17746648 -0.039164647
0000f0 0d 90 3c 3d d2 1a f5 3d 41 97 eb 3c c7 86 c8 3d
       0.046035815 0.11968006 0.028758647 0.09791332
000100 d9 82 d2 bd 17 e8 94 3c 46 17 7d bc 29 42 d7 bd
       -0.102788635 0.018177075 -0.015447443 -0.10510666
000110 4e aa 92 bd 63 1f 52 bc af 39 9f 3c 5b 07 01 3e
       -0.07161389 -0.012824866 0.019436685 0.12600462
000120 1b 58 87 3d 78 90 34 3d 50 13 9b 3d 87 98 b3 bb
       0.06608602 0.04408309 0.07572043 -0.005480829
000130 10 b2 c3 bd 73 88 e1 bc 33 2d a9 bc c4 eb fa 3b
       -0.09555447 -0.027530884 -0.020651435 0.0076575
000140 fe 0b af 3d d0 5d 1e bd be 88 cd 3d 12 9e ce 3d
       0.08547209 -0.038663685 0.10035847 0.10088743
000150 99 71 f1 bc d3 b3 a3 bc 91 f9 c1 3c 5c 12 89 bd
       -0.029473113 -0.019983208 0.023678573 -0.06692955
000160 2a 45 7e 3d 41 95 18 bd bc db b2 bd 68 f4 59 3b
       0.06207768 -0.037251715 -0.08733317 0.003325725
000170 06 3e 92 bb 41 5d 1c bd 11 4e 6f bd 9d b6 56 bd
       -0.00446296 -0.03817487 -0.05842406 -0.052420247
000180 4f 79 bc 3d 51 3a e5 3d 72 b9 2c 3d 9c d8 ac 3d
       0.09202825 0.111927636 0.042169042 0.084397525
000190 f5 02 9e bc 62 da d0 3c c3 51 1b 3d 68 75 10 bd
       -0.01928852 0.025494758 0.03791977 -0.035268217
0001a0 8f d6 49 3d e4 f5 8e 3b 35 21 c8 bd 95 10 a3 bd
       0.049276885 0.0043628085 -0.09771959 -0.07962147
0001b0 1a b7 9c bd 64 88 bb bd 14 72 f6 3c 93 13 f0 bd
       -0.07652111 -0.09156874 0.030083694 -0.117224835
0001c0 57 00 b3 3d 59 7d 09 3c 22 13 9d 3d 5b 16 b6 bd
       0.08740299 0.008391702 0.07669665 -0.08890983
0001d0 60 88 14 ba e2 ad d7 bc fd d9 c4 bc 61 d5 c8 3c
       -0.00056660734 -0.026328031 -0.024029726 0.02451581
0001e0 46 ac b0 bd 13 55 33 3d 66 7f 8d 3c 06 41 78 3d
       -0.086266086 0.043782305 0.017272662 0.060608886
0001f0 44 d7 45 3b b7 0f 3f 3d 59 e6 57 bd da 46 8e bd
       0.0030188123 0.046645846 -0.05270991 -0.069471076
000200 a3 41 d5 3c 4d 18 bd bd 03 f2 ec 3c fe 48 9c bd
       0.026032275 -0.09233151 0.028923994 -0.0763111
000210 15 d6 49 3d fe 7d a7 3d 2d 4c 07 3d 4d c1 e9 3c
       0.04927643 0.08178328 0.03303163 0.028534556
000220 83 63 df bd 3b ac c1 bc 04 75 03 3d a4 d7 6d 3d
       -0.10907652 -0.023641696 0.032094017 0.05806698
000230 9d 12 ad 3d 80 d6 88 3c d6 b1 b1 bd c7 2a dd bd
       0.08450816 0.016703844 -0.08676498 -0.10799175
000240 42 97 aa 3d aa 71 d9 3c 6e f2 9b bd 84 7b cc bc
       0.083296314 0.026543457 -0.07614599 -0.02496124
000250 fd 70 c8 bd 57 46 26 3c 48 23 3f 3d f5 c1 43 3d
       -0.09787176 0.010148606 0.046664506 0.047792394
000260 59 19 bb 3d 2e 22 a0 3d e3 c6 c9 3d 72 19 c4 3d
       0.09135694 0.07819019 0.09852388 0.09575166
000270 91 17 8c bd eb 41 24 bd d6 b6 ec 3c 54 35 6b bd
       -0.068404324 -0.040101927 0.028895777 -0.057423905
000280 39 8d 3b 3d f8 f2 e9 bd ac c4 65 bd 4e 4b bc bd
       0.045788977 -0.11423296 -0.056095764 -0.09194051
000290 0b 2d 90 3c ca b8 9a bd b7 99 e2 bd c6 b9 6a bd
       0.017599603 -0.07554777 -0.11064475 -0.057306074
0002a0 91 5c 99 bd 72 54 a5 3d f3 7f 70 3d 23 09 89 3d
       -0.07488359 0.08072747 0.058715772 0.06691196
0002b0 19 82 ac bc fb f2 22 bd e8 e0 d8 bb 91 b8 95 3d
       -0.02105813 -0.039782505 -0.006618608 0.07310594
0002c0 7a 95 59 bd d3 7d 9e bd 46 62 12 3d 32 35 88 bd
       -0.053121068 -0.07738843 0.035738252 -0.06650771
0002d0 b4 73 16 bd b5 01 75 bd 36 2f 56 3d 50 85 54 bd
       -0.036731437 -0.05981608 0.052291118 -0.05188495
0002e0 4a 1e 7b bd 2f a7 86 3d 54 41 eb 3d ef 07 8b 3d
       -0.061308183 0.065748565 0.1148707 0.067886226
0002f0 7d 3e e3 3d 85 39 68 bc 6a 61 8c bd c7 61 57 bd
       0.11095903 -0.01417387 -0.06854518 -0.052583482
000300 6a d2 7c bc 0a 43 a4 bd 1f a5 af 3d 10 8b ab bd
       -0.015431026 -0.08020599 0.08576416 -0.083761334
000310 ba 9f 81 bd c4 26 6a bd 60 78 82 bd 7f 8b 07 bd
       -0.063292935 -0.057165876 -0.06370616 -0.03309202
000320 b6 8b 4b bd 4c c9 9b 3c a3 36 1f 3c 69 eb 1f 3d
       -0.049693786 0.019016884 0.009717616 0.039042864
000330 fe 0a 46 3d 0a 21 6c bd 80 ac 01 bb 94 b9 78 bd
       0.048350327 -0.057648696 -0.0019786656 -0.060723856
000340 cb 2a dc bb d2 2c 51 3d a5 42 95 3d 24 a3 0a bd
       -0.0067189685 0.051068135 0.07288102 -0.03384699
000350 48 0f 68 3d 47 48 6e bd cf fa 8c 3d 39 4e 02 3e
       0.0566552 -0.058174398 0.068837754 0.12725152
000360 23 26 46 bd 4a dd b2 3d fc 40 b9 bd 1d 3b 8c bd
       -0.048376214 0.08733614 -0.09045598 -0.068472125
000370 0f 92 c7 3d 82 5d d0 3c 90 45 b6 bc ce ff 23 3d
       0.09744655 0.025435213 -0.022249967 0.040038876
000380 17 de 80 bd 23 43 c9 3c 28 56 06 be 6f 1a a1 3c
       -0.0629236 0.024568146 -0.13118804 0.019665925
000390 c5 19 52 bd bc dc 01 bc 56 63 de bb e1 5b 6f 3d
       -0.051294107 -0.007926162 -0.006786744 0.058437232
0003a0 ab 84 de 3a 78 37 46 bd b0 62 fe bc 66 aa 2c 3d
       0.0016976794 -0.048392743 -0.031052917 0.042154692
0003b0 87 6b 91 bd 93 7a d0 bd b3 a6 7d 3c 02 0b 84 bd
       -0.07100587 -0.10179629 0.015481639 -0.06447412
0003c0 99 53 14 3d e2 67 68 bd 7e 92 34 bc d1 b6 9b bc
       0.036212537 -0.056739695 -0.011021255 -0.019008072
0003d0 87 1b 51 3e e7 5b c5 3d 3f f2 0c be 5b 0c 84 3d
       0.20420657 0.096366696 -0.13764285 0.06447669
0003e0 ce ad d1 bc a8 b7 bf bc 34 85 0b 3e ca ed bc 3d
       -0.025595572 -0.023403004 0.13625032 0.09225042
0003f0 bf 0f 86 bd c2 d9 ba 3d 68 0e b9 bd ee 4b b7 bd
       -0.06545972 0.09123565 -0.09035951 -0.08950029

tpcnns.3.bias f4 [12]
000000 9e 9c ff 3d 77 b3 c4 3b b2 bc f6 3c 52 7e 44 3e
       0.12481044 0.006002839 0.030119274 0.19188812
000010 79 e0 84 3c 27 d0 9c 3c a9 48 b7 3e ca f5 71 bd
       0.016220318 0.019142224 0.35797623 -0.059072293
000020 94 2c b1 bd 3d ac de bd b6 6f 33 3e d8 be 88 bc
       -0.08651081 -0.108726956 0.17523083 -0.016692564

tpcnns.4.weight f4 [12, 12, 3, 3]
000000 00 0a 1e b9 80 a1 79 bc 5c 84 f5 3c c0 50 37 bb
       -0.0001507178 -0.0152362585 0.02997034 -0.0027971715
000010 34 b9 b0 bd c0 1f 82 3b b4 32 cb bc 8d dd 83 bd
       -0.08629075 0.00397107 -0.02480445 -0.06438742
000020 b4 f2 a4 bd 00 fa c1 3a d3 55 80 3d 07 fa 88 3d
       -0.080541044 0.0014799237 0.0626637 0.06688314
000030 2c 01 b6 bc 00 39 40 3c 54 79 43 bd 12 16 7d 3d
       -0.022217356 0.01173234 -0.04772313 0.061788626
000040 63 30 96 3d 90 7c 90 bd a2 06 3f 3d 84 e6 fe bc
       0.07333448 -0.070550084 0.046637185 -0.031115778
000050 e4 d1 8e 3c b8 3e 15 3c 3d 9c 70 bd c8 a0 37 3c
       0.017434068 0.009109192 -0.05874275 0.011207767
000060 92 a2 2d 3d 4b f0 94 3d e6 00 00 3d 20 22 16 bc
       0.042391367 0.07272395 0.031250857 -0.0091634095
000070 f6 9b 1c 3d 08 1f 9e bd 6e 49 bc bd 00 f7 f5 3a
       0.038234673 -0.077207625 -0.09193693 0.0018765628
000080 8a d2 0e 3d 0b 8e 93 3d 23 72 97 bd 22 74 33 bd
       0.034868754 0.07204827 -0.07394817 -0.043811925
000090 63 2e c2 3d fb 73 ab 3d 12 ff 47 3d 26 dd b9 bd
       0.09481504 0.08371731 0.04882724 -0.09075384
0000a0 3f fe 80 3d 07 89 89 bd 64 8b 3b bd 3e a8 34 3d
       0.062984936 -0.06715589 -0.04578723 0.04410576
0000b0 44 cb a7 3c d1 21 be 3d b0 29 ef bb fa e1 44 3d
       0.020482667 0.09283794 -0.0072986707 0.04806707
0000c0 55 1d ad 3d 58 24 30 bc 92 27 11 3d 58 d9 a7 bc
       0.0845286 -0.0107508525 0.035438128 -0.02048938
0000d0 b0 70 34 3c 06 96 a2 bd 17 b3 bf 3d b2 fc 26 3d
       0.011013195 -0.07938771 0.093603306 0.040768333
0000e0 18 38 af 3c 0e f3 64 3d c8 d4 6e 3c 93 f5 a1 bd
       0.021389052 0.055895858 0.014577098 -0.07908168
0000f0 0c 96 e9 bc 65 2d a1 bd 5e 8a 70 3d e8 8d 92 bd
       -0.02851393 -0.078699864 0.058725707 -0.07155973
000100 dc 5a de 3c 94 56 ac 3c ea 02 27 3d 30 a5 7e bc
       0.027142935 0.021037377 0.040774263 -0.015542313
000110 1c 0c e7 bc c0 8c 96 3c aa 63 49 3d 1e 83 3c 3d
       -0.028204016 0.018377662 0.049167313 0.04602348
000120 a8 cb e7 bc f7 d9 bd bd d0 45 78 3c 03 67 21 bd
       -0.028295353 -0.09270089 0.015153363 -0.03940488
000130 e0 22 60 bd f2 15 7c 3d 80 55 ce 3a a4 c7 3b bd
       -0.05472076 0.061544366 0.0015742034 -0.04584469
000140 bb 92 8e 3d 12 2d 1e 3d 7d a6 91 3d 18 9a d4 bc
       0.0696158 0.0386172 0.07111833 -0.025952384
000150 de 1f 21 3d 04 4d e9 bc 90 0b bc 3b 2a a4 80 bd
       0.03933703 -0.028479107 0.005738683 -0.06281312
000160 bd 2d 8e bd 0e 12 9d bd 20 a0 9e bc 1f e0 a7 3d
       -0.06942318 -0.07669459 -0.019363463 0.081970446
000170 96 7b 07 3d e5 d4 8c 3d f6 61 c4 bd 08 30 c0 bc
       0.033076845 0.06876544 -0.09588997 -0.023460403
000180 43 9e a2 3d 73 e4 a9 3d 20 e1 cc 3b 8e 97 5b 3d
       0.07940342 0.08295526 0.006252423 0.05361133
000190 31 9b c4 3d bc bb 08 bd d8 4b 19 3c d4 bf ab 3c
       0.09599913 -0.033382162 0.009356461 0.020965494
0001a0 dd 0b b4 3d 23 d5 81 3d 97 2a 98 3d 80 04 fd bc
       0.08791325 0.06339481 0.07429998 -0.030885935
0001b0 9c 39 b2 3c da 71 24 3d 28 48 06 bc 89 ee ab 3d
       0.021755986 0.04014764 -0.008195914 0.08395106
0001c0 b9 b9 29 bd f8 be cd bc 37 27 bd bd d8 c9 96 bd
       -0.041436885 -0.025115475 -0.09235995 -0.073627174
0001d0 78 f1 08 3c c8 d8 5a 3c 11 4e 91 3d 18 cd bb bd
       0.008358352 0.013357349 0.07094968 -0.09169978
0001e0 38 b4 ae bc 88 ed c4 3c 80 fc 97 3c ef 47 8a 3d
       -0.02132617 0.024039045 0.018553019 0.067520015
0001f0 00 f7 b9 bc 0a 2e 5b 3d ec e6 7b bd 57 60 ad 3d
       -0.022700787 0.053510703 -0.06149952 0.08465641
000200 36 f4 7b 3d 40 98 ff bb d5 4d 34 bd 50 90 63 3c
       0.061512195 -0.007800132 -0.04401954 0.013889387
000210 87 6a 7d bd 38 81 a8 bd 98 d3 a6 bd 7e ca 69 3d
       -0.06186917 -0.082277715 -0.08145827 0.057077877
000220 d3 95 80 bd e8 15 fd bc 66 21 5c 3d db 31 8d 3d
       -0.06278577 -0.030894235 0.05374279 0.06894275
000230 72 28 5d 3d 3f 96 bd 3d 3f 3f 99 3d d7 a7 8f bd
       0.05399365 0.09257173 0.07482766 -0.07014435
000240 02 5d 58 3d 70 97 54 bc f0 41 b0 3c 42 90 55 3d
       0.052823074 -0.012975559 0.021515816 0.052139528
000250 34 5c a0 bd 97 82 a3 3d 54 2c ab bd 3f fa 9a 3d
       -0.07830086 0.079838924 -0.08358064 0.07567262
000260 33 c8 1c bd 69 e9 b5 3d 74 c7 9e bc 32 af 57 3d
       -0.038276862 0.0888241 -0.019382216 0.052657314
000270 d9 fb c0 3d 2c 6c ce bc 4c 31 9b bd 08 11 11 bc
       0.09423036 -0.025198065 -0.07577762 -0.008854158
000280 42 7a 3c bd 02 ce b9 bd e9 8d a3 bd 5d fb bb 3d
       -0.04601503 -0.09072496 -0.079860516 0.09178803
000290 d1 21 b0 bd e8 8f 85 3c c7 f4 b0 bd 84 3a b8 bd
       -0.086002 0.016303971 -0.086404376 -0.08995536
0002a0 f5 dd b4 3d ec ce a6 3c 42 31 59 3d 7e f7 af bd
       0.088313974 0.02036234 0.05302549 -0.08592127
0002b0 4c 91 d5 3c 78 db 29 bc 05 e0 9c 3d cc 45 f3 3c
       0.02607026 -0.010367267 0.07659916 0.029696368
0002c0 c8 dc 83 bc 50 dd d3 3c 3e 47 96 bd 60 75 b8 bc
       -0.016096488 0.025862366 -0.07337807 -0.022516906
0002d0 1c 52 09 bd 98 bf 4f bc 58 11 c0 3c 84 5e e5 bc
       -0.03352557 -0.012679957 0.02344577 -0.02799917
0002e0 fc d5 45 bd d5 bd aa 3d d6 14 92 bd 2c 26 87 3c
       -0.048299775 0.08336989 -0.071328804 0.016497694
0002f0 41 1f b7 3d bc ef a2 bc 8a 28 17 3d 60 2d c4 3b
       0.08941508 -0.019889705 0.036903895 0.0059868544
000300 d6 50 05 bd b9 67 b7 3d 00 23 ab ba 8d 61 a5 3d
       -0.032547794 0.089553304 -0.0013056695 0.08075247
000310 fc f1 c4 bc 8c 80 5c bd ea 11 6f 3d e7 8c aa 3d
       -0.024041168 -0.05383353 0.058366694 0.08327656
000320 d9 3a 19 bd 85 06 a2 3d b4 1a 7e bd 00 6f 97 3c
       -0.037409637 0.079114 -0.062037185 0.018485546
000330 48 53 23 bc 84 6a d5 bc bd 87 84 3d 6d 9c b7 3d
       -0.009968586 -0.026051767 0.064712025 0.08965383
000340 38 25 3f 3c 67 2c bd 3d b1 81 c4 3d a0 7f 98 3b
       0.0116665885 0.09236985 0.09595049 0.004653886
000350 a0 d2 cd 3b e2 01 3f 3d 8d 25 3f bd 90 02 68 bd
       0.006281212 0.046632655 -0.04666667 -0.05664307
000360 77 c4 4f bd a3 7f c1 bd 58 d6 91 bd 91 59 b0 3d
       -0.050724473 -0.09448173 -0.07120961 0.086108334
000370 4a f6 08 bd 30 16 ad 3b 20 fb 85 3c 40 8e bc bb
       -0.033438005 0.005282186 0.016355097 -0.005754262
000380 d0 1c 17 bd 2e e6 4d 3d 1e b3 75 3d b3 66 8a 3d
       -0.036892712 0.050268345 0.059985273 0.067578696
000390 ca 20 0d 3d db f6 1a bd 18 2f 98 bc 60 79 00 bb
       0.0344551 -0.037833076 -0.018577144 -0.0019603595
0003a0 58 79 4f 3c 00 93 c6 3c 67 13 41 bd 9c 15 bb 3c
       0.012663208 0.024240017 -0.047137644 0.022837453
0003b0 77 46 37 bd 78 34 eb 3c d3 83 a8 3d e1 a9 b3 3d
       -0.044744935 0.028711542 0.082282685 0.08772636
0003c0 d3 7c b2 bd 8d f2 b6 bd e2 d8 b3 bd 7f af a7 bd
       -0.087152146 -0.08932982 -0.087816015 -0.0818777
0003d0 a4 0d af 3c 60 eb fb bc 41 64 93 3d b7 65 ae 3d
       0.021368809 -0.030751884 0.07196856 0.08515494
0003e0 40 75 96 bc 7b 7d 86 3d ef 06 a4 3d 8a 95 20 3d
       -0.018366456 0.06566902 0.08009135 0.03920511
0003f0 0d ba a8 bd 52 6f be bd 0c 7e 82 bd 07 70 9d bd
       -0.08238611 -0.092985764 -0.06371698 -0.07687383

tpcnns.4.bias f4 [12]
000000 19 27 1e bd 94 87 46 bd 86 53 b9 bd 70 2e df bc
       -0.038611505 -0.04846914 -0.09049134 -0.027243823
000010 eb 61 b0 3d 07 66 99 3d a2 c0 32 3d bd 4c 7a bd
       0.08612426 0.07490163 0.04364074 -0.06110834
000020 08 51 7f bd f2 da 93 bd b0 04 a0 3c a2 32 04 3d
       -0.062333137 -0.07219495 0.019533485 0.03227485

tpcnn_ouput.weight f4 [12, 12, 3, 3]
000000 1c 8c d6 bc ed 9f d2 bd e5 00 b9 3b 31 e4 19 3c
       -0.026189856 -0.1028441 0.0056458586 0.009392784
000010 88 08 67 bd 0a e2 c5 3c 12 cb 95 3b 17 46 b8 bd
       -0.05640462 0.024155635 0.004571327 -0.089977436
000020 79 60 8a 3a 8e d6 06 bd 93 8a 6b bd f6 0c 21 3d
       0.0010557316 -0.03291946 -0.0575052 0.039319
000030 24 72 52 bc d9 4b 1c bd b9 ab df 3c b9 09 42 bd
       -0.012844596 -0.03815827 0.027303563 -0.047372553
000040 57 39 aa bd ad 27 ea bb 4f 00 09 3d 13 ef 00 3e
       -0.08311718 -0.007145843 0.03344756 0.125912
000050 e1 bc 3d bb b9 c7 24 3d 1f 07 ac 3d 2e 66 74 bc
       -0.0028951692 0.040229533 0.08399796 -0.01491694
000060 ab ec 94 3c 79 88 9f bc 0b 8a 78 bc 82 b2 b2 bc
       0.018179258 -0.019474255 -0.015169631 -0.021813635
000070 56 53 32 3d 8f 4a 3a 3b c9 67 a0 bd 5e 92 03 3e
       0.043536507 0.0028425788 -0.078322954 0.12848803
000080 e6 26 06 3c db 59 3c bd 1a 07 b8 3d fe 87 10 3c
       0.008187985 -0.04598413 0.089857295 0.008821486
000090 3e f8 e9 bc 06 a5 84 3c 46 c7 c2 3c e7 f2 79 bc
       -0.028560754 0.01619197 0.023776662 -0.015255666
0000a0 9a 56 8c 3c 5b e7 70 3c a8 72 7c bd 92 c7 16 be
       0.017131139 0.014703597 -0.061632782 -0.14724568
0000b0 61 4b bc 3c 6f b4 8f 3c 15 dc 8c bc 89 4f 7c 3c
       0.022985162 0.017542092 -0.017194787 0.015399822
0000c0 b0 7a 48 3b 65 b7 d9 3c f5 cd a9 3d 0f 57 6e 3d
       0.0030590706 0.026576707 0.08291236 0.058188494
0000d0 28 c7 ec 3d da 99 11 3d 9d 82 12 3d 85 1d 8a bd
       0.115614235 0.035547115 0.035769094 -0.06743912
0000e0 75 b0 b5 3c a9 af 1a 3d df 8c 19 be 3d b6 4d 3d
       0.022178868 0.03776518 -0.14995144 0.050222624
0000f0 4f c6 b1 3c f5 34 ae bd c3 4e 59 3c 17 2c ba bb
       0.021701006 -0.085061945 0.013263407 -0.0056815255
000100 ea 20 c8 3c ca fa 3b bc a4 b6 d0 bb 1d ee 3b 3d
       0.024429757 -0.011473367 -0.0063694287 0.04588138
000110 a9 aa 53 3d 2a 65 37 3d 03 87 98 3b 8a 29 57 bc
       0.051676426 0.044774212 0.0046547665 -0.013132462
000120 76 56 5d 3b f1 0c 47 3d 73 b4 01 bd df 53 20 3b
       0.0033773459 0.048596326 -0.03166623 0.0024464054
000130 1d 9e 37 3d bb 23 8f 3c 78 d5 14 bd c5 8a ac bd
       0.044828523 0.017473092 -0.036336392 -0.08424906
000140 fc 68 6d bd 4f 42 cf 3c ec bc 69 bd ee 9a 64 3c
       -0.05796145 0.025300173 -0.057064936 0.013952954
000150 48 3c 0a bd 13 44 21 bd 06 84 a3 bc 08 c6 95 bc
       -0.033748895 -0.03937156 -0.019960415 -0.018282905
000160 e2 b6 cd 3b 34 bf 56 3c b0 f3 18 3c ef 9a 71 bd
       0.006277905 0.01310711 0.009335443 -0.058985647
000170 e5 b8 1e 3c 5e 93 da bc b1 ae 95 bd cd 87 90 3c
       0.009687637 -0.026681598 -0.0730871 0.01764288
000180 cb 8c 18 3d c5 98 d3 3c bf ce 9b 3c 03 79 1d 3d
       0.037243646 0.025829682 0.019019483 0.038445484
000190 0d 68 58 3d 3b ad e9 bc 8d b0 81 3c 70 d9 dd 3d
       0.052833606 -0.028524986 0.015831256 0.108324885
0001a0 95 c2 93 bd 65 2a 34 bc 1b 24 bf 3d ba 26 9b bd
       -0.07214848 -0.010996436 0.093330584 -0.07575746
0001b0 93 f7 47 bd 5a ff 90 bd 25 c1 d5 bb f0 a8 a7 3c
       -0.04882009 -0.070799544 -0.0065232688 0.020466298
0001c0 91 c3 80 bd 5a 38 02 3d 1c 75 72 3b 5c f0 a9 bd
       -0.06287301 0.031792022 0.0036996072 -0.08297798
0001d0 df 12 93 bb 55 25 dc bc bc 73 7b bd 9f 9e 26 3d
       -0.0044883336 -0.02687327 -0.06138967 0.040678617
0001e0 c5 df 82 bc 85 52 2a bd 5c 6d f0 3c 80 35 11 bd
       -0.015975842 -0.041582603 0.029349022 -0.035451412
0001f0 66 74 af bd 3d 3a ba ba ae f5 36 3d a0 41 f0 3d
       -0.08567123 -0.001420803 0.044667892 0.11731267
000200 78 27 48 bb f9 4d 21 3d 34 7b 8a 3d 9e 6e 36 bc
       -0.0030541103 0.039381 0.067617804 -0.011134772
000210 b9 ec 75 3c 39 e6 68 bc 81 3a b3 bc 51 cb b6 bc
       0.015010052 -0.014215046 -0.021878483 -0.022313746
000220 d5 c9 22 3d 66 fb f2 3a bf 93 9b bd 25 78 f9 3d
       0.039743263 0.0018538057 -0.0759654 0.12181119
000230 ff 19 91 3c e8 d5 3a bd d5 95 bd 3d 4f cf cf 3b
       0.017712591 -0.045614153 0.09257094 0.006341852
000240 c6 41 e1 bc b6 eb c3 3c ac f1 89 3c f6 f9 81 3b
       -0.027497184 0.023916107 0.016838871 0.0039665652
000250 f1 c4 06 3d 8f 85 03 3d 5d 4d 67 bd 9d ef 1d be
       0.03290266 0.032109793 -0.056470264 -0.15423436
000260 1c dd c5 3c 3a ca 4d 3c 75 02 41 b9 56 b0 af 3c
       0.024153285 0.012560422 -0.0001840683 0.021446388
000270 cc 1c 03 3b 41 79 8e 3c d8 f5 9a 3d d1 a1 85 3d
       0.0020006178 0.017391803 0.07566422 0.06525005
000280 09 59 b9 3d d8 5c 29 3d 2c 0a a8 3c a2 1e 5e bd
       0.09050185 0.04134831 0.020512663 -0.054228432
000290 20 36 6d 3c 7b 82 1a 3d e6 0a 14 be 36 5d 52 3d
       0.014478236 0.037722092 -0.14457282 0.051358424
0002a0 ea 40 cb 3c 48 b4 ab bd bc bd d4 3b eb 65 88 ba
       0.024811227 -0.08383995 0.0064923447 -0.001040635
0002b0 af a9 fe bb 29 7f 16 bb 49 4f 72 bb 2f 51 3c 3d
       -0.0077716927 -0.0022963977 -0.0036973527 0.04597586
0002c0 0f bd 2f 3d 16 f7 06 3d 11 52 d8 bb 85 6e bc bc
       0.04290491 0.032950483 -0.00660158 -0.023001919
0002d0 1e fc 33 bc 22 55 3f 3d d4 ed 0d bd 82 04 ea 3b
       -0.010985402 0.04671205 -0.03465064 0.0071416507
0002e0 3f 94 2a 3d 82 f6 a2 3c fb b0 3e bd 09 b5 9b bd
       0.041645285 0.019892935 -0.0465555 -0.07602889
0002f0 ef d5 5f bd e8 ad c8 3c c9 d3 7b bd 18 d6 35 3c
       -0.054647382 0.024496987 -0.06148127 0.011098407
000300 14 52 f5 bc e5 7e 32 bd 42 6a 87 bc 5f b6 e9 bc
       -0.029946364 -0.043578047 -0.01653016 -0.028529344
000310 fb b5 05 3b 36 15 dd 3b 91 31 0e 3c 98 d7 70 bd
       0.0020402658 0.0067469133 0.00867881 -0.058799356
000320 be 09 78 3c 16 20 33 bc 9b 45 8e bd 5f b1 da 3c
       0.0151390415 -0.010932943 -0.0694687 0.026695905
000330 3c 4f 10 3d 07 17 ef 3c f2 84 e6 3c bb c5 23 3d
       0.035231814 0.029185785 0.028139565 0.039983492
000340 ec b2 52 3d a8 fa 80 bc 2c dc a6 3c 8c 16 af 3d
       0.051440164 -0.015744522 0.020368658 0.08549222
000350 5b f2 81 bd d9 f5 86 3b 31 5d e0 3d df 82 95 bd
       -0.06345054 0.004118663 0.10955275 -0.07300352
000360 88 d9 c0 bc d1 fd 26 3e d7 7a 14 bc 15 27 e4 bc
       -0.023541227 0.16307761 -0.00906249 -0.027850667
000370 c0 62 36 3d db 0c c5 3c ab 2b 15 bd 60 1f d9 bd
       0.04452777 0.024053982 -0.0364186 -0.106016874
000380 93 c2 d7 bc 2d 1e 44 bd 79 22 11 bd c7 29 03 bc
       -0.026337897 -0.04788034 -0.035433266 -0.008005566
000390 6e 92 0e 3d ff a7 2d bd e0 22 13 3d b2 54 56 bc
       0.034807615 -0.04239654 0.03592193 -0.013081716
0003a0 d2 3f 0f bd f1 23 6c 3c 1c 56 fd bd 35 a3 46 bc
       -0.034972973 0.014412866 -0.1236994 -0.0121238725
0003b0 cf 84 2e bc df 96 92 3c ec c5 72 bc 64 c7 c7 bc
       -0.010651781 0.017894207 -0.014817696 -0.024387069
0003c0 8e 05 70 3d 37 13 2c 3d fa 70 9b bc 6a 72 69 3a
       0.058599047 0.042010512 -0.01897477 0.00089052937
0003d0 47 5f c2 3c b8 db e2 bc 6c 61 34 bc ab a0 41 b9
       0.023727072 -0.02769266 -0.011009555 -0.00018465768
0003e0 0a dd 4c 3c 39 ef 8d bd 6c 0b 1a 3e 09 7b 96 3c
       0.012503872 -0.06930394 0.1504342 0.018369215
0003f0 79 9f a0 3c b5 d7 00 3e ed bd 1a 3d 68 ab 09 bd
       0.019607292 0.12582286 0.037778784 -0.03361073

tpcnn_ouput.bias f4 [12]
000000 e9 f7 f5 3c 1e da 89 3c 01 5e 7b bc eb 24 a8 3c
       0.03002544 0.01682764 -0.0153422365 0.020525416
000010 e7 ef 85 be 39 bf 2e bf e0 ed 1f bf b9 fc 35 bf
       -0.26159593 -0.6826053 -0.62472343 -0.7108875
000020 d7 d6 3a bf 09 a4 cf be 46 78 45 bd ec a4 02 bd
       -0.7298407 -0.40554836 -0.048210405 -0.031895563
