checkpoint/social-stgcnn-univ/val_best.pth (torch_old, 36890 bytes, 30 tensors)

st_gcns.0.gcn.conv.weight f4 [5, 2, 1, 1]
00000000: b19a 19bf 5e47 143e 5bea 843e affc a9be
00000010: eec5 fcbe 2dcb 87be 375e d3be d9e9 20bf
00000020: 8b64 c43e c728 40be
-0.60001665 0.1448035 0.2596005 -0.33200595 -0.49369758 -0.26522198 -0.41282818 -0.62856823
0.38357958 -0.18765555

st_gcns.0.gcn.conv.bias f4 [5]
00000000: 88b9 27bc 433a 0f3e c116 b4be d0a6 6d3e
00000010: efc7 883e
-0.010237105 0.13987069 -0.3517361 0.23208165 0.26715037

st_gcns.0.tcn.0.weight f4 [5]
00000000: 8647 203e 6511 0b3f f421 213f 6cab 063f
00000010: b0d4 9b3e
0.15652284 0.54323417 0.62942433 0.5260532 0.30435705

st_gcns.0.tcn.0.bias f4 [5]
00000000: b7e5 033f 4559 9e3e d380 9b3e 0219 023e
00000010: b6ab 9c3e
0.5152239 0.30927482 0.30371723 0.12704852 0.30599755

st_gcns.0.tcn.0.running_mean f4 [5]
00000000: 915d c53b 336a e03b 8f28 95bc b869 ac3c
00000010: cfb7 653c
0.006023117 0.0068485974 -0.018207816 0.021046504 0.014020874

st_gcns.0.tcn.0.running_var f4 [5]
00000000: e373 803c df93 8d3b 77b9 5d3c 999f 3c3c
00000010: 0893 0e3c
0.01568026 0.004320606 0.013532988 0.01151266 0.008702047

st_gcns.0.tcn.2.weight f4 [5, 5, 3, 1]
00000000: da87 d4be 7be7 5fbd c51b b0ba f1af c1bb
00000010: 6755 ef3d d77d 9a3d 61a3 a1bd 2cf7 bb3d
00000020: 3aae febd 287f 933d e38e 913d d5a8 6abd
00000030: e309 59be 0f60 9bbe 5169 9fbe b4b0 99be
00000040: 11d1 5d3e 7721 06be ecca 8bbe 1b6a 40be
00000050: 794f 05be d27d 30bd 8cb6 85bd f1a9 8cbd
00000060: e3ff 973d fcb6 e0bc e41d 893d dea5 44be
00000070: dc39 26be 4b27 04be 5566 98be 134a 24bd
00000080: ccc0 a1be 30f9 32bc c87a 64bd bade b8bd
00000090: 5e36 41bd 3259 3f3d 036a 3cbe f366 343b
000000a0: bd9e 203c e34d 7bbd e530 c3bd b52e 233e
000000b0: 2b87 20be 05b9 103e 533e 6a3e 9c0a c9bc
000000c0: 6ec3 f33d 02e7 62be f6d7 753e 5384 82bd
000000d0: 8732 2a3e 3d40 533e d739 61bd dfae b2bd
000000e0: d534 b13c a305 1dbe 1899 733e dbc5 debd
000000f0: 9451 2dbc 5daa d53d 2b08 adbd 7d23 a53d
00000100: 6334 2bbe 04d4 f4bb b282 68be 3f9c 70be
00000110: 8c92 94bd e94f 4bbc 318c 09be 3e05 bd3d
00000120: 869e 873c a9a5 68be db38 09be
-0.41509897 -0.054664116 -0.001343601 -0.0059108664 0.11686211 0.07543533 -0.0789249 0.09178004
-0.12435575 0.072019875 0.071073316 -0.057289917 -0.21195178 -0.30346724 -0.31135038 -0.30017626
0.21661784 -0.13098703 -0.27303255 -0.18790476 -0.13018598 -0.04308874 -0.06528959 -0.06868351
0.074218534 -0.027431004 0.06695154 -0.19203898 -0.16233009 -0.12905614 -0.29765573 -0.040109705
-0.31592405 -0.010923669 -0.055781156 -0.09026857 -0.04717099 0.046715923 -0.18399815 0.0027527183
0.009803471 -0.061353575 -0.0953081 0.15935786 -0.15676562 0.1413308 0.22875337 -0.024541192
0.1190251 -0.22158435 0.24008164 -0.06372895 0.16620837 0.20629974 -0.0549868 -0.0872476
0.021631638 -0.15334181 0.2378887 -0.10877582 -0.010578532 0.10432885 -0.084488235 0.080634095
-0.16719203 -0.0074715633 -0.22706106 -0.23497103 -0.07254514 -0.012409189 -0.13432385 0.092295155
0.016555082 -0.22719444 -0.13400595

st_gcns.0.tcn.2.bias f4 [5]
00000000: c8ad aabd ea82 893c 5c78 d73c 0a9f 393e
00000010: bf0f d03d
-0.083339274 0.016786058 0.026302509 0.18127075 0.10159253

st_gcns.0.tcn.3.weight f4 [5]
00000000: 0135 a03e ffb1 343f ed7f 0a3f 8ebe 0c3e
00000010: 7247 163e
0.3129044 0.705841 0.5410145 0.13744566 0.14675692

st_gcns.0.tcn.3.bias f4 [5]
00000000: 006f f4bd cddb b23b ded7 a33d 703d 1abe
00000010: 3423 0c3c
-0.11935234 0.005458331 0.08000158 -0.15062499 0.008553315

st_gcns.0.tcn.3.running_mean f4 [5]
00000000: 0da3 fcbe c5fb debe 5515 d1be 4298 f23e
00000010: 5357 62be
-0.49343148 -0.4355146 -0.40836588 0.47381788 -0.22103624

st_gcns.0.tcn.3.running_var f4 [5]
00000000: 0a93 873c 1f70 d43d fb8c d93c db66 b03c
00000010: 3ce4 163d
0.016549606 0.10372948 0.026556483 0.02153342 0.036838755

st_gcns.0.residual.0.weight f4 [5, 2, 1, 1]
00000000: 71af 0abe 7062 063e bb0d be3c 5384 c7bc
00000010: bff4 0fbe ed24 28be ddb1 2abf 33cf 133f
00000020: 8afb a53e b377 03bf
-0.13543488 0.13123488 0.023199907 -0.02435509 -0.14058207 -0.16420336 -0.6667765 0.57738036
0.32418472 -0.5135452

st_gcns.0.residual.0.bias f4 [5]
00000000: 4494 82bd 023d 0bbe 4b90 cdbe a27c b63e
00000010: 1aa0 213e
-0.06375936 -0.13597491 -0.4014915 0.35641962 0.1578373

st_gcns.0.residual.1.weight f4 [5]
00000000: bc35 4c3f 0284 7e3f 0ea5 853f 152b 08bd
00000010: d1c7 213f
0.7976949 0.9942018 1.0440996 -0.03324421 0.6319552

st_gcns.0.residual.1.bias f4 [5]
00000000: 006f f4bd cddb b23b ded7 a33d 703d 1abe
00000010: 3423 0c3c
-0.11935234 0.005458331 0.08000158 -0.15062499 0.008553315

st_gcns.0.residual.1.running_mean f4 [5]
00000000: d51d 79bd b4c6 0bbe 47f7 cfbe 5903 bd3e
00000010: 0a22 153e
-0.060819466 -0.13650018 -0.40618345 0.36916617 0.14563766

st_gcns.0.residual.1.running_var f4 [5]
00000000: a7b4 0e3b bd02 9038 e53e f13a 7776 523d
00000010: de67 6d3c
0.0021775158 6.866965e-05 0.0018405585 0.051382508 0.014490096

tpcnns.0.weight f4 [12, 8, 3, 3]
00000000: 50ca 573e 7ee1 723d 982e 043e 69b1 83bd
00000010: 96a2 01be 2d43 03be 4c38 163e 06fc 133d
00000020: 3f75 75bd 7344 85bc 4da3 50be 6e17 03be
00000030: 02b1 24bd 17a2 43bb d498 b8bc 18ad efbc
00000040: 218b 01be f4bb 13be 6fbe be3c bf4a c13d
00000050: 3b40 8f3d e617 813d 3091 9dbc abb5 a9bd
00000060: f11b e5bd 7e5c 813d b3e5 08bd 644d 6d3d
00000070: 517d db3d f750 933c 3a0e 1bbe 8e6e d5bd
00000080: edb5 36bd 5e61 9b3d 6dc5 443e 20af ec3b
00000090: 3b56 15bd b4d2 283e 4e90 203d 57df 1f3c
000000a0: 094e fdbc a773 ebbb d75e 2abd 7047 e13d
000000b0: 759b f2bc b3e3 a2bd cd35 cf3c 3ef7 e33b
000000c0: 6e3b be3d 7b5e 293d 55e7 84bd 080f d6bd
000000d0: 686a 353c 1884 ea3d 4393 2abe 16af 573d
000000e0: 1972 5f3d 11d0 12bd 9400 c8bd a5c2 843c
000000f0: 54c4 523c bd05 f1bd 0e3f bfbd e9a5 d43d
00000100: 1377 343e bbeb e13c 903d cc3c 0a85 893d
00000110: dfd5 e8bd ed00 1a3c 657d 033e 7050 c9bd
00000120: 2f88 abbd 80c6 a3bc eac7 e7bd 5b8e ac3d
00000130: fc6d 383c 3027 12bc 0d35 4e3d b81c 89bc
00000140: c991 3fbd fca6 5d3d 6d4c 563d 0584 d33c
00000150: b965 2cbd f51b aabd 49a2 003d dda6 77bd
00000160: d54e 95bd 43e7 4dbd 2db7 aa3b 3565 bdbc
00000170: 4bad b63b 7f2b 28bd cb0d a9bc 4ff7 fc3a
00000180: db80 b43b f0be d03b b3a6 c73a c473 9dbd
00000190: 5f0d a2bd dd14 d0bd 375c b43c 4d0f 8a3b
000001a0: 14c2 22bd 13ca 18be 9356 95bd 42f8 85bd
000001b0: ffcf f0bb 9299 ecbc 8529 3bbe c684 bdbc
000001c0: 1685 09be 50ec a7bc 4b9a ab3d 298a 9abd
000001d0: c0ed 1abc e1ce 1bba 30dd b9bd 89c0 d0bd
000001e0: 3c00 e9bc 447c a03d a675 8a3d d97e fd3d
000001f0: 0ec6 963d 907e 1b3d a9ff 99bc 96b4 583d
00000200: a4ad d03d 4b9a cf3d 71e1 4a3d 992f 2bbd
00000210: f52d 9cbd 0693 2ebe b755 d5bd d930 8cbd
00000220: cb70 f5bd 6a11 a63c 2cb3 72bc cd1d f8bd
00000230: 95f6 7bba cd35 433d faba 1fbe 0662 043d
00000240: 4a80 4e3d 8bcc 693d 3eb3 693d e5f7 253d
00000250: 1592 343d 5aef 103d da6f 0abd c483 983d
00000260: c02f 81bc 7c68 723d 3ed0 e3bd 6d52 34be
00000270: d7ca d43c 84bf 963d 7553 afbd a414 0cbe
00000280: 94cc 63bd 6d62 b4bd 7c1d 453d 4ffe 803d
00000290: aa41 963d 2c8a 0e3d e8fb 46bd fbae febc
000002a0: f958 ba3c afdb 223d 0afd 263c eba2 1d3d
000002b0: c356 0fbb 35a4 6d3d 2c71 febc 0a4f 6c3c
000002c0: 735d 03bc fc97 3a3a 546f bfb9 49f3 9bbc
000002d0: 8710 96bb 98a1 21bd de10 b6bc d38c d43b
000002e0: d00b 0a3d a00f d6bd 208d 88bd 7de8 08bd
000002f0: ef89 c3bd 56a8 93bc 1c86 95bc a263 53bc
00000300: 7ef2 86bb 2445 903d f22c b43d 4a8e c93c
00000310: 7987 a5bd 0f05 8b3d bceb 693d 4cb3 f7b7
00000320: d88c 0fbe 613f c03d 4fe9 94bc f1df cd3d
00000330: ee8e f53b ef90 b3bc ebdf e13c 824f d43d
00000340: ac62 013e 33d2 793d 74a4 263c 5f23 3abd
00000350: 8f8a 2f3c b24b 5c3c 766a f5bb 437b 3a3d
00000360: c3e1 07bd 2228 3e3c 4e5e e0bc 5fdf 1fbd
00000370: b560 cb3b ee6b ca3c d2b5 e1bd 78a9 a9bd
00000380: b674 77bd 2c71 54bc 2cb1 033d 4d7b 0abd
00000390: 3202 46bd 9d78 1cbe ecbc 9ebd b59a 003d
000003a0: 10f6 f53c 119d dc3d b23a 273d 199c 24bb
000003b0: 02c7 aebc 1196 0cbd 0645 a73c f054 99bc
000003c0: cec0 8ebc deb9 5fbd c812 63bd 8edb 5a3d
000003d0: f391 8f3e ead8 283e 743f c63d 9110 603d
000003e0: 3b34 6b3d 2812 ab3d cdf9 113d ef6c 813d
000003f0: a22d b8bd dd43 f9bd 86e3 f0bd 817b 7bbd
0.2107327 0.059297077 0.12908399 -0.06430323 -0.12659678 -0.12818594 0.14669913 0.03612902
-0.059926268 -0.01626799 -0.20374794 -0.12801906 -0.04020787 -0.0029851252 -0.022533812 -0.029257342
-0.1265073 -0.14427167 0.023284165 0.09438085 0.06994673 0.063033864 -0.01923427 -0.082866035
-0.1118697 0.063164696 -0.033422183 0.057935134 0.107172616 0.017982943 -0.15142146 -0.10421477
-0.04460709 0.07586931 0.19215937 0.007223025 -0.03645919 0.16486627 0.03920012 0.009757838
-0.030921 -0.0071854177 -0.041594353 0.10999954 -0.029615143 -0.079535864 0.025294209 0.006956964
0.09288679 0.04134987 -0.064894356 -0.10452086 0.0110727325 0.11450976 -0.16657738 0.05265721
0.05455217 -0.03584296 -0.09765735 0.016206095 0.012864191 -0.117686726 -0.093381986 0.10383207
0.17623548 0.027578225 0.024931699 0.06714828 -0.11368918 0.009399635 0.12840803 -0.09829795
-0.08375584 -0.019992113 -0.113174275 0.0842559 0.011256691 -0.008920476 0.050343562 -0.016737327
-0.04676989 0.054114327 0.05231898 0.025819788 -0.042089198 -0.08306114 0.031404767 -0.060461868
-0.07290427 -0.050269376 0.0052098245 -0.023119548 0.0055748574 -0.041057106 -0.02063646 0.0019299778
0.005508525 0.006370418 0.0015232175 -0.07688096 -0.079127066 -0.10160229 0.022016628 0.00421325
-0.03973587 -0.14920835 -0.07291903 -0.06541492 -0.007349014 -0.028881822 -0.18277557 -0.0231346
-0.13429675 -0.020498425 0.083790384 -0.07545883 -0.009456098 -0.0005943608 -0.09075391 -0.10192973
-0.028442495 0.07836202 0.06760721 0.1237771 0.07361995 0.037962496 -0.018798666 0.052906595
0.10189369 0.10136851 0.049531404 -0.04179344 -0.07625953 -0.17048272 -0.104167394 -0.068452545
-0.11984404 0.020271976 -0.014813226 -0.12115059 -0.0009611634 0.04765873 -0.1559867 0.032320045
0.050415315 0.057079833 0.057055704 0.040519614 0.044084627 0.035384513 -0.033798076 0.07447007
-0.01576984 0.059181675 -0.111237034 -0.17609568 0.025975628 0.073607475 -0.0856084 -0.13679749
-0.055615023 -0.08807836 0.04812382 0.062985055 0.07336743 0.03479974 -0.04858008 -0.031089297
0.022747504 0.039760288 0.010192165 0.03848545 -0.0021871782 0.05801793 -0.031059824 0.014423141
-0.0080178855 0.00071179844 -0.00036513305 -0.019036906 -0.004579607 -0.03946075 -0.02222484 0.006486514
0.03370267 -0.10452199 -0.066675425 -0.033424843 -0.09547793 -0.018024605 -0.018252425 -0.012902172
-0.004118263 0.070444375 0.08797635 0.024603982 -0.0808248 0.06788074 0.05710958 -2.9528186e-05
-0.14018571 0.093870886 -0.018177656 0.10052479 0.007493845 -0.021919696 0.027572593 0.103667274
0.12635297 0.060991477 0.010171045 -0.04544389 0.010714187 0.013445782 -0.007489498 0.045527708
-0.033174288 0.011606248 -0.027388718 -0.039031383 0.0062065967 0.024709668 -0.110210076 -0.08284277
-0.06041404 -0.012966435 0.032151386 -0.033808995 -0.048341937 -0.15280385 -0.07750878 0.03139754
0.030024558 0.107721455 0.04082746 -0.0025117456 -0.021335129 -0.034322802 0.020418655 -0.01871726
-0.01742592 -0.054620616 -0.055437833 0.05343204 0.28041038 0.16488996 0.096800715 0.0547033
0.057422858 0.083530724 0.03563862 0.063196056 -0.08993079 -0.12171147 -0.11762147 -0.06139708

tpcnns.0.bias f4 [12]
00000000: 4e9e 64bd 6a5a 663e 042b 673d dbf4 ad3d
00000010: 3a51 70bd 0466 2e3e cbee fdbd 6911 5e3c
00000020: d4be 4bbc 7f93 0dbd f335 a6bd 0515 61bb
-0.055815034 0.22495428 0.056437507 0.08493968 -0.058671214 0.17031103 -0.12399062 0.013553956
-0.012435634 -0.03456449 -0.08115759 -0.0034344804

tpcnns.1.weight f4 [12, 12, 3, 3]
00000000: cf0c babc 8b5a 203e ddd7 95bc 5095 5f3d
00000010: 807b ffbd f32b 80bc 8695 21bc 2239 323b
00000020: 9de1 813d afeb 833d d765 a4bc a2bc 2bbd
00000030: 944f 69ba 60bd 9f3c b5fd a6bc 3ef2 c83d
00000040: 0c5d 953d 0aeb 4e3c 146f cb3d ea1c 49bc
00000050: 1664 8e3d 10e0 c83d f7f1 d9bd 3371 8ebd
00000060: 468b b73d 1129 bebd 3c4f 38bd a127 eb3c
00000070: a6ab 0f3c 3fd0 8cbd 5756 abbc ed66 673d
00000080: d4d6 2e3d dd68 98bd 3b7d 723d 1e4f 0c3c
00000090: 8d4a 873b 4c50 933d a206 1c3d 4bc0 91bd
000000a0: 6d67 783d 7fab 783d 627e 27bd 9a17 2f3d
000000b0: 8494 a33c 1e61 e9bc c6e7 63bd 9fba 4abd
000000c0: 314a e63c 8fe9 5cbb 4380 b6bd 6ef1 d9bc
000000d0: 5b2a b43d 6c0a 99bd 76a2 cd3d 316f 763d
000000e0: 92ba dcbd 809b b93d e31f 153b 8df5 d53d
000000f0: d555 5dbc c69e 403d e468 5bbd f3d7 89bc
00000100: 2e9d 233d 31cd d5bd f8a8 6b3d c25a c33d
00000110: a0af b3bd 27f6 f83c 1070 a2bd 7ca7 47bd
00000120: 2039 a83a 91f4 05bc 3a6a 633d f7af 533d
00000130: b59b d73c 4e6b 8c3d 570f bb3c ab71 933d
00000140: 7775 023e 5bcb d2bd a97a fabc c216 1abd
00000150: 02e0 54bb 698f c13c b111 dabd b3d9 c33d
00000160: b68a a63c 2894 6f3d 286b 33bd b043 563d
00000170: 8673 76bc 995b b2bd 9e97 143d 6a68 3ebd
00000180: 0428 01bd c4d5 74bd 5d31 593c e368 923c
00000190: b56c 97bc 5e49 0bbc 821b 6fbd 4155 49bd
000001a0: 370f 013d a335 25bd a4d9 cdbc af4c 8ebc
000001b0: 7339 3b3d 5a15 9bbc 99c7 cfbd 6c1e 8abc
000001c0: 02de 5cbd 82f3 bcbd 4789 e23a 1dae bfbc
000001d0: 44d1 b5bb 12f1 553d 3a89 313d cd7a 8c3d
000001e0: b12c 983d 3124 84bd 1192 9abd 2c92 f1bc
000001f0: d7c9 4b3b e21f 86bd 7cd4 d3bd 21ad dfbc
00000200: 20b1 d13c 1b0d 18bb a2e5 483d 7e5c e03b
00000210: ef8c 473d 1885 2a3d a0ac 133d f243 a33b
00000220: 1231 17be 099d 33bd 20ad b23c 8233 c8bd
00000230: 9398 96bb 974d 7b3d feea 573b 0a49 84bd
00000240: 95ee 783c d6be 1d3c 9212 5c3d d044 16bd
00000250: 5d82 d23a 90c8 103d 4ef9 2bbd 4572 9d3b
00000260: aaa0 2ebb 26cb 113e d5c7 1d3d b5b7 55bd
00000270: 8f80 79bd c215 06bd 009f 893d c980 2cbd
00000280: e28c 98bc dd57 b5bd 5dc5 84bd 6233 323d
00000290: cf44 17bd 2080 66bd 1c0e f2bd efa0 4ebd
000002a0: fad8 4ebd 8b46 d4bd 7f61 fabb 5034 b03d
000002b0: d8de 883d f7c2 25bd 7a30 a2bd 9ca1 b1bd
000002c0: b2d0 193d 9c90 7ebd 836e c5bb 5fbd fc3c
000002d0: 5a3a 023b d214 9abd 8f24 99bd 67b2 32bd
000002e0: b8be acbd cd05 afbc 5c16 533b e0ed 35bd
000002f0: 724d b73d 0a1c acbd f91c dcbd f758 84bd
00000300: f43e 903d 2a6a 3cbc 5557 113d 10d4 a7bd
00000310: 21db a83d 6b67 04bd 03c4 b038 b837 9c3d
00000320: bc58 61bd 469c 853c 6ea8 b6bd 77c7 dbbc
00000330: 52d9 5c3c dade 8dbd 4dd9 35bc 0dd1 dd3c
00000340: 4ca1 e9bc 6c02 f83c dbe5 683d b676 60bc
00000350: 329e bfbd c2d2 463c caf0 d5bc 0b02 933d
00000360: 54ba 3cbd 9a2e 03be 09ef fbbc 638f b2ba
00000370: 2c42 14be 33ef 643b 309b 463b 20df 51bd
00000380: 2ea3 a93c f8e7 15bc f2da 2dbd 9e37 d1bc
00000390: 13f7 0fbc c25c 99bc 7f1d b7bd 2777 a13d
000003a0: 17f6 873d 1de8 66bd 9d7a 0eba 01c1 a83d
000003b0: 8c0b 213d 709f 4ebd 6474 0abe 0dfc e6bd
000003c0: 257d 20bc 82b4 d7bc ff48 f2bc 0ff8 f1bc
000003d0: 4d57 893d b6af e8bb 2fa0 8cbd b6b7 bf3b
000003e0: 7eea 9abd 6f4c 493c 2cbe 853d 5d41 2e3d
000003f0: 2be6 18bd bc5b 67bc 3854 ac3c ba04 e8bb
-0.022711186 0.1565954 -0.018291408 0.054585755 -0.12474728 -0.015645957 -0.009862309 0.0027194698
0.063418604 0.064414375 -0.020068092 -0.04192794 -0.00089001027 0.01949948 -0.020384649 0.09811829
0.07293138 0.01262928 0.09933296 -0.01227496 0.06952684 0.098083615 -0.10641854 -0.06955185
0.08962111 -0.092851765 -0.04499744 0.02870542 0.0087689515 -0.06875657 -0.020915193 0.056494642
0.042685345 -0.07441876 0.05920146 0.008563785 0.00412876 0.0719305 0.038092263 -0.07116755
0.06064551 0.060710426 -0.040892012 0.042747118 0.019968279 -0.028488692 -0.05564096 -0.049494382
0.02811155 -0.0033708548 -0.08911183 -0.02660438 0.08797141 -0.07472691 0.100407526 0.060164634
-0.10777773 0.090628624 0.0022754602 0.10447226 -0.0135092335 0.04702642 -0.05356683 -0.016826605
0.03994482 -0.10439528 0.057534188 0.09538795 -0.08773732 0.030390812 -0.079315305 -0.04874371
0.0012834407 -0.008175985 0.055521227 0.051681485 0.026319364 0.06856404 0.022834463 0.07199415
0.12740122 -0.10292693 -0.030576067 -0.03761936 -0.0032482152 0.023627954 -0.106479056 0.09563007
0.020329814 0.058490902 -0.043803364 0.052310646 -0.015042191 -0.08708877 0.036277406 -0.046486296
-0.031532302 -0.059774175 0.013256398 0.01787228 -0.018484453 -0.008501379 -0.058375843 -0.04915357
0.03150865 -0.040334355 -0.025128193 -0.01737055 0.045709085 -0.01893108 -0.10145492 -0.01686021
-0.05392266 -0.09226133 0.0017283343 -0.023398453 -0.005548628 0.052231856 0.04334376 0.0685936
0.07430399 -0.064522155 -0.07547391 -0.029488645 0.0031095648 -0.0654905 -0.103432626 -0.027304234
0.025597155 -0.002320117 0.04904712 0.0068469634 0.04871839 0.041630834 0.0360533 0.004982465
-0.14764813 -0.043850932 0.021811068 -0.09775449 -0.004595825 0.061353292 0.0032946463 -0.064592436
0.015193601 0.009628018 0.053728648 -0.03668672 0.001606058 0.03534752 -0.041985802 0.0048048818
-0.0026646056 0.14237651 0.038520653 -0.05217715 -0.06091362 -0.032735594 0.0671978 -0.042115007
-0.018621866 -0.08854649 -0.064829566 0.043506034 -0.036930855 -0.056274533 -0.118190974 -0.050446447
-0.050499894 -0.103650175 -0.007641017 0.08603728 0.06683129 -0.040469136 -0.079194024 -0.08673403
0.037552543 -0.06214963 -0.006025137 0.030852018 0.0019871206 -0.075235024 -0.07477676 -0.04362717
-0.08434814 -0.02136507 0.0032209372 -0.04441631 0.089503184 -0.084037855 -0.107477136 -0.06462281
0.07043257 -0.011499921 0.035483677 -0.081947446 0.082449205 -0.03232519 8.428844e-05 0.07627815
-0.055016264 0.016309869 -0.08918844 -0.02682851 0.013479548 -0.06927271 -0.011099172 0.027077222
-0.028519295 0.030274592 0.056859832 -0.013700178 -0.09356345 0.0121352095 -0.026115794 0.07178124
-0.046076134 -0.12810746 -0.03075363 -0.0013623055 -0.14478368 0.0034932613 0.0030304901 -0.05123818
0.020707693 -0.009149544 -0.04244513 -0.025539216 -0.008786934 -0.018720988 -0.08941173 0.07884055
0.06638735 -0.056373704 -0.0005435141 0.082399376 0.039317653 -0.05044502 -0.13520962 -0.112785436
-0.009795462 -0.02633119 -0.029575823 -0.029537229 0.067061044 -0.0071010245 -0.0686649 0.0058507575
-0.07564257 0.01228629 0.06530413 0.042542804 -0.03732888 -0.014120992 0.021036252 -0.0070806416

tpcnns.1.bias f4 [12]
00000000: 1bf2 37bd 6228 7f3e 5b65 8b3e f643 8d3c
00000010: c0e6 3bba 1e69 00bc 5575 813e 3691 bebc
00000020: dc5e 2ebe 58a8 05be f4c8 e43d fea9 4a3d
-0.044908624 0.24917749 0.27225766 0.01724432 -0.00071678683 -0.007837562 0.2528483 -0.023262601
-0.17028373 -0.130525 0.11171141 0.049478523

tpcnns.2.weight f4 [12, 12, 3, 3]
00000000: a2d1 f5bb cea4 58bd 02db 063d 1140 02bd
00000010: 496d bbbb 33d8 33bd 1f6d c4bd fcb8 103d
00000020: 8630 7a3d ddad 813d 46b3 9abd 74a5 aebd
00000030: 7056 383d ab28 333d 182d f5bd d63b 733d
00000040: d23d 00bd 0a58 c63d 95b7 80bd 8cdd 93bd
00000050: dff1 9abd 146b a6bc 7f83 c93b a759 98bd
00000060: 3647 a8bd a28d 27bd db00 b1bd d0e7 253b
00000070: 3601 35bc 007e 283b 2ebf f73d 9297 78bc
00000080: a836 99bd 7eed 3f3d 5ad3 fc3c cbea 97bd
00000090: acaf 0bbc 3b31 cc3c 525f 7f3d 7c8b 34bd
000000a0: ad36 32bc cd9d d93c 76c9 60bd 90b2 57bd
000000b0: 7ad4 943b 7709 0d3d d935 0fbd 05d5 5d3d
000000c0: a500 a3bc 5dd2 16bd 29f6 c23d 7321 423d
000000d0: c65a be3a ef55 8b3d c500 83bd b9de b3bc
000000e0: 6385 83bd d686 a1bc 90b2 93bd c166 543d
000000f0: 6747 69bd 85c0 9c3d 5615 9f3d 0800 1b3d
00000100: abcb febd beca 723c f7fc 453d bcb3 10bc
00000110: 8cab 733d d169 c4bd 01c2 eb3c 0673 9c3d
00000120: 18a9 85bd 48ef c7bc bafa 2e3d d725 b0bd
00000130: 38e9 a23d bfd6 983d 29e4 18bd 115f 62bd
00000140: 425a da3d b023 57bd 62ec a73c 84de f73b
00000150: bb8e fbbc a774 debd 24fe 6b3d 0daa 0dbd
00000160: 8a25 fc3c ddb8 4bbd f122 2ebd fb4c b0bd
00000170: f005 1dbd 0fbe 95bd 419c a83d 10b0 2dbd
00000180: 76d1 87bd bc9c 09bc 0bd2 cb3c b335 15bd
00000190: 4ad0 ed3c 451f 623d 00fc 913d 9094 45bd
000001a0: 4fe2 debd 9ba6 663c 6633 cd3d 00c9 983d
000001b0: 310f 3f3d 1197 393d 1401 a0bc f63e a53c
000001c0: 71d9 2fbe e432 a3bd ba02 5a3d a7e8 983b
000001d0: e86f aabd b1c5 30bd 4635 af3d 9535 e8bc
000001e0: 81d3 d4bb 7629 52bc 728c dabc 4d98 dc3c
000001f0: aa92 3bbe 4f65 d4bd 906a 693d 59a6 523d
00000200: 03a7 f5bd 0d1e 8cbd 86a3 ef3d b4c9 a1bd
00000210: 03ca 973d ac0b e73d d5ff f1bd 56e6 90bd
00000220: cda9 2cbe 42b7 3c3c df34 01bd 0cfb c1bc
00000230: ca1e d93a 69e7 fd3c 5e83 563b 1701 853d
00000240: 8d47 ef3d 1cc1 863d 92cd 9d3b c154 5b3d
00000250: 523a 5b3d 9828 c03d e12e 013e 2340 2abc
00000260: e2da 293d 93d7 71bd 0801 2dbd 7aef 193c
00000270: fbb8 bebd de61 683d 5697 80bd 9827 bdbd
00000280: 6299 793d 1317 c53c 08cb cbbb 9dec 8dbd
00000290: b5ef 3abb 3dbe 1bbd 3aca 19bb c659 d23d
000002a0: 3fc6 1e3d 1b32 afbd 8b65 d13d c7a2 8c3c
000002b0: c447 793d b926 e13d 9d21 763d 08e3 1ebb
000002c0: b568 48bd cfb4 3cbd ca99 223d 6966 9abd
000002d0: 0cf7 0dbe b562 c3bd 9793 9dbc 810f 08bd
000002e0: 4557 453c 566b 70bd fb9b a63d 9d59 4e3d
000002f0: ff64 923d af39 ad3d 9458 8dbc 33ec 1abd
00000300: 62bc 98bd 920f 87bb dd25 a8bd db2e 4ebd
00000310: 3c7a 66bd 1574 0b3c 8370 dcbd 9b78 633d
00000320: 7777 50bd dead c03b fefb 77bc 96ed 853d
00000330: 13f3 eebd 003f 7fbd 3cbe 3c3d 136a 743d
00000340: ceb5 eabd 352a 93bd 3a5e 9cbd 6c9a adbc
00000350: de46 91bc f2ce 2dbd 86d6 203d 2eed 553c
00000360: a040 b3bb 5bd1 953d bc54 6dbd 32e2 b9bc
00000370: c670 6bbd 6a7b b4bd 7837 adbd 5793 1dbe
00000380: 51b1 a6bd 8713 b4bd 3aec 993d e1f2 dcbd
00000390: 05ef 9b3c edba f53a d76f 07be 35f4 93bd
000003a0: 92a2 d03c d05b 9abd a876 7d3c 08cd e83d
000003b0: da42 463c fca4 14bd fa53 7b3d 9fa9 44bb
000003c0: e748 9bbd 09e1 243d bf17 adbd 9ccc 6ebd
000003d0: 6f7d 383e 6d93 05bc 7ff4 dc3c 0d80 ca3d
000003e0: fc3e dbbd 70f4 10bd 405f 99bc df76 bdbd
000003f0: 903b 023d 5d11 ac3d 9575 053e c928 c9bc
-0.007501797 -0.052891545 0.032923706 -0.03179938 -0.005719815 -0.043907356 -0.09591126 0.035332665
0.06108143 0.0633199 -0.07553725 -0.085276514 0.04500431 0.043739956 -0.119714916 0.059383236
-0.031308956 0.09684761 -0.062850155 -0.07219991 -0.075656645 -0.02031473 0.0061497088 -0.07438975
-0.082167074 -0.040906556 -0.08642741 0.0025315173 -0.011047652 0.0025709867 0.120970115 -0.015172856
-0.07481128 0.04685735 0.030862499 -0.0741783 -0.00852577 0.024925819 0.062346764 -0.044078335
-0.010877294 0.026564503 -0.054879628 -0.052660525 0.0045419307 0.034432855 -0.034963463 0.05415823
-0.019897768 -0.03682171 0.095196076 0.04739518 0.0014522902 0.068035 -0.06396631 -0.021956788
-0.06421926 -0.019717615 -0.072117925 0.051855806 -0.05695286 0.07653908 0.077677414 0.037841827
-0.1244119 0.014818845 0.04833695 -0.0088319145 0.05948977 -0.095904954 0.028779032 0.076391265
-0.06526393 -0.02440609 0.04271958 -0.086009674 0.07954639 0.074628346 -0.037326965 -0.055266444
0.106617466 -0.05252427 0.020498458 0.0075643677 -0.030707708 -0.108620934 0.057615414 -0.034586
0.030779619 -0.049736846 -0.04251379 -0.08608433 -0.03833574 -0.073116414 0.08232928 -0.042404234
-0.066317484 -0.008399185 0.02488043 -0.036428165 0.029029984 0.055205602 0.07128143 -0.048237383
-0.10883009 0.014077808 0.10019569 0.07460213 0.046645347 0.045310084 -0.019531764 0.020171624
-0.17172791 -0.07968691 0.053225257 0.004666406 -0.08322126 -0.043157283 0.08555083 -0.028345862
-0.00649494 -0.012827268 -0.026678298 0.026928091 -0.18317667 -0.103708856 0.05698639 0.051428173
-0.119947456 -0.06841669 0.117011115 -0.078998 0.074115776 0.11281523 -0.11816374 -0.07075183
-0.16861649 0.011518301 -0.031544562 -0.023679279 0.0016564962 0.030994134 0.003273211 0.064943485
0.11683569 0.065798014 0.0048157657 0.053547624 0.053522415 0.09382743 0.12615539 -0.010391268
0.04146851 -0.05904348 -0.04223731 0.009395475 -0.09312626 0.05673396 -0.06278865 -0.092360675
0.060937293 0.024058854 -0.0062192716 -0.06929896 -0.0028524224 -0.038023222 -0.0023466484 0.10271029
0.03876328 -0.08554479 0.10224446 0.017167462 0.060859457 0.10993714 0.06009065 -0.0024244208
-0.04892798 -0.04607087 0.039697446 -0.075390644 -0.13863772 -0.09540311 -0.019235415 -0.03321791
0.012044732 -0.058696114 0.0813522 0.05037843 0.0714817 0.08458268 -0.017254151 -0.037822913
-0.07457806 -0.004121729 -0.08210347 -0.050337654 -0.056268916 0.008511563 -0.107636474 0.05553494
-0.05089518 0.0058801016 -0.015135763 0.065394565 -0.116674565 -0.06231594 0.04607986 0.059671473
-0.11460458 -0.07185785 -0.0763516 -0.021191798 -0.017733987 -0.042433687 0.039267085 0.013057036
-0.0054703504 0.07315322 -0.057942137 -0.022690866 -0.057480596 -0.08812602 -0.084578454 -0.15388237
-0.08139289 -0.08792787 0.0751576 -0.10788513 0.019034872 0.0018747725 -0.13226257 -0.07224313
0.025468145 -0.07537043 0.015470184 0.113672316 0.0121009 -0.036290154 0.061359383 -0.0030008329
-0.075822644 0.040253673 -0.08451795 -0.0583006 0.18016599 -0.008152825 0.026972054 0.09887705
-0.10705373 -0.035389364 -0.018722177 -0.092511885 0.031795084 0.08401749 0.13033135 -0.02455558

tpcnns.2.bias f4 [12]
00000000: e197 f7bc c6a9 713e 2421 673e d3fb 873d
00000010: c9be 853e 26ca f2bd f05e 883d 0f7e 00be
00000020: 9a6b bb3d ee02 de3d d226 6a3d 8639 1a3d
-0.030223789 0.2359992 0.22571236 0.066398285 0.2612212 -0.11854963 0.06658733 -0.12548088
0.09151383 0.108404025 0.05716593 0.037652515

tpcnns.3.weight f4 [12, 12, 3, 3]
00000000: 455d af39 2e5d 8bbb fab6 c7bd ad2b d93c
00000010: c1c6 86bb 28ec dcbd edd9 5d3d 1b91 5b3c
00000020: 6ae3 91bb c27c 4b3c 459d 563d 8d63 f5bd
00000030: d6dd 87bd b129 983d b98a b03c 112c 3dbd
00000040: 2f48 68bc d21b 7b3b 3bf8 703c ecd1 a13d
00000050: 33e4 ddbc f1d0 1f3d e1d4 723d 06ab 803c
00000060: ee56 f53c 1fe1 ff3d 2546 5d3c 918d 34be
00000070: 73b8 bebd 66aa dcbb e656 98bd fc9a 143d
00000080: 80c7 343d 26d9 4e3c fd1d 4a3c 2bba 20bd
00000090: a561 96bd d0c6 bcbd d2d4 4ebd d11d ddbc
000000a0: 0757 abbc 1d2a 973b 99fd 0d3c 58db 673c
000000b0: a430 6a3c 58af 493d 2337 34bd 7c38 fdbb
000000c0: a069 b33d f455 bd3d 9e97 8b3c 9b75 7a3d
000000d0: 3bad 9f3d b3dd d4bc 8699 1ebd e6ac 4e3d
000000e0: f9c5 463d 5a27 423d ef9b a03d 2caf 68bd
000000f0: 74d4 5c3d 6891 48bd 8725 dbbd 97da 80bd
00000100: 3970 aabd f208 3abd d6c4 683d 5fcf b2bb
00000110: 56db f9bd 9376 d8bb 47d4 63bd 82c8 09be
00000120: 7cd3 8bbd 380c c53c 17d7 3bbd ad03 daba
00000130: a49a 553d ce17 0bbe 802f 44bc edb4 be3d
00000140: 0aec 97bd a9ad cbbd 5a6b 013c f456 3fbd
00000150: 278d 9ebd 37aa bdbd a0a7 36bd 6eb4 6bbd
00000160: a6ab ef3d 448a 5a3d c4d2 9fbd f884 37bb
00000170: 948d 52bd 86f5 8c3d a418 5fbc 2d6f e2bd
00000180: d0ec 093d 13b3 7f3d 9f92 0a3d 9fa8 06bd
00000190: b740 b7bd 15f9 4ebd bf7a e03b 3564 a9bc
000001a0: cb43 66bd 8bb8 80bc d370 d73c f3d1 b5bc
000001b0: dd7a 9fbd 7218 dabd 2073 0c3d c869 8a3a
000001c0: ff88 bebd 5b15 17bd 0958 083d 23cd 3ebd
000001d0: 92ef 503d 9d22 ebbb 0340 9f3d f6bd 13bd
000001e0: b422 b5bd 91ab 253d 0e6e c23d 4e52 a1bd
000001f0: 484a a1bd eb97 773c 3f6c c83a 2355 21bd
00000200: 1098 8cbd ff08 a03d a3fb 293d b2b2 483d
00000210: 5c03 173b 1eb1 78bd d0be 80bd 1c52 90bd
00000220: cfb0 aabd b287 7dbd 8d31 ed3d 8ba3 9bbd
00000230: 783b 72bd af89 b03b 3cb4 723d 8aeb e3bb
00000240: b6d0 e83d c6c5 043d d670 2b3c 5326 c63d
00000250: 06da 213d e5d6 82bc 10d3 0a3d d6dc 9cbd
00000260: e2cc 97ba 2e15 95bb ef57 993c 859f 893d
00000270: a226 a83b afab 003d eafc a0bc e449 183d
00000280: 3dc3 493c 7228 06bd 53a6 923d f116 df3a
00000290: 3360 07bd 1119 c4bd 036e 933b 4e1e 723c
000002a0: 1f71 3dbd e9a4 0cbd ead4 45bc 5ff6 c53c
000002b0: c887 2abc d03b febc 987f 8cbd fd11 5abd
000002c0: 7c02 473d e75b 27bc e9fe 0cbe af6e 433c
000002d0: 1669 923c 6331 80bc ee9a c5bc 7186 f1bc
000002e0: 6f75 27bc cedc 1bbc a3fc 52bd 2131 dbbc
000002f0: 0846 95bd 3e80 01be bd54 c7bd 1fd1 013d
00000300: 7611 c7bd 4600 fabc b7eb 7dbd 42fa 3d3d
00000310: 5b34 c1bc cbe1 a7bc 3562 7e3d 15d3 8d3d
00000320: 1797 45bd 6bf9 e7bd 17e2 433d fc3c 86bb
00000330: 6fa9 04bd c056 8fbd b037 f0bc 1f57 a13d
00000340: baac 05bc abce 9e3b 990d 783b cd8f b1bd
00000350: 99b3 623c e2c5 3cbd 1014 b3bd 6cf5 1bbd
00000360: c23b 2fbc 0780 df3c f21c ed3c b686 aabd
00000370: 5fd2 f3bc 6c4c a33c 39a3 a23c fbc9 f4bd
00000380: 765f 30bd 8f90 59bd d60f 943b 1971 843d
00000390: 0f33 243d 60fc 04be ba7c 63bd 54bb aebd
000003a0: 587f 7bbc 7745 4c3d ed23 a63b 3e0e 593e
000003b0: 33e3 84bd 7c56 edbc 56e0 983d 6f7e a0bd
000003c0: d070 20bd 9b53 133e 1ea3 be3c 3797 95bb
000003d0: 94ef 993d f9db c6bc 927b 293b 6b97 95bd
000003e0: f26c a6bd e5a9 d0bd fbac b4bd 7b1a 553d
000003f0: ad90 82bc 2adc 173e 7be2 ed3d 0ac4 b2bd
0.00033448092 -0.0042530512 -0.09751697 0.026510084 -0.004113049 -0.10787231 0.05416291 0.013401295
-0.0044521587 0.012419881 0.052396078 -0.119818784 -0.06634109 0.07429827 0.021550523 -0.046184603
-0.014177366 0.0038316143 0.01470762 0.079013675 -0.027086353 0.03901762 0.05928505 0.01570655
0.029948678 0.1249411 0.013505493 -0.17632128 -0.09312525 -0.0067341803 -0.074384496 0.036280617
0.04413557 0.012625014 0.012336251 -0.039240044 -0.07342843 -0.09217608 -0.05049593 -0.026991757
-0.020915521 0.0046131746 0.008666419 0.014151417 0.014293823 0.049239486 -0.043997895 -0.0077276807
0.08760381 0.0924491 0.01704007 0.061147314 0.07796713 -0.02598462 -0.03872063 0.050457858
0.048528645 0.04740081 0.07842242 -0.056807682 0.05391355 -0.048966795 -0.10700517 -0.06291693
-0.08322186 -0.045418687 0.056828342 -0.0054568495 -0.12200038 -0.006605932 -0.055622365 -0.13455394
-0.06827447 0.024053678 -0.045859423 -0.0016633176 0.05214943 -0.135833 -0.0119742155 0.093118526
-0.07418068 -0.099452324 0.00789913 -0.046713784 -0.077417664 -0.092609815 -0.044593453 -0.057545118
0.11702661 0.053354517 -0.07803872 -0.002800284 -0.05140455 0.068827674 -0.013616715 -0.11056361
0.033673108 0.062426638 0.033831235 -0.032875653 -0.0894789 -0.050530512 0.00685057 -0.020677665
-0.056216996 -0.015712997 0.026298916 -0.022194838 -0.07787106 -0.10649194 0.03428948 0.001056009
-0.09303474 -0.0368856 0.033287082 -0.046582352 0.051009722 -0.007175757 0.07775881 -0.036069833
-0.0884451 0.04044682 0.094936475 -0.078770265 -0.07875496 0.015111904 0.0015291049 -0.039387833
-0.06864941 0.07814216 0.041499745 0.048998542 0.0023042774 -0.060715787 -0.062863946 -0.07046911
-0.08334505 -0.061896987 0.11581717 -0.07599553 -0.059138745 0.005387507 0.059253916 -0.0069555687
0.113679335 0.032415174 0.010463914 0.096752785 0.039514564 -0.01597161 0.03389269 -0.076593086
-0.0011581446 -0.004549644 0.018718688 0.06719879 0.0051315585 0.03141373 -0.019651849 0.037179843
0.012314615 -0.032753415 0.0716063 0.0017020387 -0.033050727 -0.095750935 0.0044991984 0.014777733
-0.04625046 -0.034336958 -0.012074688 0.02416533 -0.010408349 -0.03103438 -0.06860274 -0.05323981
0.048586354 -0.010214782 -0.13769116 0.0119282445 0.017872375 -0.01564855 -0.024121728 -0.029483052
-0.010220869 -0.009513093 -0.051510464 -0.026756825 -0.07288748 -0.12646577 -0.097329594 0.031693574
-0.09720127 -0.030517709 -0.061992373 0.046381243 -0.023584535 -0.020493409 0.062105376 0.06925026
-0.048239794 -0.113268696 0.047823038 -0.0040966254 -0.032388147 -0.06998968 -0.029323429 0.07877945
-0.008158857 0.004846414 0.0037849902 -0.08670006 0.013836765 -0.046087153 -0.08744061 -0.03807585
-0.0106954 0.027282728 0.028944466 -0.08326475 -0.029763399 0.019933902 0.019853221 -0.11952587
-0.04305979 -0.053116377 0.0045184894 0.06466884 0.040087756 -0.12986898 -0.05553887 -0.08531824
-0.015350185 0.049870934 0.0050702007 0.21196839 -0.06488647 -0.028971903 0.07464664 -0.07836615
-0.039170086 0.14387362 0.02327114 -0.0045651454 0.07516399 -0.024274813 0.0025861007 -0.07304271
-0.081262484 -0.10188655 -0.08822056 0.052027207 -0.015938127 0.1483008 0.11615463 -0.08728798

tpcnns.3.bias f4 [12]
00000000: 638d 043e 23bf 1c3e 468c ae3d a969 01be
00000010: fa6d 9a3d 00fc 5f3e cc8a b63d 141e 8d3d
00000020: f410 52bc 27a0 ca3d 8a48 99bd 0c55 05be
0.1294456 0.15307288 0.08522849 -0.12637962 0.075405076 0.21873474 0.08913192 0.068905026
-0.012821425 0.09893828 -0.07484539 -0.13020724

tpcnns.4.weight f4 [12, 12, 3, 3]
00000000: 1b55 a13d 58f6 123c d04d 3bbc 9ede 6a3d
00000010: 04b9 c03c 141f 1bbd 69fc 993d 51e8 b63d
00000020: 68a8 c2bd 4082 9e3c 104b a6bc 548f abbd
00000030: 2837 61bc 1b17 4fbd 8036 4cbc 3a4a 2a3d
00000040: 38e3 f1bc aafc 1d3d 5d6b b93d 4e5b 783d
00000050: a478 f83c 67ca 9b3d 2290 0e3d 649a f63c
00000060: 0887 bf3c 56e0 3b3d 84c2 a43c a044 213b
00000070: 620e 303d 5306 c13d 49fb 7bbd f415 d2bc
00000080: c189 803d 3e2d 023d 863d 5c3d f30b 9e3d
00000090: 7682 753d 1528 b7bd 5250 0d3d fa15 a6bd
000000a0: 7be4 90bd 5640 283d 8eee 103d 6475 93bc
000000b0: 7a76 083d 48e3 253c 1074 893c e286 4a3d
000000c0: a07b bebc f893 e03c 406e 263c a830 5fbc
000000d0: d268 c0bd fb30 b43d b746 a43d d2ea 27bd
000000e0: f498 cc3c 11e5 91bd 1e89 713d c8e9 65bc
000000f0: 25c1 863d aa8d 54bd dab8 663d 3504 8a3d
00000100: 1c1c a4bd ba02 adbd 2205 423d 6655 b8bd
00000110: 2576 9bbd 19e4 8f3d 2038 d73b f60e 463d
00000120: 0040 8439 5afd 363d 7ed1 22bd ccfb 73bd
00000130: dcb5 a13c 4a4f 0dbd aa69 013d fb41 32bd
00000140: 576b 963d 487d 5cbc 580a 8fbd 2edd b7bd
00000150: 07cc 983d 6a8c 353d 00fc 4dbd ead9 9abd
00000160: d80a 1f3c 1fad a73d d8a4 9ebc fc16 853c
00000170: 9290 5ebd 3ab9 a7bd 548f c93c 22a3 72bd
00000180: 19d5 74bd 8fc6 8dbd 06a9 193d 1273 04bd
00000190: 28fe 763c 3af6 083d 4458 cd3c 2fa2 80bd
000001a0: 80b8 dc3b a7da 9a3d 4e1c b2bd e692 c0bd
000001b0: 0b81 67bd b082 fbbc 46ef 7f3d f08c 6dbc
000001c0: e8c3 f1bc cf5d a93d 3218 313d 2e45 bfbd
000001d0: 3049 c4bb 2b97 95bd 3ffe 72bd 6f60 a93d
000001e0: fb08 be3d 639a bc3d 8be6 983d 96e8 573d
000001f0: a22d 44bd 8a43 bbbd c8f8 7f3c c66d 663d
00000200: d0f0 5a3c fb02 983d 4b8b 88bd 20cf 3fbd
00000210: 98f7 5dbc 2006 903c 6c98 f93c 287f 16bc
00000220: 9f92 ba3d e789 993d fc36 a43c 51b4 a23d
00000230: 12d1 10bd 57b0 c3bd 7a34 6c3d 4abf 40bd
00000240: ea9b 7a3d 99c9 27bd 388e e4bc 2db3 b53d
00000250: f822 4ebd 8046 943c 284d 70bc b810 06bd
00000260: 59dd b33d 171e a8bd ac86 c2bc 475a 973d
00000270: 783a 87bd 6e96 99bd f1b7 bcbd 522e 083d
00000280: 0ef3 413d 0e6a 8fbd 0f6b 9d3d 702a f03b
00000290: f0ab 7bbd 1cd9 a1bd 65af 8d3d 5098 39bc
000002a0: f39c 803d d86b 0dbd 99e6 913d 3304 b1bd
000002b0: b44b f63c 5899 253c 857b b83d 1744 a53d
000002c0: b473 dd3c d0e6 583c 9127 27bd b93f ae3d
000002d0: 2909 9ebd 07ff be3d 58b5 50bc 4010 a3bb
000002e0: b61a c1bd c879 98bd c0be bdba 00ea 3bb9
000002f0: ac5e 08bd aa6b 293d 8b88 4fbd f441 f73c
00000300: 52a2 83bd 1065 6e3c aca7 8e3c dbb9 bcbd
00000310: 70ea dcbc 2e22 563d 9c35 b03c 3500 9f3d
00000320: d4e8 96bd 6783 ab3d 4c27 803c 4eb7 7e3d
00000330: dad4 6ebd e344 8f3d 998b 2fbd c1b5 8d3d
00000340: df68 953d 32b5 0a3d 5d89 c13d 731a 2dbd
00000350: 9485 b8bd 28f9 23bc 060b 523d 4047 e8bb
00000360: 70c4 64bc 9ea3 36bd 1872 43bc d876 a5bc
00000370: 7c91 c73c d07c 9cbb cb06 823d d39b c03d
00000380: c53a 75bd 9aec 6e3d 9005 debc 5a9d 773d
00000390: c09c 753b 0680 653d 59b9 39bd 0126 37bd
000003a0: 65e1 9c3d 4b1b 33bd fc36 88bd 8c55 af3c
000003b0: f243 153d 61dd 903d 129c 4c3d 4090 7dbd
000003c0: 7810 37bc 48b0 5b3c e8bd 0ebd 60cf aebd
000003d0: 208d 59bc 35b6 8f3d e514 b63d d8fd 5d3c
000003e0: dc23 a3bc ec6e 9c3c 3c6c a1bd aa54 92bd
000003f0: 2a2d 103d 78ec 63bc 2eab 593d d4c8 60bd
0.07877561 0.008969866 -0.011432126 0.05734121 0.023525722 -0.037871435 0.075188465 0.089310296
-0.09504777 0.019349217 -0.020299464 -0.08376947 -0.01374606 -0.050559144 -0.012464166 0.041574694
-0.029527292 0.038571037 0.09053681 0.06063395 0.030330963 0.076069646 0.034805425 0.030102916
0.023379818 0.04586824 0.020112284 0.0024607554 0.042982467 0.094250344 -0.06151894 -0.025645234
0.062762745 0.031781428 0.05376961 0.07717123 0.05993887 -0.08943192 0.034500428 -0.081096604
-0.07074829 0.04107698 0.035383753 -0.018000312 0.033316113 0.010124989 0.016778976 0.04944504
-0.023252308 0.027414307 0.010158122 -0.01362244 -0.09394993 0.08798405 0.080213 -0.040995426
0.024975277 -0.07123769 0.058968656 -0.014032789 0.06579808 -0.051892914 0.056328632 0.06739084
-0.08013174 -0.08447786 0.047368176 -0.090006635 -0.07590894 0.07025928 0.00656797 0.04835411
0.00025224686 0.04467521 -0.03975057 -0.059566304 0.019740038 -0.034499444 0.03159491 -0.043519955
0.07344692 -0.013457604 -0.06984395 -0.089777336 0.0746079 0.044323362 -0.050289154 -0.07561095
0.009707175 0.08187317 -0.019365713 0.016246311 -0.05433709 -0.08189626 0.024604477 -0.059237607
-0.05977354 -0.06922638 0.03751471 -0.032336302 0.015075244 0.033437945 0.025066502 -0.06280934
0.0067358613 0.07561236 -0.08696805 -0.09403019 -0.05651955 -0.030701965 0.06248405 -0.014498934
-0.02951236 0.08269846 0.043235965 -0.09339367 -0.00599017 -0.073042236 -0.0593245 0.082703464
0.09279057 0.092091344 0.074658476 0.052712046 -0.04789508 -0.091437414 0.015623279 0.05625703
0.013363078 0.074224435 -0.06667193 -0.04682839 -0.0135478005 0.017581046 0.030468188 -0.00918559
0.09109997 0.07497006 0.02004575 0.07944549 -0.035355635 -0.095551185 0.057667233 -0.047057427
0.061183847 -0.040963743 -0.027899846 0.08872066 -0.050326318 0.018100023 -0.014666833 -0.032730788
0.08782453 -0.08208864 -0.023745857 0.07390266 -0.06602949 -0.07499395 -0.092147715 0.0332473
0.047350936 -0.0700265 0.076864354 0.0073292777 -0.06144327 -0.079027385 0.069182195 -0.011327818
0.06279936 -0.034526676 0.07124061 -0.08643379 0.030065395 0.010107361 0.090079345 0.08069628
0.02703271 0.013238624 -0.040809218 0.08508248 -0.07716591 0.09325986 -0.012738548 -0.0049763024
-0.09428923 -0.07445103 -0.0014476404 -0.00017920882 -0.03329341 0.041362442 -0.050667327 0.030182816
-0.064274445 0.014550462 0.017413937 -0.092151366 -0.026967257 0.05227869 0.021509938 0.07763711
-0.07368627 0.083746724 0.015643738 0.06218653 -0.05830846 0.06995561 -0.04285774 0.069194324
0.07295393 0.033864208 0.09450028 -0.042261552 -0.09009853 -0.010008134 0.051280044 -0.007088572
-0.01396285 -0.04458963 -0.011929058 -0.02019827 0.024361365 -0.004775621 0.06348952 0.09404721
-0.0598705 0.05833111 -0.027102262 0.060452797 0.0037477463 0.056030296 -0.045342777 -0.044713978
0.07660178 -0.0437272 -0.066511124 0.021403097 0.03644175 0.07073475 0.049953528 -0.061905146
-0.01117336 0.013408728 -0.034849077 -0.085356474 -0.013278276 0.07017175 0.08890704 0.013549291
-0.01991456 0.01909586 -0.07881972 -0.07145055 0.03519932 -0.013911359 0.053141765 -0.054879025

tpcnns.4.bias f4 [12]
00000000: 26ee a4bd ec32 98bc 7018 ca3b 2c0d e4bc
00000010: 18c4 8bbd 2543 60bd 7884 67bd 20b1 09bd
00000020: 30d8 20bc 6c94 d1bc ec05 2abd 00c1 aaba
-0.08053236 -0.018578969 0.006167464 -0.027838312 -0.06824511 -0.054751534 -0.056522816 -0.033616185
-0.009817168 -0.025583468 -0.041509554 -0.0013027489

tpcnn_ouput.weight f4 [12, 12, 3, 3]
00000000: ac84 b73d b920 7fbd ba01 e3bc eadb e63d
00000010: 0065 47bd 0c61 a0bc 4999 5a3d 04e3 08bd
00000020: fbf0 d4bc c928 73bb 32ee 2dbe dae4 79bc
00000030: 8423 b63d 01ac 12bd eb51 54bc 91ca 1a3d
00000040: 2986 523d 675a 1fbc 9db9 843d 2dfa 0b3e
00000050: 46ef 51bd ce6c aabd 7647 093d 2b9a 95bc
00000060: 3778 643d 93c9 a73d 853b 13bd f0d4 dd3d
00000070: cc5b 253c a8c3 b83c 8475 29bc 8fcd 863b
00000080: c117 87bb 6752 903b 557d 003e e484 23bd
00000090: a88e 403d 09b9 d5bb 2da7 633d 06dc c6bc
000000a0: 8910 e7bd a7b5 303d 2b7d 34bc 0643 82bc
000000b0: 31c0 babb c7b0 9dbd a47a ed3d 4d6b cf3c
000000c0: 7139 88bd 4697 5e3d 3485 933c 1d4e 87bc
000000d0: cb2e a23c ecc8 b9bc c241 193c a307 a4bc
000000e0: 8f00 9d3c b49b 6f3b 718a 92bc 95f5 1cbb
000000f0: bfd7 843d bab3 09be a0eb 20bd d41b 59bd
00000100: 26dc cebd 63f0 b6bc fe9f d83c 65cd 1dbd
00000110: 5990 043d 8882 413c 8559 dbbd 2038 e9bc
00000120: df6a d43c f600 b4bd 5898 26bb 0eb5 553d
00000130: 03d9 b93c 2fff 853d 1980 abbd dff6 f5bd
00000140: 4436 5a3b 28f9 4abd 37c2 4d3d b958 103c
00000150: c571 bfbd c8ec 053d 5769 89ba 176b 9ebd
00000160: fc55 e33d 2b90 973d 1817 e6bc 21c8 07be
00000170: 5bc5 273c 9e3f 2dbd 3f63 6cbd 4c64 443d
00000180: 0a01 e83d 005d 05bd 24bc e7bc 0f2b c63b
00000190: b1cc ec3d 3a12 da3b 7fb2 a5bc 8724 c1bc
000001a0: e550 6cbd b122 a03c 11e0 f73d 6183 ae3c
000001b0: a236 933d b64c 5abd 2f49 a1bc 7695 9b3d
000001c0: e19f 29bd d911 84bc 84f6 8c3d 05a5 28bd
000001d0: f690 8bbb e7c6 ccbb fd1b 1cbe 6307 29bd
000001e0: a0e4 bd3d 5a57 6cbd 835e b73b c72f 3c3d
000001f0: f03b 303d 05ff 113c 6b56 9c3d cae2 e03d
00000200: e973 1fbd 07ce 9bbd 1bc7 803d a122 a3bc
00000210: 4116 853d fc24 bc3d a140 53bd 32e9 b53d
00000220: 7d24 073b 614c 6a3c 8525 8abc d220 d5bc
00000230: 2a66 d03c 72ab 173c c822 033e 39cf 3bbd
00000240: 8bb4 0f3d fce2 7e3c 50a4 1d3d 6609 57bd
00000250: 0468 95bd f415 8e3c 474e 493c 96e3 dbbc
00000260: 496c 253c 06cc 8abd 5a22 df3d 5a87 9d3c
00000270: 123d e9bc a5e8 1b3d eda7 2d3d aa1f 1bbd
00000280: ab80 023d 8a23 87bd 3ffe 703c 2825 a6bc
00000290: 5ce1 23bb e7f3 44bd 7eb0 f4bb 23c4 ea3b
000002a0: cfc9 aa3d 2748 3fbe 67b3 08bd 83c7 7abd
000002b0: 92a2 acbd 64e4 6bbd 9f6a ad3c 6889 a3bc
000002c0: d86d 333d 470c 723c 1bde f6bd 364f 51bc
000002d0: c31e d83c cea1 e2bd d6a9 5dbb 01f0 813d
000002e0: b5fb 8d3c 89bb 843d 110c 17bd 28f7 e6bd
000002f0: e016 533c 7cb3 1bbd bf0e 353d f291 233c
00000300: c244 26bd 37c1 1d3c 63e5 153d e037 b8bd
00000310: 5d42 113e bf3d 6d3d 8d02 74bb ea80 17be
00000320: 016a 823c 6a56 b4bc 0ea1 1cbd 29d6 773d
00000330: e5b6 d93d d2d9 c1bc 3c18 98bb f3ec 99bc
00000340: 1912 db3d f7c6 8fbb a213 c63c dd5f 31bd
00000350: 743a 0fbd a9bc f13b 425d e53d a442 503c
00000360: 64bc d83c 9826 dbbd fb37 42bd 4623 2b3d
00000370: 128f 39bd 384c 0e3d b493 bd3d 7835 f0bb
00000380: bd18 e03c 42cc e7bc 9cd4 1cbd bdf9 b9bd
00000390: a0bd 323d d7b4 613d bc0b 013c 0a49 183d
000003a0: 7f2e 033d eb8f 333b 833c 57bc f5c7 8abd
000003b0: 0365 b539 ae47 153d a613 a43a b157 44bc
000003c0: 0419 20bd da3c e3bb a47b 133c 71d8 7fbc
000003d0: dc32 943d 9f76 0ebc e309 293d 6102 8a3d
000003e0: ad29 d1bc 5460 113d 7b3c 163e cc8a 47bd
000003f0: 77fa 4a3b 88cf 963d bbe0 643d b6ba 623c
0.08960852 -0.062287066 -0.027710784 0.11272414 -0.048680305 -0.019577526 0.05336884 -0.033419624
-0.025993815 -0.0037103167 -0.16985396 -0.015252316 0.08893493 -0.035808567 -0.012958984 0.03779084
0.051397476 -0.009726143 0.064807154 0.13669653 -0.05125358 -0.08321534 0.033515416 -0.01826199
0.05577871 0.08192744 -0.035945434 0.1083163 0.010092687 0.022554234 -0.010342959 0.00411386
-0.0041227047 0.0044043544 0.1254781 -0.039921656 0.047011048 -0.006522302 0.055579353 -0.024274837
-0.11282451 0.043141987 -0.0110161705 -0.0159011 -0.0056991805 -0.07699733 0.115956575 0.02531972
-0.06651581 0.054343484 0.018007852 -0.01651674 0.019797703 -0.022678815 0.009354057 -0.020023173
0.019165305 0.0036561312 -0.01788828 -0.002395009 0.06486463 -0.13447466 -0.03928721 -0.053005055
-0.10100584 -0.022331422 0.026443478 -0.038525958 0.032364223 0.011810906 -0.10710434 -0.028469145
0.025929866 -0.08789246 -0.0025420394 0.05217462 0.022686487 0.06542813 -0.08374042 -0.120099775
0.0033296505 -0.04955402 0.050234046 0.008810216 -0.09347872 0.032696515 -0.0010483664 -0.077352695
0.111003846 0.07400545 -0.028087184 -0.13259937 0.010239924 -0.042297 -0.057711836 0.047947213
0.11328323 -0.032559395 -0.028287955 0.0060476135 0.11562479 0.006655005 -0.020226715 -0.023576988
-0.057694335 0.019547792 0.12103284 0.02130288 0.07188155 -0.053295814 -0.019688217 0.07596867
-0.041412238 -0.016121792 0.068829566 -0.041173 -0.004259224 -0.006249297 -0.15245052 -0.04126681
0.092721224 -0.057700492 0.0055959835 0.045944 0.04302591 0.008910899 0.076336704 0.109807566
-0.0389289 -0.07607656 0.06287976 -0.019913973 0.06498385 0.09186742 -0.051575307 0.08882369
0.0020621114 0.014300437 -0.016863594 -0.026016627 0.02543934 0.009257184 0.12806237 -0.04585192
0.03508429 0.015557047 0.03848678 -0.052499197 -0.0729523 0.017344452 0.012286729 -0.02684192
0.010096618 -0.06777196 0.10895224 0.01922958 -0.028471503 0.038063664 0.042396475 -0.037871994
0.03186099 -0.065985754 0.0147090545 -0.02028139 -0.002500615 -0.048084166 -0.0074673286 0.0071644946
0.08339273 -0.18679868 -0.033374216 -0.061225425 -0.08429445 -0.057590857 0.021169005 -0.019962981
0.043805927 0.014773435 -0.12054082 -0.012775233 0.026381856 -0.11066018 -0.0033823154 0.06344605
0.017331937 0.06481082 -0.03687674 -0.1127761 0.012883872 -0.038012967 0.044203516 0.009983527
-0.040592916 0.009628586 0.036595713 -0.08995032 0.14185472 0.057920214 -0.0037232966 -0.1479527
0.015919687 -0.022013862 -0.03823953 0.060506973 0.106305875 -0.023663435 -0.004641561 -0.018789744
0.10696811 -0.004387732 0.024179284 -0.043304313 -0.034967855 0.0073772264 0.11199428 0.012711201
0.02645702 -0.107007205 -0.04741667 0.041781686 -0.045302458 0.034740657 0.09256688 -0.0073305927
0.027355546 -0.02829564 -0.038288698 -0.09080837 0.04363787 0.055104103 0.007876333 0.03717903
0.032026764 0.0027399014 -0.013136986 -0.0677642 0.0003459827 0.036445312 0.0012518063 -0.011983798
-0.039086357 -0.0069347443 0.009001646 -0.0156155685 0.07236263 -0.008695274 0.041269194 0.06738735
-0.025532568 0.035492256 0.14671509 -0.04871635 0.0030972043 0.07363802 0.055878382 0.013838461

tpcnn_ouput.bias f4 [12]
00000000: 3f67 a8bb 2568 17bc a598 b6bc 3cb4 333c
00000010: 01a9 0abe e5bb 51bf 8f66 3bbf e888 38bf
00000020: 2eab 45bf 33cb edbe 8282 5dbd 6f9d 573d
-0.005139261 -0.009241139 -0.022289583 0.010968264 -0.13541032 -0.8192733 -0.73203367 -0.720839
-0.77214324 -0.4644409 -0.05407954 0.052640375
