checkpoint/social-stgcnn-eth/val_best.pth (torch_old, 36928 bytes, 30 tensors)

st_gcns.0.gcn.conv.weight f4 [5, 2, 1, 1]
000000 61 50 c6 bd d2 23 75 be 81 8f a5 be 8b 1c 91 3e
       -0.096833 -0.23939446 -0.32336047 0.2834209
000010 02 1c 04 3f 75 d6 03 be 5f 5b 00 be dd 2f 0c 3f
       0.51605237 -0.12874778 -0.12534855 0.54760534
000020 ae fc 38 3e 71 e9 1d 3f
       0.1806514 0.6168433

st_gcns.0.gcn.conv.bias f4 [5]
000000 90 3f 01 3f 10 3f 02 bf 1b 59 be 3e b6 03 58 bc
       0.50487614 -0.50877476 0.37177357 -0.0131844785
000010 e1 59 c5 be
       -0.38545135

st_gcns.0.tcn.0.weight f4 [5]
000000 d7 dc c7 3e cf 73 65 3f 15 c9 3f 3f a4 5a c3 3e
       0.39035675 0.89629835 0.749162 0.3815509
000010 7a 9c 5a bd
       -0.053371884

st_gcns.0.tcn.0.bias f4 [5]
000000 3d 84 82 bc c2 84 76 3d d8 da 8a 3d c0 01 99 3e
       -0.015932197 0.0601852 0.067800224 0.29884148
000010 ae f4 da 3d
       0.106912

st_gcns.0.tcn.0.running_mean f4 [5]
000000 68 56 ee 3c a2 a2 f9 bc 64 86 bb 3c e7 ee ee ba
       0.029093936 -0.030473057 0.02289123 -0.0018229157
000010 61 7d b8 bc
       -0.022520723

st_gcns.0.tcn.0.running_var f4 [5]
000000 4e 60 27 3c 2b c1 65 3c 2a e8 4f 3c d3 ea 35 3b
       0.010215832 0.014023106 0.01268963 0.0027758374
000010 ca a5 19 3c
       0.009377906

st_gcns.0.tcn.2.weight f4 [5, 5, 3, 1]
000000 30 9e 03 be e8 3c ee bb b3 b8 1f 3d 38 a6 73 bc
       -0.12853312 -0.007270444 0.038994502 -0.014871173
000010 26 45 80 3c fa 8a dd 3d f2 cd 7e be 98 1c 73 be
       0.015657973 0.10817523 -0.2488325 -0.23741376
000020 13 ed 4b 3d 7a cd 5d be 56 7b b8 bd 34 8f 84 3e
       0.04978664 -0.21660414 -0.090078995 0.25890505
000030 9d 92 80 3d 07 82 02 3e ce 80 38 3e 5f 24 71 be
       0.06277964 0.12744914 0.18017885 -0.2354903
000040 83 0a 91 bd e1 dd 08 3e 4f 67 45 be e7 e5 50 3e
       -0.07082083 0.1336589 -0.1927769 0.20400201
000050 b5 08 ef 3c 2e 3f 86 bd 16 5b 7f bd 79 44 72 be
       0.029178957 -0.06555019 -0.062342726 -0.23658933
000060 59 d8 ac be 36 b5 63 be 1f d9 cd 3d 1e bf 8c be
       -0.3375881 -0.22237095 0.10051178 -0.2748956
000070 c0 0a 31 be 51 e1 f6 bd 1e fb 16 be 5a 14 81 be
       -0.17289257 -0.120546944 -0.14744231 -0.2521084
000080 da 3d a9 bd d9 36 8c bd b7 0e be bc f0 a3 86 3d
       -0.082637504 -0.06846399 -0.023200376 0.06574237
000090 0e 30 1b be df 01 07 be 43 02 01 be 38 e6 7e bd
       -0.1515505 -0.13184308 -0.12598519 -0.062231272
0000a0 28 00 26 be a9 a4 3a bd 43 ed 59 bd 31 4a 63 3e
       -0.16210997 -0.04556719 -0.053204786 0.2219627
0000b0 51 00 11 be 45 a5 9f be f8 a9 ee bd c2 19 21 3d
       -0.14160277 -0.31180778 -0.11653513 0.039331205
0000c0 4f da 0b bd 2e aa d4 3c 95 3b 1d 3d c7 9f a6 be
       -0.034143742 0.025960054 0.0383869 -0.32543775
0000d0 1f 49 97 be 38 25 f2 bc 39 a6 fd bc 25 6e dc bd
       -0.29547974 -0.029558763 -0.03096305 -0.10763196
0000e0 ea 6a 48 be 45 c7 6e be 79 ef cb bd 28 2e 15 3b
       -0.19572034 -0.23318203 -0.09957785 0.0022763107
0000f0 7e bd f8 3d 6c 54 f8 3d 0a 5c e1 3d cf 9e 01 3e
       0.12145518 0.12125477 0.11003883 0.12658237
000100 f4 c7 62 bd 99 f8 12 3d e1 6b 1c be cd 5c d7 bd
       -0.05536647 0.035881612 -0.15275528 -0.10515747
000110 f8 f3 2d be 4c 62 b7 3c 31 86 95 3d 72 b3 5a 3e
       -0.16987598 0.022385739 0.073009856 0.21357515
000120 19 57 f9 3c 90 0b 08 3e f7 9a 04 3e
       0.03043704 0.1328566 0.1294974

st_gcns.0.tcn.2.bias f4 [5]
000000 83 c1 e0 3c c1 91 c9 3d 68 8d 1e be 7a 61 9a bd
       0.027436024 0.098422535 -0.1548363 -0.075381234
000010 bc a2 a6 3d
       0.08136508

st_gcns.0.tcn.3.weight f4 [5]
000000 6f 24 30 3e 96 a3 ee 3d a9 27 44 3e 68 1a 5e 3e
       0.17201398 0.11652295 0.19155754 0.2168976
000010 59 a3 5f 3d
       0.05459914

st_gcns.0.tcn.3.bias f4 [5]
000000 43 cf a9 bc 6c 26 86 3e 30 be 1d be ff ca 11 3e
       -0.020728713 0.2620119 -0.15404582 0.14237593
000010 a1 b6 16 3e
       0.14718105

st_gcns.0.tcn.3.running_mean f4 [5]
000000 f6 be d5 bc 59 84 35 be fa 8d c1 be a6 2a c0 be
       -0.026092034 -0.17726268 -0.37803632 -0.37532538
000010 32 50 2a 3e
       0.16632155

st_gcns.0.tcn.3.running_var f4 [5]
000000 b4 21 c7 3d b4 f6 a1 3d be 00 9e 3d c0 4b 3a 3e
       0.09723225 0.07908383 0.07714985 0.18192959
000010 e9 4e 9d 3d
       0.076810665

st_gcns.0.residual.0.weight f4 [5, 2, 1, 1]
000000 01 43 e4 be 38 16 c4 3e 29 2d cd 3e 44 9e df be
       -0.4458237 0.38298202 0.40073517 -0.43675435
000010 15 24 2f bf 24 2a 0a bf 40 b8 01 bd 19 3e 23 bd
       -0.6841443 -0.5397055 -0.031669855 -0.039854143
000020 59 63 81 3c c6 5c d6 bc
       0.015794443 -0.026167285

st_gcns.0.residual.0.bias f4 [5]
000000 8e 0a 84 be b1 1e 47 3e 22 fb e5 be 3a d5 08 3e
       -0.25789303 0.19445302 -0.44918162 0.1336259
000010 c9 75 75 be
       -0.23970713

st_gcns.0.residual.1.weight f4 [5]
000000 a2 74 25 3e 40 61 48 3f f7 c6 55 bd 6d 93 81 3f
       0.16157773 0.7827339 -0.0521917 1.0123116
000010 b1 66 dc 3e
       0.43047097

st_gcns.0.residual.1.bias f4 [5]
000000 43 cf a9 bc 6c 26 86 3e 30 be 1d be ff ca 11 3e
       -0.020728713 0.2620119 -0.15404582 0.14237593
000010 a1 b6 16 3e
       0.14718105

st_gcns.0.residual.1.running_mean f4 [5]
000000 e7 e4 4f be 6b 76 12 3e db ec c7 be 05 ca 0b 3e
       -0.20302163 0.14302985 -0.39047894 0.13651283
000010 70 e7 77 be
       -0.2420938

st_gcns.0.residual.1.running_var f4 [5]
000000 e9 82 7a 3c 7f 84 5d 3c e3 91 ea 3c 9a e1 b0 38
       0.0152900005 0.013520359 0.028634017 8.4343555e-05
000010 b6 ad 01 38
       3.0917778e-05

tpcnns.0.weight f4 [12, 8, 3, 3]
000000 4a 39 b8 bc b8 62 7a bd 90 56 f5 bd f5 0e bc bd
       -0.022488255 -0.0611293 -0.11979401 -0.0918254
000010 3b f8 66 3d 82 b8 de bd 02 34 7f bc 01 35 4a bd
       0.056389075 -0.10875036 -0.0155763645 -0.049366955
000020 01 ec a7 bd cf 7c 12 be b6 f4 9e bd 69 c5 a8 bd
       -0.08199311 -0.14305423 -0.07761519 -0.08240778
000030 bc 2f 92 3d 0e 54 19 3e 59 35 df 3d 8e 4e 8c bd
       0.07138011 0.1497347 0.10898847 -0.068509206
000040 3f f4 3f be fc 40 82 bd d7 59 67 bc db a5 b8 bc
       -0.18745516 -0.06360051 -0.014120541 -0.022540024
000050 77 7e df 3c 86 66 42 3c 87 c3 91 bc 67 b5 57 3d
       0.027281983 0.011865264 -0.01779343 0.052663233
000060 bc e0 49 bd 28 12 46 bd 6b 11 ef bc 76 83 0a 3b
       -0.04928659 -0.04835716 -0.02918311 0.0021135486
000070 6c 10 2b 3d 81 e2 82 3d aa 8d 82 bd 5c 65 86 3d
       0.041763708 0.063908584 -0.063746765 0.065623015
000080 ca 1d 4e 3b 1d 71 ad 3d 17 48 1f 3e d6 1f 11 3d
       0.003145086 0.0846884 0.15554844 0.03543075
000090 8c 03 e4 bc 5e 52 e0 3d ec 38 82 bd 22 ec cf bc
       -0.027833723 0.1095321 -0.06358513 -0.025381152
0000a0 12 42 0e 3d 02 c8 b2 bd a8 1a c3 bc 72 23 f0 3d
       0.03473098 -0.08729555 -0.023816422 0.11725511
0000b0 be 9c 5d 3d 24 94 9f bc 81 2e 02 bc e0 cb 00 3c
       0.05410456 -0.019479819 -0.007945658 0.007861108
0000c0 9d f7 16 3d 52 ad c9 3c 6e fe 3b 3d 08 6d 69 bb
       0.036857236 0.024618778 0.04589694 -0.0035617966
0000d0 ee 3d b3 bd 66 5b 90 3c 09 4a 23 bd 98 83 34 be
       -0.087520465 0.017621707 -0.039865527 -0.17628324
0000e0 4c c2 38 bd 72 b6 f3 3c bc 2b 82 bd e6 a5 61 bd
       -0.04510717 0.029750083 -0.06355998 -0.055089854
0000f0 45 b8 41 bd 56 68 4d be 81 b1 5f bd 63 a6 47 bc
       -0.047294874 -0.20059332 -0.05461264 -0.012185666
000100 e5 05 96 bd 32 fc 8c bd ad 9f c3 3d 1f f6 73 3d
       -0.07325343 -0.0688404 0.0955194 0.05956089
000110 37 83 62 bd 16 01 4c bd ed 08 e4 3d e5 9b 6b 3b
       -0.055300917 -0.049805723 0.11134515 0.0035951075
000120 16 e3 26 bd a5 c9 96 3d d3 34 de bd 4a 41 90 3d
       -0.04074391 0.073626794 -0.10849919 0.07043703
000130 01 81 b2 3d 3a fa 54 bd d3 5f 06 bd 89 76 6a bd
       0.08716012 -0.051996447 -0.03280623 -0.05724195
000140 73 ca d2 bc fb f5 de 3d 91 d2 fe bc 7d 49 57 bb
       -0.025731301 0.10886761 -0.031106265 -0.00328502
000150 5f f2 e2 bd 60 0c fe bc c2 d0 ba bd 20 98 bc bd
       -0.11081385 -0.03101176 -0.09121849 -0.09208703
000160 fa 77 81 bd 03 7f 8c bd d3 50 f6 bc a3 ad 88 3d
       -0.06321712 -0.06860163 -0.030067837 0.066737436
000170 87 b7 2a bd b0 1e a6 3d 68 bd 4b 3d 6e 69 43 bc
       -0.04167893 0.08111322 0.04974118 -0.011926992
000180 7e 5d 6f bd 41 90 57 3d 2a c8 2b bd 4d 1d 8e 3d
       -0.05843877 0.052627806 -0.04193894 0.069391824
000190 db 89 42 be 03 ad 8e bd 7b 47 3e bd 85 5f 0f bd
       -0.189979 -0.06966593 -0.046454888 -0.035003204
0001a0 92 42 da 3d f5 d8 7e 3d 15 d6 01 bd 06 c9 8b 3c
       0.106572285 0.062218625 -0.031698305 0.017063629
0001b0 ea a0 e0 3d 49 4e 9f 3d f6 bb 92 3d 24 4d b3 bd
       0.10968192 0.077786036 0.07164757 -0.08754948
0001c0 3e e8 22 be 79 6b 76 bd 15 65 8e bd 26 99 6b be
       -0.15908906 -0.060161088 -0.069528736 -0.2300764
0001d0 d1 ab a1 bd 5f 32 f6 bc 26 53 e9 3c c0 cd 8d 39
       -0.078940995 -0.030053316 0.028482031 0.0002704691
0001e0 57 cc 07 3d 5e 87 bf 3d ac 12 58 bd a7 74 90 bd
       0.033153858 0.09351991 -0.052752182 -0.070535
0001f0 a1 98 c6 3c a9 cd 7c bc f1 16 35 bd 82 95 09 3e
       0.024242701 -0.015429893 -0.04421133 0.13435939
000200 01 e6 27 3d 52 f6 05 3d 91 29 6a 3e 90 9a 91 bc
       0.040990833 0.032705612 0.22867419 -0.017773896
000210 77 e9 93 3d 0a 5e b4 3c 4b da 0b bd ed 90 b5 bd
       0.07222264 0.022017498 -0.034143727 -0.08865533
000220 cd 6f f8 3d 21 fa ba 3d d1 7b 2b 3c d5 b9 c1 3d
       0.12130699 0.091297396 0.010466532 0.09459273
000230 14 3d 3e bd 24 11 af 3d 04 dd b2 3d d8 f5 fa 3c
       -0.046444967 0.08548191 0.08733562 0.030634806
000240 6e a9 c6 3c a5 c5 12 3d 78 b3 99 bd 58 68 9c bc
       0.024250712 0.03583302 -0.07504934 -0.019092724
000250 b6 b5 8d 3d e6 47 bf bd d4 08 ce 3d b4 81 18 3e
       0.06919424 -0.093398854 0.100602776 0.14893228
000260 b5 24 11 bd 00 48 17 be 1a 1e 43 be d7 c5 c0 bd
       -0.035435397 -0.1477356 -0.19054452 -0.09412735
000270 bc ec 70 bd 0e e5 d3 bc 05 70 00 be a0 e0 a1 3c
       -0.058819517 -0.025866058 -0.12542732 0.01976043
000280 2e b9 d2 3d cf 74 f3 3b 4b 46 bd bd f4 ee b4 ba
       0.102892265 0.007429696 -0.09241923 -0.0013804124
000290 96 ae ac bd 65 4d 9c bd 07 ce 96 bc 00 e3 1a bc
       -0.08431737 -0.07631949 -0.018408788 -0.009453535
0002a0 7e 56 a8 bd 99 ae c2 3c 08 b3 af 3d de a3 54 3b
       -0.08219622 0.023764895 0.085790694 0.0032446305
0002b0 89 ba 16 3e be c8 44 bd 23 ce d3 bd 1d b4 64 3c
       0.14719595 -0.048043005 -0.10342052 0.013958958
0002c0 e0 ce 2d bd 86 2c a3 bd f2 59 f9 bd 6e 40 93 3d
       -0.04243362 -0.079674765 -0.12175359 0.07190023
0002d0 4e d5 59 3c 9f c8 cb 3a cf a1 9d 3d 2e 6d 86 bc
       0.013295485 0.0015547461 0.07696878 -0.016409483
0002e0 99 6a b5 bb 89 5a 4e 3c e1 97 2d 3d e9 15 0e bd
       -0.005536389 0.012594827 0.04238117 -0.034688864
0002f0 73 70 80 bd 18 91 0e 3d f9 e9 d3 bc 09 a0 33 bc
       -0.06271448 0.03480634 -0.025868403 -0.010963448
000300 26 97 9d bd 8c 31 05 bd c2 81 0d bc de 44 0c 3e
       -0.07694845 -0.032517955 -0.008636894 0.13698146
000310 5f ea e2 3d 24 d4 28 3d ac 98 94 bd ee 0c da bc
       0.11079859 0.041217938 -0.07255682 -0.026617493
000320 87 38 0b be 67 b1 c8 3c 56 31 b2 3d 76 8b 19 bc
       -0.13595782 0.024498655 0.08700816 -0.009371629
000330 94 e3 7c 3b 48 4e 97 3d 21 c0 3e bd a5 22 2e bc
       0.0038587796 0.07387978 -0.046569947 -0.010628377
000340 6e fb 01 bd e2 4e 37 3c b4 3f 1a 3e 4e c1 01 3d
       -0.031733923 0.011188241 0.15063363 0.03167849
000350 46 1e dc bd 15 91 cc 3d 72 b4 75 bd 5d b1 6a 3d
       -0.10747962 0.0998861 -0.05998654 0.057298053
000360 b9 68 71 bd 4a c4 50 bd be 38 05 be 68 23 ef 3d
       -0.058937762 -0.050968446 -0.13009927 0.11676675
000370 27 83 2b bd fb ef 64 bd 6a 86 d2 bc 51 70 1a be
       -0.041873123 -0.055892926 -0.02569886 -0.15081908
000380 c6 4d 29 bd 09 e2 68 3d 1d e9 ce 3d f7 8d ec bc
       -0.041333936 0.05685619 0.101030566 -0.028876288
000390 e9 c3 62 3d 49 3c 1b 3d bf ae 4d bd 07 14 9d bb
       0.055362616 0.03789929 -0.05021548 -0.004793647
0003a0 1f be 62 bd 03 3e ce 3d 39 cd b2 3a 97 ad 9f 3b
       -0.055357095 0.100704215 0.0013641483 0.0048729884
0003b0 45 de 33 bc 6d f9 6c bd 59 54 89 3c 3f 37 19 3d
       -0.010978286 -0.05785506 0.016763853 0.037406202
0003c0 0a 9a 0c bc 97 b9 a7 3c 22 58 81 3d a1 85 3f bd
       -0.008581648 0.020474238 0.06315638 -0.046758298
0003d0 8c 52 93 bd 59 9f 5e 3d 2e 85 b8 3d 26 c8 92 3c
       -0.07193479 0.054351185 0.09009777 0.017917704
0003e0 51 9b 73 3d 4f d4 0b 3c df bd 34 3e 1b d3 7d 3d
       0.059474293 0.008534505 0.17650555 0.061968904
0003f0 11 da 7a 3d ca 0f 04 3d 6c 4c d8 3d 21 66 1b 3d
       0.06124312 0.03224162 0.10561451 0.037939195

tpcnns.0.bias f4 [12]
000000 2b 48 4e bb f0 94 77 be 2d a3 88 be eb b9 92 bd
       -0.003147612 -0.24177909 -0.26686993 -0.07164367
000010 c7 6f 5b 3e a4 2b 5c 3d 74 98 62 3e 30 6d c5 3d
       0.21429358 0.053752556 0.22128469 0.096399665
000020 23 4d 17 be 2b eb 5b bd 13 af 8c 3c fb 64 d9 bd
       -0.14775519 -0.05369107 0.017173326 -0.106149636

tpcnns.1.weight f4 [12, 12, 3, 3]
000000 f2 19 80 bd d0 85 88 bd 01 3c e0 3c 70 a2 4d 3d
       -0.06254949 -0.06666148 0.027372362 0.05020374
000010 3d b1 87 bc 07 4f 33 bd 85 17 6b bd 8f 7b d1 3d
       -0.016564006 -0.04377654 -0.057395477 0.10228645
000020 ac d9 39 3d e8 c0 22 3d 01 e1 6c 3d 1b 99 93 3c
       0.045373604 0.03973475 0.057831768 0.018017342
000030 cc 57 d1 3b 2e 82 ac 3d 39 c4 45 3d b5 5f 82 3c
       0.00638864 0.08423267 0.048282836 0.015914777
000040 ea 7c 37 3e 3b 1a 11 3e 02 e9 7c 3c 8f 76 0c 3d
       0.17918745 0.14170162 0.015436413 0.034292754
000050 b4 ee be 3d 0b b5 ec bd 1b b5 06 3d 27 41 ac 3d
       0.09322873 -0.11557969 0.03288756 0.08410864
000060 dd fe 35 bd f5 28 ea 3c 67 b4 32 bb ef 5f 74 3d
       -0.04443251 0.028583983 -0.0027268173 0.059661802
000070 0f d0 9c bb 94 ff 84 bd 23 e5 5f bd a4 e1 0b 3d
       -0.0047855447 -0.0649406 -0.05466188 0.034150735
000080 8f 3e fa 3c 0f b0 dc 3d b2 83 1b 3e ad 57 6a bc
       0.030547408 0.10775768 0.15186957 -0.01430313
000090 b3 c7 ba 3d 2e 05 bb bc 81 fe bf 3c be 9e 16 3e
       0.09120121 -0.022829618 0.023436787 0.14708993
0000a0 bc ef 5e 3d aa 4f 54 3d 10 f8 b6 3d ff 62 81 bd
       0.054427847 0.051833786 0.08934033 -0.0631771
0000b0 55 04 93 3d a8 b4 c1 bc c6 9a 94 3a 64 b0 0f 3d
       0.07178561 -0.023645714 0.001133763 0.03508033
0000c0 08 db 65 3c 43 66 ba bc bc b5 3b bd 5c 9c 28 bd
       0.014029272 -0.02275384 -0.045827612 -0.04116474
0000d0 33 5c 1f 3d 0f 9a a4 bd 47 90 ed bc d9 33 bc bd
       0.038906287 -0.08037197 -0.02899946 -0.09189577
0000e0 e9 6c 41 bd ac 93 7b bb 77 dc 79 3c 87 ce fe bc
       -0.047223005 -0.003838758 0.015250317 -0.03110434
0000f0 1a 0c 8d bd df 12 d1 bc a5 be 79 bd c1 fd 63 bd
       -0.06887074 -0.025521694 -0.06097283 -0.05566192
000100 9f ae f1 3b f5 bc 89 bc 6a 87 6d bd a3 a3 c4 bd
       0.007375553 -0.016813735 -0.05799047 -0.09601524
000110 e9 f3 79 3d ad 7e 07 be 35 90 23 bc 46 06 6c bd
       0.061023626 -0.13231917 -0.009983112 -0.05762317
000120 1d f1 c6 bd 80 2f 96 3d 86 63 d5 bd 06 17 03 bd
       -0.097139575 0.07333279 -0.10419373 -0.03200438
000130 0e 9e f3 bc a1 60 25 bd 71 d7 78 3d dc de be bd
       -0.029738452 -0.040375356 0.060752336 -0.09319851
000140 32 a1 62 37 81 3e 95 bb fc e1 c6 3d cb c0 41 3d
       1.3508181e-05 -0.00455457 0.09711072 0.047303002
000150 10 22 3d bd a8 29 aa 3d 26 17 87 3d 0f e5 f7 bd
       -0.046175063 0.083087265 0.06596212 -0.12104236
000160 d5 73 9c 3d 39 65 58 bc c7 e9 19 3e 26 c9 45 bd
       0.07639281 -0.013207727 0.15030585 -0.048287533
000170 8a 87 a6 bd 29 da b7 bc fc 76 80 3d 72 5c eb bd
       -0.08131321 -0.022442894 0.062726945 -0.11492242
000180 59 ee a6 3d ce 74 8a 3b f1 c3 70 3d 64 98 a1 3d
       0.0815093 0.00422535 0.058780614 0.07890394
000190 29 a7 54 3d 0f 73 a3 bd 28 4a 46 3d 2a 8d 83 3d
       0.05191723 -0.0798093 0.048410565 0.06423409
0001a0 57 9a be bc 57 4a 7b bd 7d 77 b5 bd e3 ad c7 bd
       -0.023266954 -0.061350193 -0.08860681 -0.09749963
0001b0 48 70 37 bd a8 bc 8e 3d f8 a6 01 bd 1f 6a 26 3d
       -0.044784814 0.06969577 -0.031653374 0.04062855
0001c0 e1 24 94 bd c6 9a 1e bd ec f0 03 bd d0 74 a8 bd
       -0.072335966 -0.038721822 -0.032212183 -0.08225405
0001d0 df 74 82 bd 61 f3 a9 3d ea 8c 59 bd 74 dc 59 bd
       -0.06369948 0.08298374 -0.0531129 -0.053188756
0001e0 4a da fc 3b ff 4d fb bb 74 e5 36 bd 23 4d 6c bd
       0.007716452 -0.00766921 -0.044652417 -0.05769075
0001f0 e4 fe 99 bd 50 cb 01 3d bf fd ae bc 48 75 41 3c
       -0.0751932 0.031688035 -0.02136123 0.011807747
000200 7b e7 ab 3c e1 5a 37 3d 06 ad c1 3a bb 6e 9f bd
       0.020984402 0.044764403 0.0014776296 -0.07784792
000210 15 1a 39 3d b5 88 a3 3d 89 af b5 3a 31 86 da 3a
       0.04519089 0.07985059 0.0013861518 0.0016672072
000220 38 2a 99 bc 26 ab b1 bd 23 76 9b bd 16 d2 64 3c
       -0.01869689 -0.08675222 -0.07590892 0.013966104
000230 4f 7b 21 bd a5 f7 ff 3c a2 8d 67 bd bc 8b 88 bd
       -0.039424237 0.031246016 -0.056531556 -0.06667277
000240 b2 e1 90 3d f6 7b 39 3d b1 e5 b2 bd e0 95 86 3d
       0.07074298 0.045284234 -0.087352164 0.06571555
000250 66 f2 0b bc 81 af a1 bd fc b4 12 be aa d7 c9 bc
       -0.008541679 -0.07894803 -0.14326853 -0.02463897
000260 4d 28 9a 3c bf a9 70 bc 01 64 d3 3d 5a 63 72 bd
       0.018818045 -0.014688908 0.103218086 -0.05917678
000270 62 6c 8f 3d 7e ef 31 bd 3b 7f ee 3c 44 54 8f 3d
       0.07003094 -0.04344129 0.029113403 0.06998494
000280 1b 69 95 3d 35 c1 f2 3d e3 d6 6b bc 76 16 de bd
       0.07295438 0.118532576 -0.014394495 -0.10844128
000290 df 82 da 3c 2d dd 90 bd f5 c6 4b bd e0 f4 53 bd
       0.026673732 -0.07073436 -0.049750287 -0.051747203
0002a0 a6 72 9e 3c ed 23 85 3a 21 bb e9 bc bf 83 b2 3d
       0.019341778 0.0010157801 -0.028531613 0.08716535
0002b0 e9 fa f1 3d 96 3e 88 bd dd dc 4b 3c 72 81 d1 3d
       0.118154354 -0.06652562 0.012442795 0.10229768
0002c0 0b d1 df bd d7 fc a8 3b c3 63 65 bd 26 28 f8 bb
       -0.10928544 0.005157094 -0.056003343 -0.0075731454
0002d0 63 55 57 3c 1c a2 24 3c 82 6e 11 bd b7 2f 1d bd
       0.013142916 0.0100484155 -0.03550578 -0.038375583
0002e0 43 8d a5 bd 18 b8 96 bd 6d 47 f9 3c 5b c0 2f 3d
       -0.08083584 -0.07359332 0.030429566 0.042908054
0002f0 2b ed b3 3c 75 5f 8b bc 8e c2 7c bc 50 bf 47 bc
       0.021963676 -0.01701329 -0.015427245 -0.012191609
000300 34 09 5b bd 2c 48 90 bd 4e bd c2 3c 76 eb 8c 3d
       -0.053475574 -0.07045016 0.023771908 0.06880848
000310 40 eb c8 bd 2c 58 a2 3c 01 9c 8a 3d 5e 44 bc 3d
       -0.098104954 0.019817434 0.06768037 0.091927275
000320 e0 09 92 bd 95 f1 51 bd cc 0b cd bd a2 6d 3a bc
       -0.0713079 -0.05125578 -0.10012016 -0.011378678
000330 3d c9 ca bc 64 cb c9 3d 40 c9 4c 3d 0d 44 63 bd
       -0.024754161 0.09853247 0.049996614 -0.05548482
000340 34 fa a9 3b 6d b6 1f bd 52 3a a4 bd 67 45 30 3c
       0.0051872972 -0.038992334 -0.08018936 0.010758734
000350 4c 66 e2 3b 76 84 d1 bd c8 c0 9a 3d d1 aa 0e bd
       0.0069091674 -0.10230343 0.07556301 -0.034830872
000360 9b 38 c1 3d 87 8f ac 3d b9 46 3c 3d 5c 0d 69 bd
       0.09434625 0.08425813 0.045965884 -0.056897506
000370 bd 6d 17 bc b0 af bc bd d4 f9 a0 3c 63 ee e9 bc
       -0.009242472 -0.09213197 0.019650377 -0.028556054
000380 7a cc 50 3c eb 17 d2 bc 32 a8 bd bd c8 5a a5 3d
       0.0127440635 -0.02564617 -0.09260596 0.08073956
000390 1d da 5d 3d 92 7d 05 3c 18 b5 5d bb f1 ce 98 3d
       0.054163087 0.008147614 -0.0033829864 0.07461346
0003a0 fe 2d 72 bd 95 54 69 3d 92 89 a2 3d c9 53 e2 bc
       -0.059125893 0.05696543 0.07936396 -0.027627843
0003b0 37 3b 92 3d 98 8d 5d bc 1b 80 9c 3b 0d 5e 4d bd
       0.071402006 -0.013522528 0.0047760135 -0.050138522
0003c0 d8 a8 18 bd 04 bc d2 3c 6e be de 3c 7d af e9 3d
       -0.037270397 0.025724418 0.027190413 0.11410425
0003d0 f4 28 1f bd 04 b0 11 bd fc 05 b0 3d 4a b5 05 3d
       -0.038857415 -0.035568252 0.085948914 0.032643594
0003e0 98 d7 07 3d 80 db 0e 3c 90 0d 90 bd 77 2f 9d bb
       0.03316459 0.008719325 -0.07033837 -0.004796918
0003f0 4c b0 cd bc 1e 0d 68 bd ad ed df bc 62 e5 4b bd
       -0.025108479 -0.056653135 -0.027335012 -0.049779303

tpcnns.1.bias f4 [12]
000000 1c 60 99 3d 42 32 6d bc 4c 0b 72 bd 21 00 71 3e
       0.074890345 -0.014477314 -0.059092805 0.23535205
000010 ba 9c be bc ef e8 c0 3d f5 44 62 3e 3e 19 18 3e
       -0.023268092 0.094194286 0.22096618 0.14853379
000020 c2 7e b9 bd 90 ec 6f 3d 4b 6c f1 3d 0f f7 97 3d
       -0.0905738 0.058575213 0.11788233 0.074201696

tpcnns.2.weight f4 [12, 12, 3, 3]
000000 db 1b cd 3c 6e df 29 bd 36 fe 4e bd 4c 2c 6e 3c
       0.025037697 -0.041472845 -0.050535403 0.014536928
000010 f7 ad ab bd 0f 7f 80 bc cb 52 96 bc 66 84 95 bc
       -0.083827905 -0.015685586 -0.018350026 -0.018251609
000020 d7 da b0 bb cb b5 9c 3d 91 13 0d bd f3 e7 ea bc
       -0.0053971815 0.07651862 -0.034442488 -0.028675055
000030 8a f2 ac bc 80 47 cd 3d 6a e7 32 bb 8d da 51 bd
       -0.021111745 0.10023403 -0.0027298578 -0.051233817
000040 bb d5 9f 3d e1 ad 69 bd 7f 6e 60 3b e4 4a 0c bd
       0.07804438 -0.05705059 0.0034245548 -0.03425111
000050 56 8b 19 3d 34 ac 69 3c bb 9c 35 bc 27 f0 28 3d
       0.037486397 0.014262248 -0.011084731 0.041244652
000060 22 41 9d 3c 7d 01 94 3c aa cd 1e bd 87 06 33 3c
       0.019196097 0.018067116 -0.038770355 0.010926849
000070 31 a0 61 3d 62 0e 9b bc 55 d7 82 bd cd c1 cd bc
       0.05508441 -0.018927757 -0.063887276 -0.025116825
000080 89 2f d8 bc 53 90 25 3d c6 6d d3 bd 3f ab 96 3d
       -0.026389854 0.04042084 -0.10323672 0.07356881
000090 89 44 85 bc 80 1c 16 bc db 32 e5 bd 9f c8 d5 bc
       -0.016268032 -0.009162068 -0.111913405 -0.02609664
0000a0 e4 b7 3d bd 45 c0 e0 3c 74 13 b7 bd 29 c6 70 be
       -0.04631795 0.027435431 -0.08939257 -0.23513092
0000b0 5e 36 d1 bd 03 0c 9a bd dc bb ed bd 41 cb 12 3b
       -0.10215448 -0.07521822 -0.11608097 0.002239898
0000c0 a8 a5 a4 38 b3 2c b2 bc ed 75 a5 3d a3 be 34 3d
       7.850985e-05 -0.02174983 0.08079133 0.044127118
0000d0 92 b3 09 be 0a 0d 0d be ce 67 c3 3d c9 f1 6f bd
       -0.13447407 -0.13774505 0.095412835 -0.058580194
0000e0 3a e0 e7 bc 4b 12 af 3d da 79 1d bd 32 39 dc 3c
       -0.028305162 0.08548411 -0.038446285 0.026882742
0000f0 dc 9a 1e bc df a5 12 bc b6 4f d4 3d a7 f1 55 bd
       -0.009680476 -0.00895068 0.10366766 -0.05223241
000100 ed 73 af 3d 6c 39 10 bc 15 d8 b0 bc 58 70 bb 3d
       0.08567033 -0.008802753 -0.021587411 0.09152287
000110 43 70 b9 3c fb c7 ea bc 43 a3 f7 3c df 06 27 3c
       0.022636538 -0.028659811 0.030229216 0.010194509
000120 9c 61 13 bd 04 d9 26 bb dd 72 10 bd 6c a3 05 bd
       -0.03598176 -0.0025458941 -0.035265792 -0.032626554
000130 be 7c e1 3c 1d ca d3 bc d0 38 b1 bd c3 ac d2 bd
       0.027525302 -0.025853211 -0.08653414 -0.10286858
000140 2c 49 4a bd 5e aa 9e 3b 84 67 df bc 12 89 ff 3c
       -0.04938619 0.0048420867 -0.02727104 0.03119329
000150 af 89 2f bd 94 ec ba 3c 98 50 e4 bc 0a 6b 56 3d
       -0.042855915 0.022817887 -0.027870461 0.052348174
000160 81 e3 cc 3d 31 c8 48 3c b4 00 94 3d d3 d4 4e bd
       0.100043304 0.012254761 0.072266966 -0.050495934
000170 aa 21 70 3c c8 d8 2b bc 38 68 a7 3d 12 22 a8 3c
       0.014656464 -0.010488696 0.08174175 0.020524058
000180 df 23 8f 3d be 03 cc 3c 9e 2c b7 3d 73 40 05 bd
       0.06989264 0.024904128 0.08944057 -0.032532167
000190 68 a5 7b bd a2 93 9d bd 83 81 60 bd bb 5c 01 3d
       -0.06143704 -0.07694174 -0.054811012 0.031582575
0001a0 85 5d 47 3d 47 b2 f0 3c a6 6c 69 bd 37 54 92 ba
       0.04867317 0.029381884 -0.05698838 -0.0011164014
0001b0 f8 6f 55 bc 45 4e c2 3c 77 cb 9a 3d 58 a6 cf 3d
       -0.013027184 0.023718962 0.07558339 0.101391494
0001c0 42 58 40 3d b7 92 4d 3d bb 45 75 bd 13 e3 53 3d
       0.04695917 0.050188746 -0.059880953 0.051730227
0001d0 2a 23 54 3d a6 d1 98 3c fa 4c 96 bd 4e 0e 6e bd
       0.051791348 0.018654656 -0.07338901 -0.05811911
0001e0 ea 6f 7f bd 4c c3 19 bd 95 26 17 bd da af 24 3c
       -0.06236259 -0.037539765 -0.03690203 0.010051692
0001f0 5b 55 a2 3d 56 51 70 bd b9 d7 a1 3d 47 40 32 bd
       0.079264365 -0.058671318 0.07902474 -0.04351833
000200 48 ae f1 3d ae 99 cc 3d ed f1 d8 3d b3 1e a2 bc
       0.1180082 0.099902496 0.10593019 -0.01979003
000210 59 49 74 3d 11 b8 05 3d 59 6d 62 3c 5d 3c 2c bd
       0.059640262 0.032646243 0.013820016 -0.042049754
000220 42 46 ed bc 57 b0 8b bc 17 0a 07 3d e7 cf c2 bd
       -0.028964166 -0.017051859 0.032968607 -0.095123105
000230 49 5c f9 bd 64 42 47 3d 25 b4 a5 bd fc 63 5f bd
       -0.12175805 0.0486473 -0.080910005 -0.054538712
000240 98 4f eb 3c 12 11 b3 bd d9 63 58 3d ee d3 ad 3c
       0.028724477 -0.0874349 0.052829597 0.02121922
000250 4a 9c aa 3c 46 a7 c5 bd 0e 4b 84 bc 31 a1 d2 bc
       0.020826478 -0.096510455 -0.01614907 -0.025711628
000260 69 ac 00 3d dc 75 06 bd 05 71 8e bd fe 39 b3 bc
       0.031414423 -0.032827243 -0.069551505 -0.021878239
000270 d7 6c 7a bc 8c 2b b7 3c cb db bb 3d 73 8f 8f bc
       -0.0152847385 0.022359632 0.091727816 -0.017524457
000280 78 9d d9 bb 9c 57 1f bb 44 85 e7 bc 3d 74 79 bc
       -0.006641086 -0.0024313694 -0.028261788 -0.015225467
000290 d6 a2 22 3d 56 07 19 3d c2 63 76 3d 8e 4c c6 3d
       0.039706074 0.03736051 0.06015373 0.096825704
0002a0 72 9d 9a 3b 0c 25 dd bd a1 a5 8c bd 78 29 04 bd
       0.004718476 -0.10798082 -0.06867529 -0.03226611
0002b0 03 c9 ff 3d 97 dc 01 be ae f4 af 3d 21 80 5b 3d
       0.12489512 -0.12681805 0.08591591 0.05358899
0002c0 90 bf 8b bd 80 55 f6 bc 35 9d 7a bd 05 24 90 bb
       -0.06823647 -0.030070066 -0.06118508 -0.004398825
0002d0 c8 ff d6 3d ea 33 8b 3d 25 9a d9 3d a2 ad 6e 3d
       0.10498005 0.06797011 0.10625104 0.058271058
0002e0 4b 64 67 3d f7 8e 6e 3d 05 7d c6 bd fb 91 f9 3b
       0.05649213 0.05824181 -0.09691814 0.007616279
0002f0 b7 5b 8d 3d c2 57 06 3d 5b 34 b0 3d 58 fd 91 3d
       0.06902259 0.032798536 0.08603736 0.071283996
000300 30 79 20 bd ef 37 79 3d f8 a2 8c bd 0f 68 af 3d
       -0.039178073 0.060844358 -0.06867021 0.085647695
000310 15 c5 eb 3c 3d c2 50 3d 04 e3 2d 3c 53 74 e4 3c
       0.0287805 0.05096649 0.010613207 0.027887499
000320 85 6c 48 bd 60 2c ba bd 6d 41 e6 bd 93 b0 2f 3d
       -0.048931617 -0.09090495 -0.11242948 0.042893004
000330 38 2d 9c bc f3 3c 2b bd 0f e0 83 ba c9 39 85 3d
       -0.01906453 -0.041806173 -0.0010061282 0.06505162
000340 7d 70 f4 bd f5 2b 17 be 25 ae 2c 3d be d9 04 3c
       -0.11935518 -0.14762862 0.042158265 0.008108554
000350 04 dc b8 3c 26 87 ab 3d 1a 2d 65 bc 28 16 6d 3d
       0.02256585 0.08375387 -0.013987804 0.057882458
000360 97 16 a8 3d c6 77 e9 3d e9 67 b8 bc 1f 99 d3 3c
       0.08207434 0.11399798 -0.022510486 0.02582985
000370 02 08 c8 bd 33 a1 48 3d 4b 46 0a 3d 21 3e 2a bd
       -0.09767152 0.048981857 0.033758443 -0.041563157
000380 ba 54 eb ba aa 65 7c bd 06 34 a0 bd 91 26 23 bd
       -0.0017954328 -0.061620392 -0.07822423 -0.0398317
000390 50 52 a1 3d 3e c9 3a 3c 94 9e 9d 3d d7 a2 ce bc
       0.07877028 0.011400519 0.07696262 -0.025224132
0003a0 ca f0 6e bd 9e 83 8d bd 1e c5 68 bd 65 53 71 3d
       -0.058335103 -0.069098696 -0.05682861 0.05891742
0003b0 69 61 f3 bc f6 0b 53 bd 99 35 15 be f9 07 ad 3c
       -0.029709535 -0.05152508 -0.14571227 0.021121966
0003c0 fe e6 94 3b b1 c8 29 be a7 4a ba bd c6 3c 8a bd
       0.004544138 -0.16580464 -0.0909627 -0.06749873
0003d0 f5 84 96 3d a1 5c d1 bd 1f 75 05 be 50 a7 73 3c
       0.07349578 -0.10222746 -0.1303296 0.014871433
0003e0 f7 5f f7 bd 05 6f 08 bd 01 4b 40 3e 35 0a b9 bc
       -0.12078851 -0.033309 0.18778612 -0.022587875
0003f0 93 66 7c bc 23 79 19 be 42 f5 56 bd 50 19 51 3d
       -0.015405315 -0.14987616 -0.05247999 0.05104953

tpcnns.2.bias f4 [12]
000000 d1 2a 02 3e 42 11 ab bd ae 8b b3 3d a5 a5 85 3e
       0.12711646 -0.08352901 0.08766876 0.2610294
000010 27 6e 6b bd f7 a9 18 3e e4 23 db bd 8e 11 64 3e
       -0.057478096 0.14908586 -0.10700205 0.22272322
000020 60 b6 d4 3b 95 7c 2b bd 5a 15 8c 3e 85 eb 9b bc
       0.0064914674 -0.041866858 0.2736004 -0.019033203

tpcnns.3.weight f4 [12, 12, 3, 3]
000000 d1 dd 4e bd 57 fb f9 bc 93 e9 49 bc 00 e1 f9 bd
       -0.05050451 -0.030515356 -0.012323755 -0.122011185
000010 6c 6a c6 3b 98 56 87 3d 38 a2 70 bb fa 43 4f bc
       0.006055167 0.06608313 -0.0036717784 -0.012650484
000020 61 db b6 bc c0 e0 76 bd db ad 9e 3c 78 d9 54 3b
       -0.022321405 -0.060272932 0.01937001 0.0032478254
000030 c9 af 08 bc f8 d1 5b bd 30 ad c1 bd fe 5b a7 3d
       -0.008342692 -0.05366704 -0.09456861 0.08171843
000040 d0 a3 84 bd 4f f0 e5 bd 1e 68 92 3d 70 f5 bd bc
       -0.06476557 -0.11227476 0.07148765 -0.023188323
000050 c6 ee 9a 3d b6 c2 0b 3d 2e 6b 1f bd cf 5f 16 bd
       0.07565074 0.034121238 -0.038920574 -0.036712464
000060 4a 56 9b bd 22 16 89 3d f4 2b 82 3d ec f9 84 bd
       -0.07584818 0.066936746 0.0635604 -0.06492981
000070 f9 54 94 3c 04 1a 7b 3d 85 80 a7 bd ca 7f 33 bd
       0.018106924 0.061304107 -0.0817881 -0.04382304
000080 71 aa 5d bd 4f 07 81 bd 0c 31 90 bd 25 ca 8a bd
       -0.054117624 -0.06300222 -0.07040605 -0.06776837
000090 18 d4 89 bc e1 e5 51 3d 8e 5d 75 bd d4 87 49 3d
       -0.016824767 0.05124462 -0.059903674 0.0492018
0000a0 4d f7 06 bd 15 d6 06 3a 4b 19 70 bd ae f1 66 be
       -0.03295069 0.0005143595 -0.05861787 -0.22553131
0000b0 b1 31 c4 bd ce 3c a0 3c 16 e0 8e bc 65 60 2c 3d
       -0.095797904 0.019560244 -0.017440837 0.042084116
0000c0 75 f5 f0 bc 13 78 bb 3d bb 3f b7 bc e9 fc 09 bc
       -0.029413918 0.09153762 -0.022369256 -0.008422115
0000d0 ad 49 b2 3a b4 54 83 bd 11 32 4a 3d d8 10 49 bd
       0.0013602279 -0.0641264 0.049364153 -0.04908833
0000e0 6b ac 87 bc 50 3e 22 bd 84 dc 55 3d be c6 a7 3d
       -0.016561707 -0.039610207 0.052212253 0.08192204
0000f0 76 99 c8 3d 87 08 20 3e 58 15 66 bd c2 2c c5 bd
       0.09794895 0.15628253 -0.0561727 -0.096276775
000100 9f fa ee bc 74 cb 31 3c a0 ee d7 bc 07 f7 bd bd
       -0.02917224 0.01085173 -0.026358902 -0.09275632
000110 dc ff be bd 8f c7 ab 3c 68 ce bf 3d d5 4b a2 bd
       -0.09326145 0.02096918 0.09365541 -0.0792462
000120 93 f5 c3 3d f8 30 e2 bc 69 eb e7 3c e6 17 41 bd
       0.09568324 -0.02761124 0.028310494 -0.047141932
000130 80 9d f1 3d 2b 30 e6 3d 1a 01 b3 3d 3f e9 89 3d
       0.11797619 0.11239656 0.087404445 0.06733941
000140 36 32 c3 3d b5 87 15 bd 77 ec 2c bd 99 f7 f7 bd
       0.09531061 -0.036506373 -0.042217698 -0.121077724
000150 3a 62 a3 3d 3d 14 0d 3d 34 78 cc 3c 7d 0e a0 3c
       0.079777196 0.03444313 0.024959661 0.019538159
000160 f4 5a 2b 3e 78 b4 cb bb ff 6f 98 bb cf 4c ab 3d
       0.16733915 -0.006216582 -0.004652023 0.083642595
000170 61 cc a7 3c 08 b0 60 bd 57 be b4 3d 15 b8 95 bd
       0.020483198 -0.054855376 0.08825367 -0.073105015
000180 de 34 ee 3c 69 c8 79 3d c6 dd a9 3d 0a d6 b2 3c
       0.029077943 0.06098214 0.08294253 0.021830577
000190 5a c3 81 3d 72 b8 74 3d a1 b6 ab bd 76 ea cc 3c
       0.063360885 0.059746213 -0.08384443 0.025014143
0001a0 49 63 1b bd c4 b7 24 3d 22 6c 02 be 87 06 4c bc
       -0.037936483 0.040214315 -0.12736562 -0.012452728
0001b0 21 3d 4a 3d 73 d1 d2 3d 33 32 13 3d 02 73 88 3d
       0.049374703 0.102938555 0.035936546 0.06662561
0001c0 92 9a 45 bd 89 7f 4b bd d7 0e b4 bc 67 5e 91 bd
       -0.048243113 -0.049682174 -0.021979732 -0.07098084
0001d0 87 0d f2 3c d9 6d ad 3d 1d e6 61 bd 66 c8 18 3d
       0.029547466 0.084682174 -0.055151094 0.03730049
0001e0 7d 0e 65 bc 8d ba 0b be a5 af 27 bd ce c1 90 3c
       -0.013980505 -0.13645382 -0.040938992 0.017670538
0001f0 84 a0 26 3c 53 50 87 3d fc 43 fd 3b 43 7c 70 3d
       0.010170106 0.066071175 0.0077290516 0.058712255
000200 9c dd 91 bd aa d3 1f bd 48 63 e7 3b 91 0e 9a 3d
       -0.07122347 -0.039020218 0.007061396 0.075223096
000210 90 cd c4 bb e6 bd df 3d 15 b7 1a bd 51 1b c2 3d
       -0.0060059503 0.10924892 -0.037772257 0.094778664
000220 94 01 a0 3d 40 45 d2 bc 23 fd 11 bd 4a b6 c3 bd
       0.07812801 -0.025667787 -0.0356418 -0.09556253
000230 e7 a0 ba bd f0 75 77 3c 0c ec d1 3d de 00 1c bd
       -0.09112721 0.015103802 0.102501005 -0.038086765
000240 41 b4 6a bd 6e e8 e2 bc 1c b1 b4 bd c8 ec 9f bd
       -0.05730081 -0.027698722 -0.088228434 -0.07808834
000250 af 19 84 3d 79 d3 de 3a 67 0c 0c be 23 dd 1e 3e
       0.06450211 0.001700028 -0.13676606 0.15514044
000260 ca a2 a1 3d 98 a5 9a bc bc 87 01 bd 59 a1 bf 3c
       0.07892378 -0.01887779 -0.031623587 0.023392366
000270 9a 6b 01 3c ed 5e 91 bd 80 48 e1 bd 42 a9 1d 3c
       0.007899189 -0.07098184 -0.110001564 0.009622874
000280 39 64 eb 3d bf 24 30 3d 41 25 9a 3d 99 2d d6 3b
       0.11493725 0.043003794 0.07526637 0.0065361974
000290 e6 2a 71 bc e1 da 18 3d df aa 8b 3d 1c 1f 6d 3d
       -0.0147197 0.037318114 0.068197004 0.057890996
0002a0 fa ce 8c bc 17 fc 09 be 77 9c 8e 3c 92 44 97 bd
       -0.017188538 -0.13475071 0.017408593 -0.073861256
0002b0 72 3b 17 3d 92 b2 05 3d a7 01 8d 3d 70 ce 31 bd
       0.036921926 0.032641 0.06885081 -0.043409765
0002c0 90 ea 42 bd 4c 5a 81 bd a1 80 df bd d8 d1 ec bd
       -0.047586977 -0.06316051 -0.10913206 -0.11563462
0002d0 c3 41 81 bd e2 6f 3b 3c 96 b5 21 bc 3d 8d 01 be
       -0.06311371 0.011440249 -0.009869954 -0.12651534
0002e0 9b 43 f3 bd 05 87 e1 bd 57 93 cb bd 8d 32 2d be
       -0.11878129 -0.11012081 -0.09940212 -0.16913815
0002f0 20 a0 dc ba 66 b4 9f bd 98 29 a6 bd 5e 9e 5a bd
       -0.0016832389 -0.0779808 -0.08113402 -0.053373687
000300 74 7f ea bd 64 26 d8 bc 73 d7 90 bd 23 20 05 be
       -0.11450091 -0.026385494 -0.07072344 -0.1300054
000310 16 29 60 be 18 66 44 bd 46 44 94 3d db bf 3b 3d
       -0.21890673 -0.047948927 0.072395846 0.045837265
000320 e9 45 f3 bd 2c 5e d7 3d da 7c d4 3d cc 72 d8 3d
       -0.11878569 0.10516009 0.10375376 0.10568771
000330 d1 1f 2e bd b7 0c a7 39 b5 b5 5c 3d 3c 3a b9 bd
       -0.04251081 0.00031862195 0.053884227 -0.090443105
000340 b9 76 9b bd 70 b0 81 bd bb 0e 25 3d 5f f8 32 3a
       -0.07591004 -0.06332481 0.04029725 0.00068271713
000350 87 3b e7 bd 4c 2e eb bc 20 3e 10 3e ab 02 98 3c
       -0.11290651 -0.0287086 0.14086199 0.01855596
000360 c3 e6 09 3d 07 29 49 3d 56 2d 32 3d f6 a8 a0 bc
       0.033667337 0.049111392 0.043500267 -0.019611817
000370 d1 58 57 bd 02 59 1f 3d d2 57 fb bb 43 a2 3a bd
       -0.052574936 0.038903244 -0.007670381 -0.0455649
000380 13 b1 e2 3c 68 c4 a8 3c 60 b6 8a bd 69 b9 b7 3c
       0.027672326 0.020601466 -0.067730665 0.022427278
000390 9a e5 90 3b 4d be c2 bc 2b 64 b6 bd 8d 3f 5a bc
       0.004421902 -0.023772383 -0.08905824 -0.013320816
0003a0 d3 2c 42 bc 34 49 62 bd 67 84 42 bd 0e d4 ae bd
       -0.011851507 -0.055245593 -0.04748955 -0.0853654
0003b0 1f 47 90 bc 93 e3 e5 3c 75 eb fb 3c b1 2b 96 3c
       -0.017612038 0.028062617 0.030751923 0.01833138
0003c0 50 70 4d bd 3f 36 aa 3c d3 67 3e bd ee 09 21 3d
       -0.050155938 0.02077782 -0.046485733 0.03931611
0003d0 c0 69 16 3e d8 ae 5a bd d7 32 ac bd c7 4e 1a 3d
       0.14688778 -0.0533894 -0.084081344 0.037672784
0003e0 fe 21 ac bc e0 8c c7 3c ec 53 fd 3d e6 f7 8a 3d
       -0.021012302 0.024359167 0.123695225 0.06785564
0003f0 cc 1e 53 3d c5 36 ca bc 96 7b b7 bb 31 3b c6 3c
       0.051543042 -0.02468432 -0.0055994494 0.024198147

tpcnns.3.bias f4 [12]
000000 53 11 6c bd 8b 3d 1d 3e a9 f3 ab 3c c6 07 ce 3c
       -0.05763371 0.15355508 0.02099021 0.025150191
000010 21 14 fe bc 8d 07 34 3e 6d 5b fd 3d 1b 3d 2e bd
       -0.031015458 0.17581005 0.12370954 -0.042538743
000020 2f 86 b6 3c d2 12 a7 3c 39 e2 c3 3e ec cc ec bd
       0.02228078 0.020394716 0.38258532 -0.11562523

tpcnns.4.weight f4 [12, 12, 3, 3]
000000 ad eb 99 bd 6b 22 81 3d 2c 98 b3 bd 6b 3d 9d 3d
       -0.07515655 0.06305393 -0.08769259 0.0767773
000010 db da 1c bd 31 ae 87 bd d2 6e 98 bd 38 86 b4 bc
       -0.038294654 -0.06625021 -0.07443012 -0.022036657
000020 d8 9f a0 bc c2 42 38 3d d0 ee c2 3b f6 69 1e 3d
       -0.01960747 0.04498554 0.005948879 0.03867527
000030 87 8c b0 3d 10 5e 87 bd 40 63 a8 bc 68 29 ed bc
       0.086205535 -0.06609738 -0.020555139 -0.028950408
000040 e7 4f 81 3d 4e b8 26 3d d1 0e 22 bd 14 4d af bd
       0.06314068 0.04070311 -0.03956491 -0.08559623
000050 40 20 82 bd a0 f5 10 3b 04 bd 01 bd 5c 91 a0 3c
       -0.063538074 0.002211906 -0.0316744 0.019600563
000060 0e 99 91 bd 20 dc 3f 3b bb d6 3e bd 20 7c 30 3c
       -0.07109271 0.0029275492 -0.0465915 0.010771781
000070 d0 18 ae bb f7 67 bf bd 99 da a4 3d a8 c5 9d bd
       -0.0053130165 -0.093460016 0.08049507 -0.077037156
000080 5a ff 26 3d 27 f5 b8 3d 6f 8a be 3d 9d 58 c1 bd
       0.040770866 0.09031134 0.09303748 -0.0944073
000090 5e 3c 55 3d 25 1e b2 3d 1e b1 33 bd 09 c8 ba bd
       0.052059524 0.08697156 -0.043870084 -0.09120185
0000a0 24 36 fe 3c 79 17 89 3d 9d b3 b9 3d 18 bc 09 bc
       0.031031676 0.0669393 0.09067462 -0.008406661
0000b0 74 35 ab 3c e2 0b 0f bd ac 7e 91 bd 6e 2a 06 3d
       0.020899512 -0.03492344 -0.07104239 0.032755308
0000c0 85 c1 ba 3d 1f 85 9f bd 5d ac 81 3d d1 ef b9 3d
       0.09118942 -0.07789063 0.06331704 0.090789445
0000d0 bc 17 c3 bd 5c a6 66 bd 0a e9 0a 3d cc ff d7 3c
       -0.09526011 -0.056310996 0.03391365 0.02636709
0000e0 b9 86 86 3d b7 3f bb 3d ec c8 80 bd b7 15 72 bd
       0.06568665 0.09143012 -0.06288323 -0.05910274
0000f0 a7 65 ae 3d e8 07 0c bd 03 64 ac 3d c0 36 14 bd
       0.085154824 -0.034187227 0.08417513 -0.036185026
000100 d0 c1 b1 bb e5 37 af 3d 88 af 45 bd 7a e1 26 3d
       -0.0054247156 0.08555583 -0.048263103 0.040742375
000110 a0 88 12 bd 64 f5 9d bd 7c 93 c1 3c 44 15 fb bc
       -0.035774827 -0.0771282 0.023629896 -0.030649789
000120 30 8e 4a 3c 84 7c 92 3c ac 64 84 bd d5 41 7c bd
       0.012363002 0.01788164 -0.06464514 -0.06158622
000130 a6 7c 78 3d ec 7b 3b bd 50 b4 1d bd e8 e0 38 3c
       0.06066575 -0.045772478 -0.038502038 0.011284091
000140 89 b7 be bd 96 5a 37 3d 9a 91 16 3d e6 30 23 bd
       -0.0931235 0.044764124 0.03675995 -0.039841555
000150 a5 62 8f bd 56 cd a2 bd 70 3d e8 3b c8 16 28 3c
       -0.07001237 -0.07949321 0.007087402 0.010259338
000160 ef aa b1 3d 5a fe 67 bd 8e 74 76 3d 68 4a 76 bc
       0.08675181 -0.056639053 0.06016975 -0.015032388
000170 5e a1 4f 3d c4 60 91 bc d0 13 71 bc 7d af a8 3d
       0.050691 -0.017746337 -0.014714196 0.08236597
000180 5a d6 15 3d 4e 58 96 bd a6 de 17 bd 1d 38 6e bd
       0.036581375 -0.073410615 -0.03707757 -0.058158983
000190 a8 34 4c bc b8 a7 e7 3c 44 ac e5 3c 6a 6c 45 3d
       -0.012463726 0.028278217 0.028036244 0.048199095
0001a0 2f fd b0 3d 6a cb 4f 3d 28 a0 23 bd 5e 62 23 bd
       0.08642041 0.0507311 -0.03994766 -0.039888732
0001b0 9d 18 47 bd 00 bd 8a b9 22 8c 26 3d 48 e2 df 3c
       -0.048607457 -0.00026462227 0.040660985 0.027329579
0001c0 ee d8 13 bd 00 b8 52 39 bc 5f 87 bd 52 8f af bd
       -0.036095552 0.00020095706 -0.06610057 -0.08572258
0001d0 0d b2 90 3d a4 11 aa 3c 55 6f 84 bd f2 44 07 3d
       0.070652105 0.020760365 -0.064665474 0.033024736
0001e0 cc 49 b7 bd 3c 25 9c bc 8b 22 1b bd ec 58 9f 3c
       -0.089496225 -0.019060723 -0.03787474 0.019451581
0001f0 d8 35 52 bd 45 ca 8a 3d b1 4e 93 bd 2b 84 2a bd
       -0.05132088 0.06776861 -0.071927436 -0.04162995
000200 ce 09 2a bd a3 2d 4c bd fb f4 a0 3d ae 69 04 3d
       -0.041513257 -0.04984821 0.07859226 0.032327347
000210 c4 63 a3 bd 23 89 a0 3d 69 c6 69 bd 44 4c 86 bc
       -0.07978013 0.07838657 -0.057073984 -0.016393788
000220 9c 22 f3 3c 11 96 92 3d 99 52 c4 3d d6 55 7a 3d
       0.029679589 0.07157529 0.09586067 0.061117016
000230 c0 d2 e0 3c 46 04 50 3d 2f cb a8 3d d1 7d ab 3d
       0.027444243 0.050785325 0.08241879 0.08373607
000240 12 82 7a bd 15 e8 99 3d 87 55 32 bd 19 5f 43 bd
       -0.0611592 0.07514969 -0.043538596 -0.047698114
000250 a5 93 a6 3d 62 f5 57 3d e4 e8 dd bc d8 71 82 bd
       0.0813363 0.05272425 -0.02708859 -0.0636937
000260 b3 f8 98 3d 96 da 2c 3d 68 85 3e 3c 83 21 a8 3d
       0.074693106 0.042200647 0.011628486 0.08209517
000270 e8 6f 46 bc 3e dc 22 bd 10 3e 71 bd 38 da df 3c
       -0.0121116415 -0.03976082 -0.058897078 0.027325734
000280 fe f9 90 bd dc 50 d3 bc 51 48 75 bd 80 85 17 bb
       -0.07078932 -0.025795393 -0.05988342 -0.0023120344
000290 92 92 30 3d 88 42 64 bc 86 35 39 3d 37 1d 0b bd
       0.04310853 -0.013931878 0.04521706 -0.03396341
0002a0 ef 7e 5a bd 98 c4 a8 bc a7 78 ae 3d ed 20 8d 3d
       -0.05334371 -0.020601556 0.08519106 0.06891046
0002b0 98 8e 1d 3c 1b 9a a2 3d 97 fe 70 bd 28 d7 cf 3c
       0.0096165165 0.079395495 -0.058836546 0.02537115
0002c0 b8 72 ea 3c fa a5 4b 3d 8b 40 bc 3d b6 76 23 3d
       0.028619155 0.049718834 0.09191998 0.039908133
0002d0 f8 76 12 bd c5 74 a6 bd 50 b4 22 bc 44 f2 59 bd
       -0.03575799 -0.08127741 -0.009930685 -0.053209558
0002e0 18 5e 82 bc e7 6f af 3d 06 f7 b3 bd e5 29 83 3d
       -0.015914008 0.085662656 -0.0878735 0.06404475
0002f0 50 aa 8f 3c e5 52 6b bd e8 75 c2 bd 00 31 a2 b9
       0.017537266 -0.0574521 -0.09495145 -0.00030935556
000300 4a 52 78 3d 30 c0 ff bc 6e 27 0a 3d c6 62 3c 3d
       0.060625352 -0.031219572 0.03372901 0.045992635
000310 b7 30 95 3d 20 16 14 bc 3c 54 b7 bd 91 09 85 3d
       0.07284682 -0.009038478 -0.08951613 0.06495965
000320 62 68 22 3d 24 ba ab 3c cc 52 91 bd de 35 2c bd
       0.03965033 0.020962782 -0.070958704 -0.04204356
000330 57 ea 39 bd 76 fd ae bd f8 7d c2 3c 2d 45 86 3d
       -0.0453895 -0.085444376 0.023741707 0.06556163
000340 00 f4 b6 b8 80 13 75 bd 4b 6b b4 3d 84 69 90 bc
       -8.723885e-05 -0.05983305 0.08809527 -0.017628439
000350 08 e5 f6 bc cc 66 a4 bc f1 30 80 3d 12 d9 18 3d
       -0.030138507 -0.020068549 0.06259335 0.03731639
000360 4b 01 88 3d 90 e2 96 bc 94 5a 97 bd 63 46 58 bd
       0.066408716 -0.01841858 -0.07390323 -0.0528015
000370 6c c1 ed bc 84 b1 c8 3c 10 ad 5a bd 45 5b ba 3d
       -0.029022895 0.024498709 -0.0533877 0.090994395
000380 a4 3c ea 3c 5c 55 f4 3c 40 85 3c 3c 57 18 a1 3d
       0.028593369 0.029825859 0.011506379 0.078659706
000390 40 5a 32 bb f2 79 23 bd 48 71 6a bc 71 df 96 3d
       -0.0027214438 -0.039911218 -0.014309235 0.07366837
0003a0 80 1f df 3a 47 4b a6 bd 7f 32 73 bd 00 e0 82 bc
       0.0017022938 -0.08119827 -0.05937433 -0.015975952
0003b0 1f 09 6e bd ce 66 1c 3d 4c 2a f0 3c 5e d0 bc bd
       -0.058114167 0.03818398 0.029317044 -0.092194304
0003c0 4b 44 8e 3d d1 f1 ba 3d ce 24 60 3d 8b 99 43 bd
       0.069466196 0.09128154 0.0547226 -0.04775385
0003d0 e1 ec 93 3d 94 db c3 bc 40 28 9a bd a7 15 b8 3d
       0.072229154 -0.023908414 -0.07527208 0.08988505
0003e0 50 18 9f 3c 37 24 22 bd 48 d5 10 3c 50 8c 77 bd
       0.019420773 -0.03958532 0.008839913 -0.060436547
0003f0 23 12 ad 3d 09 a8 b3 bd 7f be 87 bd 4b 32 87 3d
       0.08450725 -0.087722845 -0.06628131 0.066013895

tpcnns.4.bias f4 [12]
000000 70 54 f8 3b da 5c 27 3d 93 f6 a8 3d 14 62 f6 3c
       0.007578425 0.040860035 0.08250155 0.030076064
000010 44 64 dd bc c8 e8 48 bc c3 42 b2 3d f6 91 b9 bd
       -0.02702535 -0.012262531 0.0870414 -0.09061043
000020 3d 97 a1 bd 5d 6c 83 3d 2f 04 b1 3d be b5 4a 3d
       -0.078901745 0.06417153 0.08643376 0.04948973

tpcnn_ouput.weight f4 [12, 12, 3, 3]
000000 dc 17 74 3d 7e de 1d bd ff ca 5a bd ec b7 a1 3c
       0.059593067 -0.038542263 -0.05341625 0.019741021
000010 be d0 c6 3a 63 33 7d bd 8f 37 28 3d ef 0f ec 3d
       0.0015168411 -0.061816584 0.04106861 0.115264766
000020 d3 00 51 3c c5 76 89 3d 11 0a 83 3d 59 73 19 bd
       0.012756544 0.067121066 0.063984044 -0.03746352
000030 81 4b a7 3c 8b 6c fc bc a1 bb d4 bc 7a 85 46 bc
       0.020421745 -0.030813476 -0.025968375 -0.012116784
000040 25 dd 51 be 54 7e 82 bd d7 64 34 3d 5a 3f 88 bc
       -0.20494516 -0.063717514 0.04404148 -0.01663177
000050 35 92 85 bc ab 87 92 bd b0 ce 3a bd e8 d8 2f 3d
       -0.016305069 -0.07154783 -0.04560727 0.042931467
000060 f9 44 1d bd 8c be 30 3d 77 b1 c4 3d a7 f5 fc 3c
       -0.038395856 0.04315047 0.09604161 0.030878855
000070 40 84 0e be 3b 11 f1 3c d4 a5 99 3d b0 3b e3 bd
       -0.13917637 0.029427161 0.07502332 -0.11095369
000080 5a a9 9c 3b 53 e1 17 bd 33 7e 78 bd 72 26 09 bd
       0.0047809305 -0.03708012 -0.060667228 -0.03348393
000090 0d dc 5f 3c 41 4e b4 bd 5d a3 c5 bc 7e 43 06 3d
       0.013663304 -0.08803988 -0.02412575 0.03277921
0000a0 b4 87 b6 bd 22 64 d8 3b 34 6b 17 3c 37 4d bf bd
       -0.08912602 0.0066037336 0.009241868 -0.093408994
0000b0 c7 d5 11 bd 81 9e a8 bc 71 86 e2 3d 4c 9a 13 3d
       -0.035604265 -0.020583393 0.11060799 0.03603582
0000c0 f8 7b 9c bc be 9e d8 3d 5c 71 8d 3b 42 81 56 bd
       -0.019102082 0.10577153 0.004316492 -0.052369364
0000d0 a5 14 52 3d 06 b5 ed bb 49 33 b9 3c b5 03 90 3d
       0.05128922 -0.0072542457 0.022607462 0.07031957
0000e0 3e e1 9d bb fd f5 db bc 35 3b 21 3d eb 2c ec 3c
       -0.0048181107 -0.026850695 0.039363105 0.028830012
0000f0 7d b8 85 3d 66 4e 1a 3d 8e 1a 72 bc 00 23 80 bd
       0.06529329 0.037672423 -0.014776839 -0.06256676
000100 ea 57 c3 3d d6 a7 2f 3d f9 eb ac bc 4a fd dc 3d
       0.09538253 0.04288467 -0.021108614 0.107904986
000110 2e 4b bb bc 66 6b 01 bc b9 ad 4c 3d 71 5f fd ba
       -0.022862997 -0.007899141 0.049970362 -0.0019330812
000120 86 6c 96 3d b9 92 41 bd 63 95 d9 3b f9 81 3c 3c
       0.07344918 -0.047259066 0.0066401227 0.011505597
000130 b9 14 2d bb 39 0d 0c bd 02 13 0f bd 4c f8 3c 3b
       -0.0026410057 -0.034192298 -0.034930237 0.002883452
000140 ad 70 ab bc 1b 93 f7 3c 1f 6d fc bc 8d 35 07 3d
       -0.020927751 0.030221513 -0.030813752 0.033010054
000150 df 71 54 bd 81 c7 5d 3d 0d 22 2b 3c 9c 24 ab bd
       -0.05186641 0.05414534 0.01044513 -0.08356592
000160 17 16 80 3d 94 48 2b bc 29 6c ce bc 27 6e 19 bd
       0.06254213 -0.010454316 -0.02519806 -0.037458565
000170 28 0c 47 bd 7b 4d 0e bc e4 01 4e bb 7c ae 35 bd
       -0.048595577 -0.008685465 -0.0031434232 -0.044355854
000180 f0 69 1c 3d 5c 6c 27 3d 6c f1 19 3c 8e 48 2d bd
       0.038186967 0.040874824 0.009395938 -0.04230552
000190 0f 79 b9 bd 6a ab 15 3d fa 35 36 bd 99 e7 f0 3c
       -0.09056293 0.036540426 -0.04448507 0.02940731
0001a0 2e cf 30 3d 3b 94 34 3c c3 0a a9 bd 68 d2 1a 3d
       0.043166332 0.011021669 -0.08254006 0.037798315
0001b0 54 d1 8f 3d d6 57 0f bd d5 4c 49 bd 9e e1 e6 3c
       0.07022348 -0.034995876 -0.04914554 0.028183755
0001c0 b0 82 92 bc 78 45 3c bd 02 09 51 3d 9f 95 17 3e
       -0.017884582 -0.045964688 0.05103398 0.1480317
0001d0 e1 ec 24 3a 6c c6 8a 3d 40 07 68 3d d4 a4 11 bd
       0.0006291401 0.06776127 0.05664754 -0.035557583
0001e0 d6 e8 46 3c 56 70 ec bc bd a0 2d bd 6e a5 6f bb
       0.012140473 -0.02886216 -0.04238962 -0.003656711
0001f0 54 6b 5f be f9 a5 53 bd a6 2e 09 3d f1 c3 29 bc
       -0.21818286 -0.051671956 0.033491753 -0.0103616575
000200 f9 c5 b8 3b be b7 60 bd c2 6c 55 bd fb de 1d 3d
       0.0056388346 -0.05486273 -0.052105673 0.03854273
000210 f1 db 38 bd ca 77 f6 3c fa fd b3 3d 2d f2 03 3d
       -0.045131627 0.030086417 0.087886766 0.03221338
000220 9f a7 16 be c6 0d 87 3c c0 4e 82 3d 7c 37 d2 bd
       -0.1471238 0.01648606 0.063626766 -0.10264489
000230 b4 8b da 3c 8b 5e 26 bd f4 d7 97 bd bb bc e6 bc
       0.026677944 -0.040617507 -0.07414237 -0.028166166
000240 96 e5 c2 3b f1 80 c9 bd a1 90 36 bd 75 5c 0d 3d
       0.005947779 -0.09839047 -0.044571523 0.034512002
000250 e3 5c 7c bd 25 30 06 3d d1 bd df 3b 7e cd c6 bd
       -0.06161202 0.032760758 0.006828048 -0.09707163
000260 8a 07 40 bd 94 67 e3 ba 6e 34 ae 3d 36 c1 e0 3c
       -0.04688219 -0.0017349594 0.08506094 0.02743588
000270 05 07 04 bc ff 7a b5 3d 78 df 9c 3c 06 29 70 bd
       -0.008058314 0.0886135 0.019149527 -0.058632873
000280 ec 51 69 3d 31 e9 6e bc 2c 74 ba 3b 02 27 b2 3d
       0.056962892 -0.014581964 0.0056901183 0.086988464
000290 6d 61 95 3c 43 2f d0 ba da 03 11 3d c6 5c 99 3b
       0.018234933 -0.0015883226 0.035404064 0.004680249
0002a0 49 66 42 3d b4 ca 91 3d f7 cf f0 3b a8 9d 7c bd
       0.047460828 0.07118741 0.00734901 -0.06167379
0002b0 cb 07 ba 3d aa 43 3c 3d 34 5c c9 3b f3 4f b6 3d
       0.09083518 0.045962967 0.0061450247 0.08901968
0002c0 3e 85 08 bc 40 a7 9b bc 04 db 41 3d 96 e5 56 bc
       -0.008332549 -0.01900065 0.04732801 -0.013116261
0002d0 13 4c 19 3d c4 1e d8 bc 09 12 01 bc f1 64 5b 3c
       0.037426066 -0.026381858 -0.007877835 0.0133907655
0002e0 69 12 1c bb 74 e3 54 bd a9 85 15 bd 8c 8a e5 bc
       -0.0023814684 -0.05197473 -0.03650442 -0.028020166
0002f0 37 af 93 bc 24 7e 3c 3c 7c f3 fe bc a7 91 a6 3c
       -0.018027885 0.011504684 -0.031121962 0.020333124
000300 f5 58 3a bd 02 e1 41 3d a5 46 1b 3d 51 67 be bd
       -0.045494992 0.047333725 0.03790917 -0.0929705
000310 79 f4 49 3d 87 3b b3 bc 0b 0c f4 bc e1 32 a8 bc
       0.049305413 -0.02187897 -0.029790899 -0.020532073
000320 52 af 6e bd ca e5 03 bc b8 7c 76 3a 7f 27 07 bd
       -0.058272667 -0.008050391 0.000940274 -0.03299665
000330 ca 5c 52 3d 26 18 26 3d 98 f1 11 bc 45 4c d6 bc
       0.05135802 0.040550373 -0.008907698 -0.026159415
000340 a8 9b b2 bd 5d 87 c4 3c 23 72 0f bd 87 a5 f9 3c
       -0.08721095 0.023990327 -0.03502096 0.030474437
000350 e7 3b 56 3d b9 bd 99 3b a8 52 a5 bd 5e 1a 1d 3d
       0.05230322 0.004691806 -0.08072406 0.038355224
000360 48 ff e9 3c 6b bc 80 bd 90 e2 32 bd e9 33 49 3d
       0.02856411 -0.06285938 -0.043673098 0.04912177
000370 9b 5f 58 bd c2 02 1d bd 79 d6 28 3d 09 4c 03 3e
       -0.05282555 -0.03833271 0.041220162 0.12821974
000380 62 f3 9b 3c 3d 5d 49 3d 7a 35 90 3d c4 92 1b 3c
       0.019036952 0.049161185 0.0704145 0.009495441
000390 d7 ed 6f 3c 29 d2 80 bd bc 75 93 bc 76 26 23 3d
       0.014644108 -0.06290085 -0.018000476 0.0398316
0003a0 e4 32 27 be e6 b4 cb bc 36 3c e1 3c a6 7a e8 bd
       -0.16328007 -0.024866533 0.027494531 -0.11351518
0003b0 e4 02 62 bd e1 ab 20 bd 11 b8 b0 3d 23 bf a1 3b
       -0.055178538 -0.039226416 0.08628858 0.0049361154
0003c0 bd 07 e4 bc f3 60 84 3d 38 76 b2 3c 91 02 6f 3d
       -0.027835721 0.06463804 0.021784887 0.058352057
0003d0 90 af 13 bd b0 f4 4e bd d3 33 1a 3d 14 76 8d bd
       -0.0360561 -0.05052632 0.03764708 -0.06907287
0003e0 26 20 7d 3d d8 70 8e 3d 45 de 6f 3d 26 45 3a bc
       0.061798237 0.06955117 0.058561582 -0.011369025
0003f0 d7 b8 b9 ba 4f 0d 32 3e 84 c0 65 3c a5 e7 8e 3c
       -0.0014169466 0.1738789 0.01402295 0.017444441

tpcnn_ouput.bias f4 [12]
000000 6f 9a a4 bc d3 5f 8e bc ce 35 08 3b 2e 1d a9 bc
       -0.02009317 -0.017379677 0.0020784023 -0.020643797
000010 34 63 52 be 7e 70 49 bf b2 c3 3d bf a4 98 5c bf
       -0.20545655 -0.78687274 -0.7412673 -0.8617041
000020 b5 99 63 bf 0b d1 c2 be 43 26 c5 3c c5 01 89 bd
       -0.88906413 -0.38050112 0.024066096 -0.06689791
